{"format": "layers-model", "generatedBy": "keras v2.10.0", "convertedBy": "TensorFlow.js Converter v4.22.0", "modelTopology": {"keras_version": "2.10.0", "backend": "tensorflow", "model_config": {"class_name": "Functional", "config": {"name": "GhostNet", "layers": [{"class_name": "InputLayer", "config": {"batch_input_shape": [null, 112, 112, 3], "dtype": "float32", "sparse": false, "ragged": false, "name": "input_4"}, "name": "input_4", "inbound_nodes": []}, {"class_name": "Conv2D", "config": {"name": "conv2d_53", "trainable": true, "dtype": {"class_name": "Policy", "config": {"name": "mixed_float16"}}, "filters": 16, "kernel_size": [3, 3], "strides": [2, 2], "padding": "same", "data_format": "channels_last", "dilation_rate": [1, 1], "groups": 1, "activation": "linear", "use_bias": false, "kernel_initializer": {"class_name": "VarianceScaling", "config": {"scale": 2.0, "mode": "fan_out", "distribution": "truncated_normal", "seed": null}}, "bias_initializer": {"class_name": "Zeros", "config": {}}, "kernel_regularizer": {"class_name": "L2", "config": {"l2": 0.0002500000118743628}}, "bias_regularizer": null, "activity_regularizer": null, "kernel_constraint": null, "bias_constraint": null}, "name": "conv2d_53", "inbound_nodes": [[["input_4", 0, 0, {}]]]}, {"class_name": "BatchNormalization", "config": {"name": "batch_normalization_80", "trainable": true, "dtype": {"class_name": "Policy", "config": {"name": "mixed_float16"}}, "axis": [3], "momentum": 0.9, "epsilon": 1e-05, "center": true, "scale": true, "beta_initializer": {"class_name": "Zeros", "config": {}}, "gamma_initializer": {"class_name": "Ones", "config": {}}, "moving_mean_initializer": {"class_name": "Zeros", "config": {}}, "moving_variance_initializer": {"class_name": "Ones", "config": {}}, "beta_regularizer": null, "gamma_regularizer": null, "beta_constraint": null, "gamma_constraint": null}, "name": "batch_normalization_80", "inbound_nodes": [[["conv2d_53", 0, 0, {}]]]}, {"class_name": "PReLU", "config": {"name": "activation_48", "trainable": true, "dtype": {"class_name": "Policy", "config": {"name": "mixed_float16"}, "shared_object_id": 13}, "alpha_initializer": {"class_name": "Constant", "config": {"value": 0.25}}, "alpha_regularizer": null, "alpha_constraint": null, "shared_axes": [1, 2]}, "name": "activation_48", "inbound_nodes": [[["batch_normalization_80", 0, 0, {}]]]}, {"class_name": "Conv2D", "config": {"name": "conv2d_54", "trainable": true, "dtype": {"class_name": "Policy", "config": {"name": "mixed_float16"}}, "filters": 8, "kernel_size": [1, 1], "strides": [1, 1], "padding": "same", "data_format": "channels_last", "dilation_rate": [1, 1], "groups": 1, "activation": "linear", "use_bias": false, "kernel_initializer": {"class_name": "VarianceScaling", "config": {"scale": 2.0, "mode": "fan_out", "distribution": "truncated_normal", "seed": null}}, "bias_initializer": {"class_name": "Zeros", "config": {}}, "kernel_regularizer": {"class_name": "L2", "config": {"l2": 0.0002500000118743628}}, "bias_regularizer": null, "activity_regularizer": null, "kernel_constraint": null, "bias_constraint": null}, "name": "conv2d_54", "inbound_nodes": [[["activation_48", 0, 0, {}]]]}, {"class_name": "BatchNormalization", "config": {"name": "batch_normalization_81", "trainable": true, "dtype": {"class_name": "Policy", "config": {"name": "mixed_float16"}}, "axis": [3], "momentum": 0.9, "epsilon": 1e-05, "center": true, "scale": true, "beta_initializer": {"class_name": "Zeros", "config": {}}, "gamma_initializer": {"class_name": "Ones", "config": {}}, "moving_mean_initializer": {"class_name": "Zeros", "config": {}}, "moving_variance_initializer": {"class_name": "Ones", "config": {}}, "beta_regularizer": null, "gamma_regularizer": null, "beta_constraint": null, "gamma_constraint": null}, "name": "batch_normalization_81", "inbound_nodes": [[["conv2d_54", 0, 0, {}]]]}, {"class_name": "PReLU", "config": {"name": "activation_49", "trainable": true, "dtype": {"class_name": "Policy", "config": {"name": "mixed_float16"}, "shared_object_id": 13}, "alpha_initializer": {"class_name": "Constant", "config": {"value": 0.25}}, "alpha_regularizer": null, "alpha_constraint": null, "shared_axes": [1, 2]}, "name": "activation_49", "inbound_nodes": [[["batch_normalization_81", 0, 0, {}]]]}, {"class_name": "DepthwiseConv2D", "config": {"name": "depthwise_conv2d_41", "trainable": true, "dtype": {"class_name": "Policy", "config": {"name": "mixed_float16"}}, "kernel_size": [3, 3], "strides": [1, 1], "padding": "same", "data_format": "channels_last", "dilation_rate": [1, 1], "groups": 1, "activation": "linear", "use_bias": false, "bias_initializer": {"class_name": "Zeros", "config": {}}, "bias_regularizer": null, "activity_regularizer": null, "bias_constraint": null, "depth_multiplier": 1, "depthwise_initializer": {"class_name": "VarianceScaling", "config": {"scale": 2.0, "mode": "fan_out", "distribution": "truncated_normal", "seed": null}}, "depthwise_regularizer": {"class_name": "L2", "config": {"l2": 0.0002500000118743628}}, "depthwise_constraint": null}, "name": "depthwise_conv2d_41", "inbound_nodes": [[["activation_49", 0, 0, {}]]]}, {"class_name": "BatchNormalization", "config": {"name": "batch_normalization_82", "trainable": true, "dtype": {"class_name": "Policy", "config": {"name": "mixed_float16"}}, "axis": [3], "momentum": 0.9, "epsilon": 1e-05, "center": true, "scale": true, "beta_initializer": {"class_name": "Zeros", "config": {}}, "gamma_initializer": {"class_name": "Ones", "config": {}}, "moving_mean_initializer": {"class_name": "Zeros", "config": {}}, "moving_variance_initializer": {"class_name": "Ones", "config": {}}, "beta_regularizer": null, "gamma_regularizer": null, "beta_constraint": null, "gamma_constraint": null}, "name": "batch_normalization_82", "inbound_nodes": [[["depthwise_conv2d_41", 0, 0, {}]]]}, {"class_name": "PReLU", "config": {"name": "activation_50", "trainable": true, "dtype": {"class_name": "Policy", "config": {"name": "mixed_float16"}, "shared_object_id": 13}, "alpha_initializer": {"class_name": "Constant", "config": {"value": 0.25}}, "alpha_regularizer": null, "alpha_constraint": null, "shared_axes": [1, 2]}, "name": "activation_50", "inbound_nodes": [[["batch_normalization_82", 0, 0, {}]]]}, {"class_name": "Concatenate", "config": {"name": "concatenate_32", "trainable": true, "dtype": {"class_name": "Policy", "config": {"name": "mixed_float16"}}, "axis": -1}, "name": "concatenate_32", "inbound_nodes": [[["activation_49", 0, 0, {}], ["activation_50", 0, 0, {}]]]}, {"class_name": "Conv2D", "config": {"name": "conv2d_55", "trainable": true, "dtype": {"class_name": "Policy", "config": {"name": "mixed_float16"}}, "filters": 8, "kernel_size": [1, 1], "strides": [1, 1], "padding": "same", "data_format": "channels_last", "dilation_rate": [1, 1], "groups": 1, "activation": "linear", "use_bias": false, "kernel_initializer": {"class_name": "VarianceScaling", "config": {"scale": 2.0, "mode": "fan_out", "distribution": "truncated_normal", "seed": null}}, "bias_initializer": {"class_name": "Zeros", "config": {}}, "kernel_regularizer": {"class_name": "L2", "config": {"l2": 0.0002500000118743628}}, "bias_regularizer": null, "activity_regularizer": null, "kernel_constraint": null, "bias_constraint": null}, "name": "conv2d_55", "inbound_nodes": [[["concatenate_32", 0, 0, {}]]]}, {"class_name": "BatchNormalization", "config": {"name": "batch_normalization_83", "trainable": true, "dtype": {"class_name": "Policy", "config": {"name": "mixed_float16"}}, "axis": [3], "momentum": 0.9, "epsilon": 1e-05, "center": true, "scale": true, "beta_initializer": {"class_name": "Zeros", "config": {}}, "gamma_initializer": {"class_name": "Ones", "config": {}}, "moving_mean_initializer": {"class_name": "Zeros", "config": {}}, "moving_variance_initializer": {"class_name": "Ones", "config": {}}, "beta_regularizer": null, "gamma_regularizer": null, "beta_constraint": null, "gamma_constraint": null}, "name": "batch_normalization_83", "inbound_nodes": [[["conv2d_55", 0, 0, {}]]]}, {"class_name": "DepthwiseConv2D", "config": {"name": "depthwise_conv2d_42", "trainable": true, "dtype": {"class_name": "Policy", "config": {"name": "mixed_float16"}}, "kernel_size": [3, 3], "strides": [1, 1], "padding": "same", "data_format": "channels_last", "dilation_rate": [1, 1], "groups": 1, "activation": "linear", "use_bias": false, "bias_initializer": {"class_name": "Zeros", "config": {}}, "bias_regularizer": null, "activity_regularizer": null, "bias_constraint": null, "depth_multiplier": 1, "depthwise_initializer": {"class_name": "VarianceScaling", "config": {"scale": 2.0, "mode": "fan_out", "distribution": "truncated_normal", "seed": null}}, "depthwise_regularizer": {"class_name": "L2", "config": {"l2": 0.0002500000118743628}}, "depthwise_constraint": null}, "name": "depthwise_conv2d_42", "inbound_nodes": [[["batch_normalization_83", 0, 0, {}]]]}, {"class_name": "BatchNormalization", "config": {"name": "batch_normalization_84", "trainable": true, "dtype": {"class_name": "Policy", "config": {"name": "mixed_float16"}}, "axis": [3], "momentum": 0.9, "epsilon": 1e-05, "center": true, "scale": true, "beta_initializer": {"class_name": "Zeros", "config": {}}, "gamma_initializer": {"class_name": "Ones", "config": {}}, "moving_mean_initializer": {"class_name": "Zeros", "config": {}}, "moving_variance_initializer": {"class_name": "Ones", "config": {}}, "beta_regularizer": null, "gamma_regularizer": null, "beta_constraint": null, "gamma_constraint": null}, "name": "batch_normalization_84", "inbound_nodes": [[["depthwise_conv2d_42", 0, 0, {}]]]}, {"class_name": "Concatenate", "config": {"name": "concatenate_33", "trainable": true, "dtype": {"class_name": "Policy", "config": {"name": "mixed_float16"}}, "axis": -1}, "name": "concatenate_33", "inbound_nodes": [[["batch_normalization_83", 0, 0, {}], ["batch_normalization_84", 0, 0, {}]]]}, {"class_name": "Add", "config": {"name": "add_16", "trainable": true, "dtype": {"class_name": "Policy", "config": {"name": "mixed_float16"}}}, "name": "add_16", "inbound_nodes": [[["activation_48", 0, 0, {}], ["concatenate_33", 0, 0, {}]]]}, {"class_name": "Conv2D", "config": {"name": "conv2d_56", "trainable": true, "dtype": {"class_name": "Policy", "config": {"name": "mixed_float16"}}, "filters": 24, "kernel_size": [1, 1], "strides": [1, 1], "padding": "same", "data_format": "channels_last", "dilation_rate": [1, 1], "groups": 1, "activation": "linear", "use_bias": false, "kernel_initializer": {"class_name": "VarianceScaling", "config": {"scale": 2.0, "mode": "fan_out", "distribution": "truncated_normal", "seed": null}}, "bias_initializer": {"class_name": "Zeros", "config": {}}, "kernel_regularizer": {"class_name": "L2", "config": {"l2": 0.0002500000118743628}}, "bias_regularizer": null, "activity_regularizer": null, "kernel_constraint": null, "bias_constraint": null}, "name": "conv2d_56", "inbound_nodes": [[["add_16", 0, 0, {}]]]}, {"class_name": "BatchNormalization", "config": {"name": "batch_normalization_85", "trainable": true, "dtype": {"class_name": "Policy", "config": {"name": "mixed_float16"}}, "axis": [3], "momentum": 0.9, "epsilon": 1e-05, "center": true, "scale": true, "beta_initializer": {"class_name": "Zeros", "config": {}}, "gamma_initializer": {"class_name": "Ones", "config": {}}, "moving_mean_initializer": {"class_name": "Zeros", "config": {}}, "moving_variance_initializer": {"class_name": "Ones", "config": {}}, "beta_regularizer": null, "gamma_regularizer": null, "beta_constraint": null, "gamma_constraint": null}, "name": "batch_normalization_85", "inbound_nodes": [[["conv2d_56", 0, 0, {}]]]}, {"class_name": "PReLU", "config": {"name": "activation_51", "trainable": true, "dtype": {"class_name": "Policy", "config": {"name": "mixed_float16"}, "shared_object_id": 13}, "alpha_initializer": {"class_name": "Constant", "config": {"value": 0.25}}, "alpha_regularizer": null, "alpha_constraint": null, "shared_axes": [1, 2]}, "name": "activation_51", "inbound_nodes": [[["batch_normalization_85", 0, 0, {}]]]}, {"class_name": "DepthwiseConv2D", "config": {"name": "depthwise_conv2d_43", "trainable": true, "dtype": {"class_name": "Policy", "config": {"name": "mixed_float16"}}, "kernel_size": [3, 3], "strides": [1, 1], "padding": "same", "data_format": "channels_last", "dilation_rate": [1, 1], "groups": 1, "activation": "linear", "use_bias": false, "bias_initializer": {"class_name": "Zeros", "config": {}}, "bias_regularizer": null, "activity_regularizer": null, "bias_constraint": null, "depth_multiplier": 1, "depthwise_initializer": {"class_name": "VarianceScaling", "config": {"scale": 2.0, "mode": "fan_out", "distribution": "truncated_normal", "seed": null}}, "depthwise_regularizer": {"class_name": "L2", "config": {"l2": 0.0002500000118743628}}, "depthwise_constraint": null}, "name": "depthwise_conv2d_43", "inbound_nodes": [[["activation_51", 0, 0, {}]]]}, {"class_name": "BatchNormalization", "config": {"name": "batch_normalization_86", "trainable": true, "dtype": {"class_name": "Policy", "config": {"name": "mixed_float16"}}, "axis": [3], "momentum": 0.9, "epsilon": 1e-05, "center": true, "scale": true, "beta_initializer": {"class_name": "Zeros", "config": {}}, "gamma_initializer": {"class_name": "Ones", "config": {}}, "moving_mean_initializer": {"class_name": "Zeros", "config": {}}, "moving_variance_initializer": {"class_name": "Ones", "config": {}}, "beta_regularizer": null, "gamma_regularizer": null, "beta_constraint": null, "gamma_constraint": null}, "name": "batch_normalization_86", "inbound_nodes": [[["depthwise_conv2d_43", 0, 0, {}]]]}, {"class_name": "PReLU", "config": {"name": "activation_52", "trainable": true, "dtype": {"class_name": "Policy", "config": {"name": "mixed_float16"}, "shared_object_id": 13}, "alpha_initializer": {"class_name": "Constant", "config": {"value": 0.25}}, "alpha_regularizer": null, "alpha_constraint": null, "shared_axes": [1, 2]}, "name": "activation_52", "inbound_nodes": [[["batch_normalization_86", 0, 0, {}]]]}, {"class_name": "Concatenate", "config": {"name": "concatenate_34", "trainable": true, "dtype": {"class_name": "Policy", "config": {"name": "mixed_float16"}}, "axis": -1}, "name": "concatenate_34", "inbound_nodes": [[["activation_51", 0, 0, {}], ["activation_52", 0, 0, {}]]]}, {"class_name": "DepthwiseConv2D", "config": {"name": "depthwise_conv2d_44", "trainable": true, "dtype": {"class_name": "Policy", "config": {"name": "mixed_float16"}}, "kernel_size": [3, 3], "strides": [2, 2], "padding": "same", "data_format": "channels_last", "dilation_rate": [1, 1], "groups": 1, "activation": "linear", "use_bias": false, "bias_initializer": {"class_name": "Zeros", "config": {}}, "bias_regularizer": null, "activity_regularizer": null, "bias_constraint": null, "depth_multiplier": 1, "depthwise_initializer": {"class_name": "VarianceScaling", "config": {"scale": 2.0, "mode": "fan_out", "distribution": "truncated_normal", "seed": null}}, "depthwise_regularizer": {"class_name": "L2", "config": {"l2": 0.0002500000118743628}}, "depthwise_constraint": null}, "name": "depthwise_conv2d_44", "inbound_nodes": [[["concatenate_34", 0, 0, {}]]]}, {"class_name": "BatchNormalization", "config": {"name": "batch_normalization_87", "trainable": true, "dtype": {"class_name": "Policy", "config": {"name": "mixed_float16"}}, "axis": [3], "momentum": 0.9, "epsilon": 1e-05, "center": true, "scale": true, "beta_initializer": {"class_name": "Zeros", "config": {}}, "gamma_initializer": {"class_name": "Ones", "config": {}}, "moving_mean_initializer": {"class_name": "Zeros", "config": {}}, "moving_variance_initializer": {"class_name": "Ones", "config": {}}, "beta_regularizer": null, "gamma_regularizer": null, "beta_constraint": null, "gamma_constraint": null}, "name": "batch_normalization_87", "inbound_nodes": [[["depthwise_conv2d_44", 0, 0, {}]]]}, {"class_name": "Conv2D", "config": {"name": "conv2d_57", "trainable": true, "dtype": {"class_name": "Policy", "config": {"name": "mixed_float16"}}, "filters": 12, "kernel_size": [1, 1], "strides": [1, 1], "padding": "same", "data_format": "channels_last", "dilation_rate": [1, 1], "groups": 1, "activation": "linear", "use_bias": false, "kernel_initializer": {"class_name": "VarianceScaling", "config": {"scale": 2.0, "mode": "fan_out", "distribution": "truncated_normal", "seed": null}}, "bias_initializer": {"class_name": "Zeros", "config": {}}, "kernel_regularizer": {"class_name": "L2", "config": {"l2": 0.0002500000118743628}}, "bias_regularizer": null, "activity_regularizer": null, "kernel_constraint": null, "bias_constraint": null}, "name": "conv2d_57", "inbound_nodes": [[["batch_normalization_87", 0, 0, {}]]]}, {"class_name": "DepthwiseConv2D", "config": {"name": "depthwise_conv2d_46", "trainable": true, "dtype": {"class_name": "Policy", "config": {"name": "mixed_float16"}}, "kernel_size": [3, 3], "strides": [2, 2], "padding": "same", "data_format": "channels_last", "dilation_rate": [1, 1], "groups": 1, "activation": "linear", "use_bias": false, "bias_initializer": {"class_name": "Zeros", "config": {}}, "bias_regularizer": null, "activity_regularizer": null, "bias_constraint": null, "depth_multiplier": 1, "depthwise_initializer": {"class_name": "VarianceScaling", "config": {"scale": 2.0, "mode": "fan_out", "distribution": "truncated_normal", "seed": null}}, "depthwise_regularizer": {"class_name": "L2", "config": {"l2": 0.0002500000118743628}}, "depthwise_constraint": null}, "name": "depthwise_conv2d_46", "inbound_nodes": [[["add_16", 0, 0, {}]]]}, {"class_name": "BatchNormalization", "config": {"name": "batch_normalization_88", "trainable": true, "dtype": {"class_name": "Policy", "config": {"name": "mixed_float16"}}, "axis": [3], "momentum": 0.9, "epsilon": 1e-05, "center": true, "scale": true, "beta_initializer": {"class_name": "Zeros", "config": {}}, "gamma_initializer": {"class_name": "Ones", "config": {}}, "moving_mean_initializer": {"class_name": "Zeros", "config": {}}, "moving_variance_initializer": {"class_name": "Ones", "config": {}}, "beta_regularizer": null, "gamma_regularizer": null, "beta_constraint": null, "gamma_constraint": null}, "name": "batch_normalization_88", "inbound_nodes": [[["conv2d_57", 0, 0, {}]]]}, {"class_name": "BatchNormalization", "config": {"name": "batch_normalization_90", "trainable": true, "dtype": {"class_name": "Policy", "config": {"name": "mixed_float16"}}, "axis": [3], "momentum": 0.9, "epsilon": 1e-05, "center": true, "scale": true, "beta_initializer": {"class_name": "Zeros", "config": {}}, "gamma_initializer": {"class_name": "Ones", "config": {}}, "moving_mean_initializer": {"class_name": "Zeros", "config": {}}, "moving_variance_initializer": {"class_name": "Ones", "config": {}}, "beta_regularizer": null, "gamma_regularizer": null, "beta_constraint": null, "gamma_constraint": null}, "name": "batch_normalization_90", "inbound_nodes": [[["depthwise_conv2d_46", 0, 0, {}]]]}, {"class_name": "DepthwiseConv2D", "config": {"name": "depthwise_conv2d_45", "trainable": true, "dtype": {"class_name": "Policy", "config": {"name": "mixed_float16"}}, "kernel_size": [3, 3], "strides": [1, 1], "padding": "same", "data_format": "channels_last", "dilation_rate": [1, 1], "groups": 1, "activation": "linear", "use_bias": false, "bias_initializer": {"class_name": "Zeros", "config": {}}, "bias_regularizer": null, "activity_regularizer": null, "bias_constraint": null, "depth_multiplier": 1, "depthwise_initializer": {"class_name": "VarianceScaling", "config": {"scale": 2.0, "mode": "fan_out", "distribution": "truncated_normal", "seed": null}}, "depthwise_regularizer": {"class_name": "L2", "config": {"l2": 0.0002500000118743628}}, "depthwise_constraint": null}, "name": "depthwise_conv2d_45", "inbound_nodes": [[["batch_normalization_88", 0, 0, {}]]]}, {"class_name": "Conv2D", "config": {"name": "conv2d_58", "trainable": true, "dtype": {"class_name": "Policy", "config": {"name": "mixed_float16"}}, "filters": 24, "kernel_size": [1, 1], "strides": [1, 1], "padding": "valid", "data_format": "channels_last", "dilation_rate": [1, 1], "groups": 1, "activation": "linear", "use_bias": false, "kernel_initializer": {"class_name": "VarianceScaling", "config": {"scale": 2.0, "mode": "fan_out", "distribution": "truncated_normal", "seed": null}}, "bias_initializer": {"class_name": "Zeros", "config": {}}, "kernel_regularizer": {"class_name": "L2", "config": {"l2": 0.0002500000118743628}}, "bias_regularizer": null, "activity_regularizer": null, "kernel_constraint": null, "bias_constraint": null}, "name": "conv2d_58", "inbound_nodes": [[["batch_normalization_90", 0, 0, {}]]]}, {"class_name": "BatchNormalization", "config": {"name": "batch_normalization_89", "trainable": true, "dtype": {"class_name": "Policy", "config": {"name": "mixed_float16"}}, "axis": [3], "momentum": 0.9, "epsilon": 1e-05, "center": true, "scale": true, "beta_initializer": {"class_name": "Zeros", "config": {}}, "gamma_initializer": {"class_name": "Ones", "config": {}}, "moving_mean_initializer": {"class_name": "Zeros", "config": {}}, "moving_variance_initializer": {"class_name": "Ones", "config": {}}, "beta_regularizer": null, "gamma_regularizer": null, "beta_constraint": null, "gamma_constraint": null}, "name": "batch_normalization_89", "inbound_nodes": [[["depthwise_conv2d_45", 0, 0, {}]]]}, {"class_name": "BatchNormalization", "config": {"name": "batch_normalization_91", "trainable": true, "dtype": {"class_name": "Policy", "config": {"name": "mixed_float16"}}, "axis": [3], "momentum": 0.9, "epsilon": 1e-05, "center": true, "scale": true, "beta_initializer": {"class_name": "Zeros", "config": {}}, "gamma_initializer": {"class_name": "Ones", "config": {}}, "moving_mean_initializer": {"class_name": "Zeros", "config": {}}, "moving_variance_initializer": {"class_name": "Ones", "config": {}}, "beta_regularizer": null, "gamma_regularizer": null, "beta_constraint": null, "gamma_constraint": null}, "name": "batch_normalization_91", "inbound_nodes": [[["conv2d_58", 0, 0, {}]]]}, {"class_name": "Concatenate", "config": {"name": "concatenate_35", "trainable": true, "dtype": {"class_name": "Policy", "config": {"name": "mixed_float16"}}, "axis": -1}, "name": "concatenate_35", "inbound_nodes": [[["batch_normalization_88", 0, 0, {}], ["batch_normalization_89", 0, 0, {}]]]}, {"class_name": "Add", "config": {"name": "add_17", "trainable": true, "dtype": {"class_name": "Policy", "config": {"name": "mixed_float16"}}}, "name": "add_17", "inbound_nodes": [[["batch_normalization_91", 0, 0, {}], ["concatenate_35", 0, 0, {}]]]}, {"class_name": "Conv2D", "config": {"name": "conv2d_59", "trainable": true, "dtype": {"class_name": "Policy", "config": {"name": "mixed_float16"}}, "filters": 36, "kernel_size": [1, 1], "strides": [1, 1], "padding": "same", "data_format": "channels_last", "dilation_rate": [1, 1], "groups": 1, "activation": "linear", "use_bias": false, "kernel_initializer": {"class_name": "VarianceScaling", "config": {"scale": 2.0, "mode": "fan_out", "distribution": "truncated_normal", "seed": null}}, "bias_initializer": {"class_name": "Zeros", "config": {}}, "kernel_regularizer": {"class_name": "L2", "config": {"l2": 0.0002500000118743628}}, "bias_regularizer": null, "activity_regularizer": null, "kernel_constraint": null, "bias_constraint": null}, "name": "conv2d_59", "inbound_nodes": [[["add_17", 0, 0, {}]]]}, {"class_name": "BatchNormalization", "config": {"name": "batch_normalization_92", "trainable": true, "dtype": {"class_name": "Policy", "config": {"name": "mixed_float16"}}, "axis": [3], "momentum": 0.9, "epsilon": 1e-05, "center": true, "scale": true, "beta_initializer": {"class_name": "Zeros", "config": {}}, "gamma_initializer": {"class_name": "Ones", "config": {}}, "moving_mean_initializer": {"class_name": "Zeros", "config": {}}, "moving_variance_initializer": {"class_name": "Ones", "config": {}}, "beta_regularizer": null, "gamma_regularizer": null, "beta_constraint": null, "gamma_constraint": null}, "name": "batch_normalization_92", "inbound_nodes": [[["conv2d_59", 0, 0, {}]]]}, {"class_name": "PReLU", "config": {"name": "activation_53", "trainable": true, "dtype": {"class_name": "Policy", "config": {"name": "mixed_float16"}, "shared_object_id": 13}, "alpha_initializer": {"class_name": "Constant", "config": {"value": 0.25}}, "alpha_regularizer": null, "alpha_constraint": null, "shared_axes": [1, 2]}, "name": "activation_53", "inbound_nodes": [[["batch_normalization_92", 0, 0, {}]]]}, {"class_name": "DepthwiseConv2D", "config": {"name": "depthwise_conv2d_47", "trainable": true, "dtype": {"class_name": "Policy", "config": {"name": "mixed_float16"}}, "kernel_size": [3, 3], "strides": [1, 1], "padding": "same", "data_format": "channels_last", "dilation_rate": [1, 1], "groups": 1, "activation": "linear", "use_bias": false, "bias_initializer": {"class_name": "Zeros", "config": {}}, "bias_regularizer": null, "activity_regularizer": null, "bias_constraint": null, "depth_multiplier": 1, "depthwise_initializer": {"class_name": "VarianceScaling", "config": {"scale": 2.0, "mode": "fan_out", "distribution": "truncated_normal", "seed": null}}, "depthwise_regularizer": {"class_name": "L2", "config": {"l2": 0.0002500000118743628}}, "depthwise_constraint": null}, "name": "depthwise_conv2d_47", "inbound_nodes": [[["activation_53", 0, 0, {}]]]}, {"class_name": "BatchNormalization", "config": {"name": "batch_normalization_93", "trainable": true, "dtype": {"class_name": "Policy", "config": {"name": "mixed_float16"}}, "axis": [3], "momentum": 0.9, "epsilon": 1e-05, "center": true, "scale": true, "beta_initializer": {"class_name": "Zeros", "config": {}}, "gamma_initializer": {"class_name": "Ones", "config": {}}, "moving_mean_initializer": {"class_name": "Zeros", "config": {}}, "moving_variance_initializer": {"class_name": "Ones", "config": {}}, "beta_regularizer": null, "gamma_regularizer": null, "beta_constraint": null, "gamma_constraint": null}, "name": "batch_normalization_93", "inbound_nodes": [[["depthwise_conv2d_47", 0, 0, {}]]]}, {"class_name": "PReLU", "config": {"name": "activation_54", "trainable": true, "dtype": {"class_name": "Policy", "config": {"name": "mixed_float16"}, "shared_object_id": 13}, "alpha_initializer": {"class_name": "Constant", "config": {"value": 0.25}}, "alpha_regularizer": null, "alpha_constraint": null, "shared_axes": [1, 2]}, "name": "activation_54", "inbound_nodes": [[["batch_normalization_93", 0, 0, {}]]]}, {"class_name": "Concatenate", "config": {"name": "concatenate_36", "trainable": true, "dtype": {"class_name": "Policy", "config": {"name": "mixed_float16"}}, "axis": -1}, "name": "concatenate_36", "inbound_nodes": [[["activation_53", 0, 0, {}], ["activation_54", 0, 0, {}]]]}, {"class_name": "Conv2D", "config": {"name": "conv2d_60", "trainable": true, "dtype": {"class_name": "Policy", "config": {"name": "mixed_float16"}}, "filters": 12, "kernel_size": [1, 1], "strides": [1, 1], "padding": "same", "data_format": "channels_last", "dilation_rate": [1, 1], "groups": 1, "activation": "linear", "use_bias": false, "kernel_initializer": {"class_name": "VarianceScaling", "config": {"scale": 2.0, "mode": "fan_out", "distribution": "truncated_normal", "seed": null}}, "bias_initializer": {"class_name": "Zeros", "config": {}}, "kernel_regularizer": {"class_name": "L2", "config": {"l2": 0.0002500000118743628}}, "bias_regularizer": null, "activity_regularizer": null, "kernel_constraint": null, "bias_constraint": null}, "name": "conv2d_60", "inbound_nodes": [[["concatenate_36", 0, 0, {}]]]}, {"class_name": "BatchNormalization", "config": {"name": "batch_normalization_94", "trainable": true, "dtype": {"class_name": "Policy", "config": {"name": "mixed_float16"}}, "axis": [3], "momentum": 0.9, "epsilon": 1e-05, "center": true, "scale": true, "beta_initializer": {"class_name": "Zeros", "config": {}}, "gamma_initializer": {"class_name": "Ones", "config": {}}, "moving_mean_initializer": {"class_name": "Zeros", "config": {}}, "moving_variance_initializer": {"class_name": "Ones", "config": {}}, "beta_regularizer": null, "gamma_regularizer": null, "beta_constraint": null, "gamma_constraint": null}, "name": "batch_normalization_94", "inbound_nodes": [[["conv2d_60", 0, 0, {}]]]}, {"class_name": "DepthwiseConv2D", "config": {"name": "depthwise_conv2d_48", "trainable": true, "dtype": {"class_name": "Policy", "config": {"name": "mixed_float16"}}, "kernel_size": [3, 3], "strides": [1, 1], "padding": "same", "data_format": "channels_last", "dilation_rate": [1, 1], "groups": 1, "activation": "linear", "use_bias": false, "bias_initializer": {"class_name": "Zeros", "config": {}}, "bias_regularizer": null, "activity_regularizer": null, "bias_constraint": null, "depth_multiplier": 1, "depthwise_initializer": {"class_name": "VarianceScaling", "config": {"scale": 2.0, "mode": "fan_out", "distribution": "truncated_normal", "seed": null}}, "depthwise_regularizer": {"class_name": "L2", "config": {"l2": 0.0002500000118743628}}, "depthwise_constraint": null}, "name": "depthwise_conv2d_48", "inbound_nodes": [[["batch_normalization_94", 0, 0, {}]]]}, {"class_name": "BatchNormalization", "config": {"name": "batch_normalization_95", "trainable": true, "dtype": {"class_name": "Policy", "config": {"name": "mixed_float16"}}, "axis": [3], "momentum": 0.9, "epsilon": 1e-05, "center": true, "scale": true, "beta_initializer": {"class_name": "Zeros", "config": {}}, "gamma_initializer": {"class_name": "Ones", "config": {}}, "moving_mean_initializer": {"class_name": "Zeros", "config": {}}, "moving_variance_initializer": {"class_name": "Ones", "config": {}}, "beta_regularizer": null, "gamma_regularizer": null, "beta_constraint": null, "gamma_constraint": null}, "name": "batch_normalization_95", "inbound_nodes": [[["depthwise_conv2d_48", 0, 0, {}]]]}, {"class_name": "Concatenate", "config": {"name": "concatenate_37", "trainable": true, "dtype": {"class_name": "Policy", "config": {"name": "mixed_float16"}}, "axis": -1}, "name": "concatenate_37", "inbound_nodes": [[["batch_normalization_94", 0, 0, {}], ["batch_normalization_95", 0, 0, {}]]]}, {"class_name": "Add", "config": {"name": "add_18", "trainable": true, "dtype": {"class_name": "Policy", "config": {"name": "mixed_float16"}}}, "name": "add_18", "inbound_nodes": [[["add_17", 0, 0, {}], ["concatenate_37", 0, 0, {}]]]}, {"class_name": "Conv2D", "config": {"name": "conv2d_61", "trainable": true, "dtype": {"class_name": "Policy", "config": {"name": "mixed_float16"}}, "filters": 36, "kernel_size": [1, 1], "strides": [1, 1], "padding": "same", "data_format": "channels_last", "dilation_rate": [1, 1], "groups": 1, "activation": "linear", "use_bias": false, "kernel_initializer": {"class_name": "VarianceScaling", "config": {"scale": 2.0, "mode": "fan_out", "distribution": "truncated_normal", "seed": null}}, "bias_initializer": {"class_name": "Zeros", "config": {}}, "kernel_regularizer": {"class_name": "L2", "config": {"l2": 0.0002500000118743628}}, "bias_regularizer": null, "activity_regularizer": null, "kernel_constraint": null, "bias_constraint": null}, "name": "conv2d_61", "inbound_nodes": [[["add_18", 0, 0, {}]]]}, {"class_name": "BatchNormalization", "config": {"name": "batch_normalization_96", "trainable": true, "dtype": {"class_name": "Policy", "config": {"name": "mixed_float16"}}, "axis": [3], "momentum": 0.9, "epsilon": 1e-05, "center": true, "scale": true, "beta_initializer": {"class_name": "Zeros", "config": {}}, "gamma_initializer": {"class_name": "Ones", "config": {}}, "moving_mean_initializer": {"class_name": "Zeros", "config": {}}, "moving_variance_initializer": {"class_name": "Ones", "config": {}}, "beta_regularizer": null, "gamma_regularizer": null, "beta_constraint": null, "gamma_constraint": null}, "name": "batch_normalization_96", "inbound_nodes": [[["conv2d_61", 0, 0, {}]]]}, {"class_name": "PReLU", "config": {"name": "activation_55", "trainable": true, "dtype": {"class_name": "Policy", "config": {"name": "mixed_float16"}, "shared_object_id": 13}, "alpha_initializer": {"class_name": "Constant", "config": {"value": 0.25}}, "alpha_regularizer": null, "alpha_constraint": null, "shared_axes": [1, 2]}, "name": "activation_55", "inbound_nodes": [[["batch_normalization_96", 0, 0, {}]]]}, {"class_name": "DepthwiseConv2D", "config": {"name": "depthwise_conv2d_49", "trainable": true, "dtype": {"class_name": "Policy", "config": {"name": "mixed_float16"}}, "kernel_size": [3, 3], "strides": [1, 1], "padding": "same", "data_format": "channels_last", "dilation_rate": [1, 1], "groups": 1, "activation": "linear", "use_bias": false, "bias_initializer": {"class_name": "Zeros", "config": {}}, "bias_regularizer": null, "activity_regularizer": null, "bias_constraint": null, "depth_multiplier": 1, "depthwise_initializer": {"class_name": "VarianceScaling", "config": {"scale": 2.0, "mode": "fan_out", "distribution": "truncated_normal", "seed": null}}, "depthwise_regularizer": {"class_name": "L2", "config": {"l2": 0.0002500000118743628}}, "depthwise_constraint": null}, "name": "depthwise_conv2d_49", "inbound_nodes": [[["activation_55", 0, 0, {}]]]}, {"class_name": "BatchNormalization", "config": {"name": "batch_normalization_97", "trainable": true, "dtype": {"class_name": "Policy", "config": {"name": "mixed_float16"}}, "axis": [3], "momentum": 0.9, "epsilon": 1e-05, "center": true, "scale": true, "beta_initializer": {"class_name": "Zeros", "config": {}}, "gamma_initializer": {"class_name": "Ones", "config": {}}, "moving_mean_initializer": {"class_name": "Zeros", "config": {}}, "moving_variance_initializer": {"class_name": "Ones", "config": {}}, "beta_regularizer": null, "gamma_regularizer": null, "beta_constraint": null, "gamma_constraint": null}, "name": "batch_normalization_97", "inbound_nodes": [[["depthwise_conv2d_49", 0, 0, {}]]]}, {"class_name": "PReLU", "config": {"name": "activation_56", "trainable": true, "dtype": {"class_name": "Policy", "config": {"name": "mixed_float16"}, "shared_object_id": 13}, "alpha_initializer": {"class_name": "Constant", "config": {"value": 0.25}}, "alpha_regularizer": null, "alpha_constraint": null, "shared_axes": [1, 2]}, "name": "activation_56", "inbound_nodes": [[["batch_normalization_97", 0, 0, {}]]]}, {"class_name": "Concatenate", "config": {"name": "concatenate_38", "trainable": true, "dtype": {"class_name": "Policy", "config": {"name": "mixed_float16"}}, "axis": -1}, "name": "concatenate_38", "inbound_nodes": [[["activation_55", 0, 0, {}], ["activation_56", 0, 0, {}]]]}, {"class_name": "DepthwiseConv2D", "config": {"name": "depthwise_conv2d_50", "trainable": true, "dtype": {"class_name": "Policy", "config": {"name": "mixed_float16"}}, "kernel_size": [5, 5], "strides": [2, 2], "padding": "same", "data_format": "channels_last", "dilation_rate": [1, 1], "groups": 1, "activation": "linear", "use_bias": false, "bias_initializer": {"class_name": "Zeros", "config": {}}, "bias_regularizer": null, "activity_regularizer": null, "bias_constraint": null, "depth_multiplier": 1, "depthwise_initializer": {"class_name": "VarianceScaling", "config": {"scale": 2.0, "mode": "fan_out", "distribution": "truncated_normal", "seed": null}}, "depthwise_regularizer": {"class_name": "L2", "config": {"l2": 0.0002500000118743628}}, "depthwise_constraint": null}, "name": "depthwise_conv2d_50", "inbound_nodes": [[["concatenate_38", 0, 0, {}]]]}, {"class_name": "BatchNormalization", "config": {"name": "batch_normalization_98", "trainable": true, "dtype": {"class_name": "Policy", "config": {"name": "mixed_float16"}}, "axis": [3], "momentum": 0.9, "epsilon": 1e-05, "center": true, "scale": true, "beta_initializer": {"class_name": "Zeros", "config": {}}, "gamma_initializer": {"class_name": "Ones", "config": {}}, "moving_mean_initializer": {"class_name": "Zeros", "config": {}}, "moving_variance_initializer": {"class_name": "Ones", "config": {}}, "beta_regularizer": null, "gamma_regularizer": null, "beta_constraint": null, "gamma_constraint": null}, "name": "batch_normalization_98", "inbound_nodes": [[["depthwise_conv2d_50", 0, 0, {}]]]}, {"class_name": "GlobalAveragePooling2D", "config": {"name": "global_average_pooling2d_7", "trainable": true, "dtype": {"class_name": "Policy", "config": {"name": "mixed_float16"}}, "data_format": "channels_last", "keepdims": false}, "name": "global_average_pooling2d_7", "inbound_nodes": [[["batch_normalization_98", 0, 0, {}]]]}, {"class_name": "Reshape", "config": {"name": "reshape_7", "trainable": true, "dtype": {"class_name": "Policy", "config": {"name": "mixed_float16"}}, "target_shape": [1, 1, 72]}, "name": "reshape_7", "inbound_nodes": [[["global_average_pooling2d_7", 0, 0, {}]]]}, {"class_name": "Conv2D", "config": {"name": "conv2d_62", "trainable": true, "dtype": {"class_name": "Policy", "config": {"name": "mixed_float16"}}, "filters": 20, "kernel_size": [1, 1], "strides": [1, 1], "padding": "valid", "data_format": "channels_last", "dilation_rate": [1, 1], "groups": 1, "activation": "linear", "use_bias": true, "kernel_initializer": {"class_name": "VarianceScaling", "config": {"scale": 2.0, "mode": "fan_out", "distribution": "truncated_normal", "seed": null}}, "bias_initializer": {"class_name": "Zeros", "config": {}}, "kernel_regularizer": {"class_name": "L2", "config": {"l2": 0.0002500000118743628}}, "bias_regularizer": null, "activity_regularizer": null, "kernel_constraint": null, "bias_constraint": null}, "name": "conv2d_62", "inbound_nodes": [[["reshape_7", 0, 0, {}]]]}, {"class_name": "PReLU", "config": {"name": "activation_57", "trainable": true, "dtype": {"class_name": "Policy", "config": {"name": "mixed_float16"}, "shared_object_id": 13}, "alpha_initializer": {"class_name": "Constant", "config": {"value": 0.25}}, "alpha_regularizer": null, "alpha_constraint": null, "shared_axes": [1, 2]}, "name": "activation_57", "inbound_nodes": [[["conv2d_62", 0, 0, {}]]]}, {"class_name": "Conv2D", "config": {"name": "conv2d_63", "trainable": true, "dtype": {"class_name": "Policy", "config": {"name": "mixed_float16"}}, "filters": 72, "kernel_size": [1, 1], "strides": [1, 1], "padding": "valid", "data_format": "channels_last", "dilation_rate": [1, 1], "groups": 1, "activation": "linear", "use_bias": true, "kernel_initializer": {"class_name": "VarianceScaling", "config": {"scale": 2.0, "mode": "fan_out", "distribution": "truncated_normal", "seed": null}}, "bias_initializer": {"class_name": "Zeros", "config": {}}, "kernel_regularizer": {"class_name": "L2", "config": {"l2": 0.0002500000118743628}}, "bias_regularizer": null, "activity_regularizer": null, "kernel_constraint": null, "bias_constraint": null}, "name": "conv2d_63", "inbound_nodes": [[["activation_57", 0, 0, {}]]]}, {"class_name": "Activation", "config": {"name": "activation_58", "trainable": true, "dtype": {"class_name": "Policy", "config": {"name": "mixed_float16"}}, "activation": "hard_sigmoid"}, "name": "activation_58", "inbound_nodes": [[["conv2d_63", 0, 0, {}]]]}, {"class_name": "Multiply", "config": {"name": "multiply_7", "trainable": true, "dtype": {"class_name": "Policy", "config": {"name": "mixed_float16"}}}, "name": "multiply_7", "inbound_nodes": [[["batch_normalization_98", 0, 0, {}], ["activation_58", 0, 0, {}]]]}, {"class_name": "Conv2D", "config": {"name": "conv2d_64", "trainable": true, "dtype": {"class_name": "Policy", "config": {"name": "mixed_float16"}}, "filters": 20, "kernel_size": [1, 1], "strides": [1, 1], "padding": "same", "data_format": "channels_last", "dilation_rate": [1, 1], "groups": 1, "activation": "linear", "use_bias": false, "kernel_initializer": {"class_name": "VarianceScaling", "config": {"scale": 2.0, "mode": "fan_out", "distribution": "truncated_normal", "seed": null}}, "bias_initializer": {"class_name": "Zeros", "config": {}}, "kernel_regularizer": {"class_name": "L2", "config": {"l2": 0.0002500000118743628}}, "bias_regularizer": null, "activity_regularizer": null, "kernel_constraint": null, "bias_constraint": null}, "name": "conv2d_64", "inbound_nodes": [[["multiply_7", 0, 0, {}]]]}, {"class_name": "DepthwiseConv2D", "config": {"name": "depthwise_conv2d_52", "trainable": true, "dtype": {"class_name": "Policy", "config": {"name": "mixed_float16"}}, "kernel_size": [5, 5], "strides": [2, 2], "padding": "same", "data_format": "channels_last", "dilation_rate": [1, 1], "groups": 1, "activation": "linear", "use_bias": false, "bias_initializer": {"class_name": "Zeros", "config": {}}, "bias_regularizer": null, "activity_regularizer": null, "bias_constraint": null, "depth_multiplier": 1, "depthwise_initializer": {"class_name": "VarianceScaling", "config": {"scale": 2.0, "mode": "fan_out", "distribution": "truncated_normal", "seed": null}}, "depthwise_regularizer": {"class_name": "L2", "config": {"l2": 0.0002500000118743628}}, "depthwise_constraint": null}, "name": "depthwise_conv2d_52", "inbound_nodes": [[["add_18", 0, 0, {}]]]}, {"class_name": "BatchNormalization", "config": {"name": "batch_normalization_99", "trainable": true, "dtype": {"class_name": "Policy", "config": {"name": "mixed_float16"}}, "axis": [3], "momentum": 0.9, "epsilon": 1e-05, "center": true, "scale": true, "beta_initializer": {"class_name": "Zeros", "config": {}}, "gamma_initializer": {"class_name": "Ones", "config": {}}, "moving_mean_initializer": {"class_name": "Zeros", "config": {}}, "moving_variance_initializer": {"class_name": "Ones", "config": {}}, "beta_regularizer": null, "gamma_regularizer": null, "beta_constraint": null, "gamma_constraint": null}, "name": "batch_normalization_99", "inbound_nodes": [[["conv2d_64", 0, 0, {}]]]}, {"class_name": "BatchNormalization", "config": {"name": "batch_normalization_101", "trainable": true, "dtype": {"class_name": "Policy", "config": {"name": "mixed_float16"}}, "axis": [3], "momentum": 0.9, "epsilon": 1e-05, "center": true, "scale": true, "beta_initializer": {"class_name": "Zeros", "config": {}}, "gamma_initializer": {"class_name": "Ones", "config": {}}, "moving_mean_initializer": {"class_name": "Zeros", "config": {}}, "moving_variance_initializer": {"class_name": "Ones", "config": {}}, "beta_regularizer": null, "gamma_regularizer": null, "beta_constraint": null, "gamma_constraint": null}, "name": "batch_normalization_101", "inbound_nodes": [[["depthwise_conv2d_52", 0, 0, {}]]]}, {"class_name": "DepthwiseConv2D", "config": {"name": "depthwise_conv2d_51", "trainable": true, "dtype": {"class_name": "Policy", "config": {"name": "mixed_float16"}}, "kernel_size": [3, 3], "strides": [1, 1], "padding": "same", "data_format": "channels_last", "dilation_rate": [1, 1], "groups": 1, "activation": "linear", "use_bias": false, "bias_initializer": {"class_name": "Zeros", "config": {}}, "bias_regularizer": null, "activity_regularizer": null, "bias_constraint": null, "depth_multiplier": 1, "depthwise_initializer": {"class_name": "VarianceScaling", "config": {"scale": 2.0, "mode": "fan_out", "distribution": "truncated_normal", "seed": null}}, "depthwise_regularizer": {"class_name": "L2", "config": {"l2": 0.0002500000118743628}}, "depthwise_constraint": null}, "name": "depthwise_conv2d_51", "inbound_nodes": [[["batch_normalization_99", 0, 0, {}]]]}, {"class_name": "Conv2D", "config": {"name": "conv2d_65", "trainable": true, "dtype": {"class_name": "Policy", "config": {"name": "mixed_float16"}}, "filters": 40, "kernel_size": [1, 1], "strides": [1, 1], "padding": "valid", "data_format": "channels_last", "dilation_rate": [1, 1], "groups": 1, "activation": "linear", "use_bias": false, "kernel_initializer": {"class_name": "VarianceScaling", "config": {"scale": 2.0, "mode": "fan_out", "distribution": "truncated_normal", "seed": null}}, "bias_initializer": {"class_name": "Zeros", "config": {}}, "kernel_regularizer": {"class_name": "L2", "config": {"l2": 0.0002500000118743628}}, "bias_regularizer": null, "activity_regularizer": null, "kernel_constraint": null, "bias_constraint": null}, "name": "conv2d_65", "inbound_nodes": [[["batch_normalization_101", 0, 0, {}]]]}, {"class_name": "BatchNormalization", "config": {"name": "batch_normalization_100", "trainable": true, "dtype": {"class_name": "Policy", "config": {"name": "mixed_float16"}}, "axis": [3], "momentum": 0.9, "epsilon": 1e-05, "center": true, "scale": true, "beta_initializer": {"class_name": "Zeros", "config": {}}, "gamma_initializer": {"class_name": "Ones", "config": {}}, "moving_mean_initializer": {"class_name": "Zeros", "config": {}}, "moving_variance_initializer": {"class_name": "Ones", "config": {}}, "beta_regularizer": null, "gamma_regularizer": null, "beta_constraint": null, "gamma_constraint": null}, "name": "batch_normalization_100", "inbound_nodes": [[["depthwise_conv2d_51", 0, 0, {}]]]}, {"class_name": "BatchNormalization", "config": {"name": "batch_normalization_102", "trainable": true, "dtype": {"class_name": "Policy", "config": {"name": "mixed_float16"}}, "axis": [3], "momentum": 0.9, "epsilon": 1e-05, "center": true, "scale": true, "beta_initializer": {"class_name": "Zeros", "config": {}}, "gamma_initializer": {"class_name": "Ones", "config": {}}, "moving_mean_initializer": {"class_name": "Zeros", "config": {}}, "moving_variance_initializer": {"class_name": "Ones", "config": {}}, "beta_regularizer": null, "gamma_regularizer": null, "beta_constraint": null, "gamma_constraint": null}, "name": "batch_normalization_102", "inbound_nodes": [[["conv2d_65", 0, 0, {}]]]}, {"class_name": "Concatenate", "config": {"name": "concatenate_39", "trainable": true, "dtype": {"class_name": "Policy", "config": {"name": "mixed_float16"}}, "axis": -1}, "name": "concatenate_39", "inbound_nodes": [[["batch_normalization_99", 0, 0, {}], ["batch_normalization_100", 0, 0, {}]]]}, {"class_name": "Add", "config": {"name": "add_19", "trainable": true, "dtype": {"class_name": "Policy", "config": {"name": "mixed_float16"}}}, "name": "add_19", "inbound_nodes": [[["batch_normalization_102", 0, 0, {}], ["concatenate_39", 0, 0, {}]]]}, {"class_name": "Conv2D", "config": {"name": "conv2d_66", "trainable": true, "dtype": {"class_name": "Policy", "config": {"name": "mixed_float16"}}, "filters": 60, "kernel_size": [1, 1], "strides": [1, 1], "padding": "same", "data_format": "channels_last", "dilation_rate": [1, 1], "groups": 1, "activation": "linear", "use_bias": false, "kernel_initializer": {"class_name": "VarianceScaling", "config": {"scale": 2.0, "mode": "fan_out", "distribution": "truncated_normal", "seed": null}}, "bias_initializer": {"class_name": "Zeros", "config": {}}, "kernel_regularizer": {"class_name": "L2", "config": {"l2": 0.0002500000118743628}}, "bias_regularizer": null, "activity_regularizer": null, "kernel_constraint": null, "bias_constraint": null}, "name": "conv2d_66", "inbound_nodes": [[["add_19", 0, 0, {}]]]}, {"class_name": "BatchNormalization", "config": {"name": "batch_normalization_103", "trainable": true, "dtype": {"class_name": "Policy", "config": {"name": "mixed_float16"}}, "axis": [3], "momentum": 0.9, "epsilon": 1e-05, "center": true, "scale": true, "beta_initializer": {"class_name": "Zeros", "config": {}}, "gamma_initializer": {"class_name": "Ones", "config": {}}, "moving_mean_initializer": {"class_name": "Zeros", "config": {}}, "moving_variance_initializer": {"class_name": "Ones", "config": {}}, "beta_regularizer": null, "gamma_regularizer": null, "beta_constraint": null, "gamma_constraint": null}, "name": "batch_normalization_103", "inbound_nodes": [[["conv2d_66", 0, 0, {}]]]}, {"class_name": "PReLU", "config": {"name": "activation_59", "trainable": true, "dtype": {"class_name": "Policy", "config": {"name": "mixed_float16"}, "shared_object_id": 13}, "alpha_initializer": {"class_name": "Constant", "config": {"value": 0.25}}, "alpha_regularizer": null, "alpha_constraint": null, "shared_axes": [1, 2]}, "name": "activation_59", "inbound_nodes": [[["batch_normalization_103", 0, 0, {}]]]}, {"class_name": "DepthwiseConv2D", "config": {"name": "depthwise_conv2d_53", "trainable": true, "dtype": {"class_name": "Policy", "config": {"name": "mixed_float16"}}, "kernel_size": [3, 3], "strides": [1, 1], "padding": "same", "data_format": "channels_last", "dilation_rate": [1, 1], "groups": 1, "activation": "linear", "use_bias": false, "bias_initializer": {"class_name": "Zeros", "config": {}}, "bias_regularizer": null, "activity_regularizer": null, "bias_constraint": null, "depth_multiplier": 1, "depthwise_initializer": {"class_name": "VarianceScaling", "config": {"scale": 2.0, "mode": "fan_out", "distribution": "truncated_normal", "seed": null}}, "depthwise_regularizer": {"class_name": "L2", "config": {"l2": 0.0002500000118743628}}, "depthwise_constraint": null}, "name": "depthwise_conv2d_53", "inbound_nodes": [[["activation_59", 0, 0, {}]]]}, {"class_name": "BatchNormalization", "config": {"name": "batch_normalization_104", "trainable": true, "dtype": {"class_name": "Policy", "config": {"name": "mixed_float16"}}, "axis": [3], "momentum": 0.9, "epsilon": 1e-05, "center": true, "scale": true, "beta_initializer": {"class_name": "Zeros", "config": {}}, "gamma_initializer": {"class_name": "Ones", "config": {}}, "moving_mean_initializer": {"class_name": "Zeros", "config": {}}, "moving_variance_initializer": {"class_name": "Ones", "config": {}}, "beta_regularizer": null, "gamma_regularizer": null, "beta_constraint": null, "gamma_constraint": null}, "name": "batch_normalization_104", "inbound_nodes": [[["depthwise_conv2d_53", 0, 0, {}]]]}, {"class_name": "PReLU", "config": {"name": "activation_60", "trainable": true, "dtype": {"class_name": "Policy", "config": {"name": "mixed_float16"}, "shared_object_id": 13}, "alpha_initializer": {"class_name": "Constant", "config": {"value": 0.25}}, "alpha_regularizer": null, "alpha_constraint": null, "shared_axes": [1, 2]}, "name": "activation_60", "inbound_nodes": [[["batch_normalization_104", 0, 0, {}]]]}, {"class_name": "Concatenate", "config": {"name": "concatenate_40", "trainable": true, "dtype": {"class_name": "Policy", "config": {"name": "mixed_float16"}}, "axis": -1}, "name": "concatenate_40", "inbound_nodes": [[["activation_59", 0, 0, {}], ["activation_60", 0, 0, {}]]]}, {"class_name": "GlobalAveragePooling2D", "config": {"name": "global_average_pooling2d_8", "trainable": true, "dtype": {"class_name": "Policy", "config": {"name": "mixed_float16"}}, "data_format": "channels_last", "keepdims": false}, "name": "global_average_pooling2d_8", "inbound_nodes": [[["concatenate_40", 0, 0, {}]]]}, {"class_name": "Reshape", "config": {"name": "reshape_8", "trainable": true, "dtype": {"class_name": "Policy", "config": {"name": "mixed_float16"}}, "target_shape": [1, 1, 120]}, "name": "reshape_8", "inbound_nodes": [[["global_average_pooling2d_8", 0, 0, {}]]]}, {"class_name": "Conv2D", "config": {"name": "conv2d_67", "trainable": true, "dtype": {"class_name": "Policy", "config": {"name": "mixed_float16"}}, "filters": 32, "kernel_size": [1, 1], "strides": [1, 1], "padding": "valid", "data_format": "channels_last", "dilation_rate": [1, 1], "groups": 1, "activation": "linear", "use_bias": true, "kernel_initializer": {"class_name": "VarianceScaling", "config": {"scale": 2.0, "mode": "fan_out", "distribution": "truncated_normal", "seed": null}}, "bias_initializer": {"class_name": "Zeros", "config": {}}, "kernel_regularizer": {"class_name": "L2", "config": {"l2": 0.0002500000118743628}}, "bias_regularizer": null, "activity_regularizer": null, "kernel_constraint": null, "bias_constraint": null}, "name": "conv2d_67", "inbound_nodes": [[["reshape_8", 0, 0, {}]]]}, {"class_name": "PReLU", "config": {"name": "activation_61", "trainable": true, "dtype": {"class_name": "Policy", "config": {"name": "mixed_float16"}, "shared_object_id": 13}, "alpha_initializer": {"class_name": "Constant", "config": {"value": 0.25}}, "alpha_regularizer": null, "alpha_constraint": null, "shared_axes": [1, 2]}, "name": "activation_61", "inbound_nodes": [[["conv2d_67", 0, 0, {}]]]}, {"class_name": "Conv2D", "config": {"name": "conv2d_68", "trainable": true, "dtype": {"class_name": "Policy", "config": {"name": "mixed_float16"}}, "filters": 120, "kernel_size": [1, 1], "strides": [1, 1], "padding": "valid", "data_format": "channels_last", "dilation_rate": [1, 1], "groups": 1, "activation": "linear", "use_bias": true, "kernel_initializer": {"class_name": "VarianceScaling", "config": {"scale": 2.0, "mode": "fan_out", "distribution": "truncated_normal", "seed": null}}, "bias_initializer": {"class_name": "Zeros", "config": {}}, "kernel_regularizer": {"class_name": "L2", "config": {"l2": 0.0002500000118743628}}, "bias_regularizer": null, "activity_regularizer": null, "kernel_constraint": null, "bias_constraint": null}, "name": "conv2d_68", "inbound_nodes": [[["activation_61", 0, 0, {}]]]}, {"class_name": "Activation", "config": {"name": "activation_62", "trainable": true, "dtype": {"class_name": "Policy", "config": {"name": "mixed_float16"}}, "activation": "hard_sigmoid"}, "name": "activation_62", "inbound_nodes": [[["conv2d_68", 0, 0, {}]]]}, {"class_name": "Multiply", "config": {"name": "multiply_8", "trainable": true, "dtype": {"class_name": "Policy", "config": {"name": "mixed_float16"}}}, "name": "multiply_8", "inbound_nodes": [[["concatenate_40", 0, 0, {}], ["activation_62", 0, 0, {}]]]}, {"class_name": "Conv2D", "config": {"name": "conv2d_69", "trainable": true, "dtype": {"class_name": "Policy", "config": {"name": "mixed_float16"}}, "filters": 20, "kernel_size": [1, 1], "strides": [1, 1], "padding": "same", "data_format": "channels_last", "dilation_rate": [1, 1], "groups": 1, "activation": "linear", "use_bias": false, "kernel_initializer": {"class_name": "VarianceScaling", "config": {"scale": 2.0, "mode": "fan_out", "distribution": "truncated_normal", "seed": null}}, "bias_initializer": {"class_name": "Zeros", "config": {}}, "kernel_regularizer": {"class_name": "L2", "config": {"l2": 0.0002500000118743628}}, "bias_regularizer": null, "activity_regularizer": null, "kernel_constraint": null, "bias_constraint": null}, "name": "conv2d_69", "inbound_nodes": [[["multiply_8", 0, 0, {}]]]}, {"class_name": "BatchNormalization", "config": {"name": "batch_normalization_105", "trainable": true, "dtype": {"class_name": "Policy", "config": {"name": "mixed_float16"}}, "axis": [3], "momentum": 0.9, "epsilon": 1e-05, "center": true, "scale": true, "beta_initializer": {"class_name": "Zeros", "config": {}}, "gamma_initializer": {"class_name": "Ones", "config": {}}, "moving_mean_initializer": {"class_name": "Zeros", "config": {}}, "moving_variance_initializer": {"class_name": "Ones", "config": {}}, "beta_regularizer": null, "gamma_regularizer": null, "beta_constraint": null, "gamma_constraint": null}, "name": "batch_normalization_105", "inbound_nodes": [[["conv2d_69", 0, 0, {}]]]}, {"class_name": "DepthwiseConv2D", "config": {"name": "depthwise_conv2d_54", "trainable": true, "dtype": {"class_name": "Policy", "config": {"name": "mixed_float16"}}, "kernel_size": [3, 3], "strides": [1, 1], "padding": "same", "data_format": "channels_last", "dilation_rate": [1, 1], "groups": 1, "activation": "linear", "use_bias": false, "bias_initializer": {"class_name": "Zeros", "config": {}}, "bias_regularizer": null, "activity_regularizer": null, "bias_constraint": null, "depth_multiplier": 1, "depthwise_initializer": {"class_name": "VarianceScaling", "config": {"scale": 2.0, "mode": "fan_out", "distribution": "truncated_normal", "seed": null}}, "depthwise_regularizer": {"class_name": "L2", "config": {"l2": 0.0002500000118743628}}, "depthwise_constraint": null}, "name": "depthwise_conv2d_54", "inbound_nodes": [[["batch_normalization_105", 0, 0, {}]]]}, {"class_name": "BatchNormalization", "config": {"name": "batch_normalization_106", "trainable": true, "dtype": {"class_name": "Policy", "config": {"name": "mixed_float16"}}, "axis": [3], "momentum": 0.9, "epsilon": 1e-05, "center": true, "scale": true, "beta_initializer": {"class_name": "Zeros", "config": {}}, "gamma_initializer": {"class_name": "Ones", "config": {}}, "moving_mean_initializer": {"class_name": "Zeros", "config": {}}, "moving_variance_initializer": {"class_name": "Ones", "config": {}}, "beta_regularizer": null, "gamma_regularizer": null, "beta_constraint": null, "gamma_constraint": null}, "name": "batch_normalization_106", "inbound_nodes": [[["depthwise_conv2d_54", 0, 0, {}]]]}, {"class_name": "Concatenate", "config": {"name": "concatenate_41", "trainable": true, "dtype": {"class_name": "Policy", "config": {"name": "mixed_float16"}}, "axis": -1}, "name": "concatenate_41", "inbound_nodes": [[["batch_normalization_105", 0, 0, {}], ["batch_normalization_106", 0, 0, {}]]]}, {"class_name": "Add", "config": {"name": "add_20", "trainable": true, "dtype": {"class_name": "Policy", "config": {"name": "mixed_float16"}}}, "name": "add_20", "inbound_nodes": [[["add_19", 0, 0, {}], ["concatenate_41", 0, 0, {}]]]}, {"class_name": "Conv2D", "config": {"name": "conv2d_70", "trainable": true, "dtype": {"class_name": "Policy", "config": {"name": "mixed_float16"}}, "filters": 120, "kernel_size": [1, 1], "strides": [1, 1], "padding": "same", "data_format": "channels_last", "dilation_rate": [1, 1], "groups": 1, "activation": "linear", "use_bias": false, "kernel_initializer": {"class_name": "VarianceScaling", "config": {"scale": 2.0, "mode": "fan_out", "distribution": "truncated_normal", "seed": null}}, "bias_initializer": {"class_name": "Zeros", "config": {}}, "kernel_regularizer": {"class_name": "L2", "config": {"l2": 0.0002500000118743628}}, "bias_regularizer": null, "activity_regularizer": null, "kernel_constraint": null, "bias_constraint": null}, "name": "conv2d_70", "inbound_nodes": [[["add_20", 0, 0, {}]]]}, {"class_name": "BatchNormalization", "config": {"name": "batch_normalization_107", "trainable": true, "dtype": {"class_name": "Policy", "config": {"name": "mixed_float16"}}, "axis": [3], "momentum": 0.9, "epsilon": 1e-05, "center": true, "scale": true, "beta_initializer": {"class_name": "Zeros", "config": {}}, "gamma_initializer": {"class_name": "Ones", "config": {}}, "moving_mean_initializer": {"class_name": "Zeros", "config": {}}, "moving_variance_initializer": {"class_name": "Ones", "config": {}}, "beta_regularizer": null, "gamma_regularizer": null, "beta_constraint": null, "gamma_constraint": null}, "name": "batch_normalization_107", "inbound_nodes": [[["conv2d_70", 0, 0, {}]]]}, {"class_name": "PReLU", "config": {"name": "activation_63", "trainable": true, "dtype": {"class_name": "Policy", "config": {"name": "mixed_float16"}, "shared_object_id": 13}, "alpha_initializer": {"class_name": "Constant", "config": {"value": 0.25}}, "alpha_regularizer": null, "alpha_constraint": null, "shared_axes": [1, 2]}, "name": "activation_63", "inbound_nodes": [[["batch_normalization_107", 0, 0, {}]]]}, {"class_name": "DepthwiseConv2D", "config": {"name": "depthwise_conv2d_55", "trainable": true, "dtype": {"class_name": "Policy", "config": {"name": "mixed_float16"}}, "kernel_size": [3, 3], "strides": [1, 1], "padding": "same", "data_format": "channels_last", "dilation_rate": [1, 1], "groups": 1, "activation": "linear", "use_bias": false, "bias_initializer": {"class_name": "Zeros", "config": {}}, "bias_regularizer": null, "activity_regularizer": null, "bias_constraint": null, "depth_multiplier": 1, "depthwise_initializer": {"class_name": "VarianceScaling", "config": {"scale": 2.0, "mode": "fan_out", "distribution": "truncated_normal", "seed": null}}, "depthwise_regularizer": {"class_name": "L2", "config": {"l2": 0.0002500000118743628}}, "depthwise_constraint": null}, "name": "depthwise_conv2d_55", "inbound_nodes": [[["activation_63", 0, 0, {}]]]}, {"class_name": "BatchNormalization", "config": {"name": "batch_normalization_108", "trainable": true, "dtype": {"class_name": "Policy", "config": {"name": "mixed_float16"}}, "axis": [3], "momentum": 0.9, "epsilon": 1e-05, "center": true, "scale": true, "beta_initializer": {"class_name": "Zeros", "config": {}}, "gamma_initializer": {"class_name": "Ones", "config": {}}, "moving_mean_initializer": {"class_name": "Zeros", "config": {}}, "moving_variance_initializer": {"class_name": "Ones", "config": {}}, "beta_regularizer": null, "gamma_regularizer": null, "beta_constraint": null, "gamma_constraint": null}, "name": "batch_normalization_108", "inbound_nodes": [[["depthwise_conv2d_55", 0, 0, {}]]]}, {"class_name": "PReLU", "config": {"name": "activation_64", "trainable": true, "dtype": {"class_name": "Policy", "config": {"name": "mixed_float16"}, "shared_object_id": 13}, "alpha_initializer": {"class_name": "Constant", "config": {"value": 0.25}}, "alpha_regularizer": null, "alpha_constraint": null, "shared_axes": [1, 2]}, "name": "activation_64", "inbound_nodes": [[["batch_normalization_108", 0, 0, {}]]]}, {"class_name": "Concatenate", "config": {"name": "concatenate_42", "trainable": true, "dtype": {"class_name": "Policy", "config": {"name": "mixed_float16"}}, "axis": -1}, "name": "concatenate_42", "inbound_nodes": [[["activation_63", 0, 0, {}], ["activation_64", 0, 0, {}]]]}, {"class_name": "DepthwiseConv2D", "config": {"name": "depthwise_conv2d_56", "trainable": true, "dtype": {"class_name": "Policy", "config": {"name": "mixed_float16"}}, "kernel_size": [3, 3], "strides": [2, 2], "padding": "same", "data_format": "channels_last", "dilation_rate": [1, 1], "groups": 1, "activation": "linear", "use_bias": false, "bias_initializer": {"class_name": "Zeros", "config": {}}, "bias_regularizer": null, "activity_regularizer": null, "bias_constraint": null, "depth_multiplier": 1, "depthwise_initializer": {"class_name": "VarianceScaling", "config": {"scale": 2.0, "mode": "fan_out", "distribution": "truncated_normal", "seed": null}}, "depthwise_regularizer": {"class_name": "L2", "config": {"l2": 0.0002500000118743628}}, "depthwise_constraint": null}, "name": "depthwise_conv2d_56", "inbound_nodes": [[["concatenate_42", 0, 0, {}]]]}, {"class_name": "BatchNormalization", "config": {"name": "batch_normalization_109", "trainable": true, "dtype": {"class_name": "Policy", "config": {"name": "mixed_float16"}}, "axis": [3], "momentum": 0.9, "epsilon": 1e-05, "center": true, "scale": true, "beta_initializer": {"class_name": "Zeros", "config": {}}, "gamma_initializer": {"class_name": "Ones", "config": {}}, "moving_mean_initializer": {"class_name": "Zeros", "config": {}}, "moving_variance_initializer": {"class_name": "Ones", "config": {}}, "beta_regularizer": null, "gamma_regularizer": null, "beta_constraint": null, "gamma_constraint": null}, "name": "batch_normalization_109", "inbound_nodes": [[["depthwise_conv2d_56", 0, 0, {}]]]}, {"class_name": "Conv2D", "config": {"name": "conv2d_71", "trainable": true, "dtype": {"class_name": "Policy", "config": {"name": "mixed_float16"}}, "filters": 40, "kernel_size": [1, 1], "strides": [1, 1], "padding": "same", "data_format": "channels_last", "dilation_rate": [1, 1], "groups": 1, "activation": "linear", "use_bias": false, "kernel_initializer": {"class_name": "VarianceScaling", "config": {"scale": 2.0, "mode": "fan_out", "distribution": "truncated_normal", "seed": null}}, "bias_initializer": {"class_name": "Zeros", "config": {}}, "kernel_regularizer": {"class_name": "L2", "config": {"l2": 0.0002500000118743628}}, "bias_regularizer": null, "activity_regularizer": null, "kernel_constraint": null, "bias_constraint": null}, "name": "conv2d_71", "inbound_nodes": [[["batch_normalization_109", 0, 0, {}]]]}, {"class_name": "DepthwiseConv2D", "config": {"name": "depthwise_conv2d_58", "trainable": true, "dtype": {"class_name": "Policy", "config": {"name": "mixed_float16"}}, "kernel_size": [3, 3], "strides": [2, 2], "padding": "same", "data_format": "channels_last", "dilation_rate": [1, 1], "groups": 1, "activation": "linear", "use_bias": false, "bias_initializer": {"class_name": "Zeros", "config": {}}, "bias_regularizer": null, "activity_regularizer": null, "bias_constraint": null, "depth_multiplier": 1, "depthwise_initializer": {"class_name": "VarianceScaling", "config": {"scale": 2.0, "mode": "fan_out", "distribution": "truncated_normal", "seed": null}}, "depthwise_regularizer": {"class_name": "L2", "config": {"l2": 0.0002500000118743628}}, "depthwise_constraint": null}, "name": "depthwise_conv2d_58", "inbound_nodes": [[["add_20", 0, 0, {}]]]}, {"class_name": "BatchNormalization", "config": {"name": "batch_normalization_110", "trainable": true, "dtype": {"class_name": "Policy", "config": {"name": "mixed_float16"}}, "axis": [3], "momentum": 0.9, "epsilon": 1e-05, "center": true, "scale": true, "beta_initializer": {"class_name": "Zeros", "config": {}}, "gamma_initializer": {"class_name": "Ones", "config": {}}, "moving_mean_initializer": {"class_name": "Zeros", "config": {}}, "moving_variance_initializer": {"class_name": "Ones", "config": {}}, "beta_regularizer": null, "gamma_regularizer": null, "beta_constraint": null, "gamma_constraint": null}, "name": "batch_normalization_110", "inbound_nodes": [[["conv2d_71", 0, 0, {}]]]}, {"class_name": "BatchNormalization", "config": {"name": "batch_normalization_112", "trainable": true, "dtype": {"class_name": "Policy", "config": {"name": "mixed_float16"}}, "axis": [3], "momentum": 0.9, "epsilon": 1e-05, "center": true, "scale": true, "beta_initializer": {"class_name": "Zeros", "config": {}}, "gamma_initializer": {"class_name": "Ones", "config": {}}, "moving_mean_initializer": {"class_name": "Zeros", "config": {}}, "moving_variance_initializer": {"class_name": "Ones", "config": {}}, "beta_regularizer": null, "gamma_regularizer": null, "beta_constraint": null, "gamma_constraint": null}, "name": "batch_normalization_112", "inbound_nodes": [[["depthwise_conv2d_58", 0, 0, {}]]]}, {"class_name": "DepthwiseConv2D", "config": {"name": "depthwise_conv2d_57", "trainable": true, "dtype": {"class_name": "Policy", "config": {"name": "mixed_float16"}}, "kernel_size": [3, 3], "strides": [1, 1], "padding": "same", "data_format": "channels_last", "dilation_rate": [1, 1], "groups": 1, "activation": "linear", "use_bias": false, "bias_initializer": {"class_name": "Zeros", "config": {}}, "bias_regularizer": null, "activity_regularizer": null, "bias_constraint": null, "depth_multiplier": 1, "depthwise_initializer": {"class_name": "VarianceScaling", "config": {"scale": 2.0, "mode": "fan_out", "distribution": "truncated_normal", "seed": null}}, "depthwise_regularizer": {"class_name": "L2", "config": {"l2": 0.0002500000118743628}}, "depthwise_constraint": null}, "name": "depthwise_conv2d_57", "inbound_nodes": [[["batch_normalization_110", 0, 0, {}]]]}, {"class_name": "Conv2D", "config": {"name": "conv2d_72", "trainable": true, "dtype": {"class_name": "Policy", "config": {"name": "mixed_float16"}}, "filters": 80, "kernel_size": [1, 1], "strides": [1, 1], "padding": "valid", "data_format": "channels_last", "dilation_rate": [1, 1], "groups": 1, "activation": "linear", "use_bias": false, "kernel_initializer": {"class_name": "VarianceScaling", "config": {"scale": 2.0, "mode": "fan_out", "distribution": "truncated_normal", "seed": null}}, "bias_initializer": {"class_name": "Zeros", "config": {}}, "kernel_regularizer": {"class_name": "L2", "config": {"l2": 0.0002500000118743628}}, "bias_regularizer": null, "activity_regularizer": null, "kernel_constraint": null, "bias_constraint": null}, "name": "conv2d_72", "inbound_nodes": [[["batch_normalization_112", 0, 0, {}]]]}, {"class_name": "BatchNormalization", "config": {"name": "batch_normalization_111", "trainable": true, "dtype": {"class_name": "Policy", "config": {"name": "mixed_float16"}}, "axis": [3], "momentum": 0.9, "epsilon": 1e-05, "center": true, "scale": true, "beta_initializer": {"class_name": "Zeros", "config": {}}, "gamma_initializer": {"class_name": "Ones", "config": {}}, "moving_mean_initializer": {"class_name": "Zeros", "config": {}}, "moving_variance_initializer": {"class_name": "Ones", "config": {}}, "beta_regularizer": null, "gamma_regularizer": null, "beta_constraint": null, "gamma_constraint": null}, "name": "batch_normalization_111", "inbound_nodes": [[["depthwise_conv2d_57", 0, 0, {}]]]}, {"class_name": "BatchNormalization", "config": {"name": "batch_normalization_113", "trainable": true, "dtype": {"class_name": "Policy", "config": {"name": "mixed_float16"}}, "axis": [3], "momentum": 0.9, "epsilon": 1e-05, "center": true, "scale": true, "beta_initializer": {"class_name": "Zeros", "config": {}}, "gamma_initializer": {"class_name": "Ones", "config": {}}, "moving_mean_initializer": {"class_name": "Zeros", "config": {}}, "moving_variance_initializer": {"class_name": "Ones", "config": {}}, "beta_regularizer": null, "gamma_regularizer": null, "beta_constraint": null, "gamma_constraint": null}, "name": "batch_normalization_113", "inbound_nodes": [[["conv2d_72", 0, 0, {}]]]}, {"class_name": "Concatenate", "config": {"name": "concatenate_43", "trainable": true, "dtype": {"class_name": "Policy", "config": {"name": "mixed_float16"}}, "axis": -1}, "name": "concatenate_43", "inbound_nodes": [[["batch_normalization_110", 0, 0, {}], ["batch_normalization_111", 0, 0, {}]]]}, {"class_name": "Add", "config": {"name": "add_21", "trainable": true, "dtype": {"class_name": "Policy", "config": {"name": "mixed_float16"}}}, "name": "add_21", "inbound_nodes": [[["batch_normalization_113", 0, 0, {}], ["concatenate_43", 0, 0, {}]]]}, {"class_name": "Conv2D", "config": {"name": "conv2d_73", "trainable": true, "dtype": {"class_name": "Policy", "config": {"name": "mixed_float16"}}, "filters": 100, "kernel_size": [1, 1], "strides": [1, 1], "padding": "same", "data_format": "channels_last", "dilation_rate": [1, 1], "groups": 1, "activation": "linear", "use_bias": false, "kernel_initializer": {"class_name": "VarianceScaling", "config": {"scale": 2.0, "mode": "fan_out", "distribution": "truncated_normal", "seed": null}}, "bias_initializer": {"class_name": "Zeros", "config": {}}, "kernel_regularizer": {"class_name": "L2", "config": {"l2": 0.0002500000118743628}}, "bias_regularizer": null, "activity_regularizer": null, "kernel_constraint": null, "bias_constraint": null}, "name": "conv2d_73", "inbound_nodes": [[["add_21", 0, 0, {}]]]}, {"class_name": "BatchNormalization", "config": {"name": "batch_normalization_114", "trainable": true, "dtype": {"class_name": "Policy", "config": {"name": "mixed_float16"}}, "axis": [3], "momentum": 0.9, "epsilon": 1e-05, "center": true, "scale": true, "beta_initializer": {"class_name": "Zeros", "config": {}}, "gamma_initializer": {"class_name": "Ones", "config": {}}, "moving_mean_initializer": {"class_name": "Zeros", "config": {}}, "moving_variance_initializer": {"class_name": "Ones", "config": {}}, "beta_regularizer": null, "gamma_regularizer": null, "beta_constraint": null, "gamma_constraint": null}, "name": "batch_normalization_114", "inbound_nodes": [[["conv2d_73", 0, 0, {}]]]}, {"class_name": "PReLU", "config": {"name": "activation_65", "trainable": true, "dtype": {"class_name": "Policy", "config": {"name": "mixed_float16"}, "shared_object_id": 13}, "alpha_initializer": {"class_name": "Constant", "config": {"value": 0.25}}, "alpha_regularizer": null, "alpha_constraint": null, "shared_axes": [1, 2]}, "name": "activation_65", "inbound_nodes": [[["batch_normalization_114", 0, 0, {}]]]}, {"class_name": "DepthwiseConv2D", "config": {"name": "depthwise_conv2d_59", "trainable": true, "dtype": {"class_name": "Policy", "config": {"name": "mixed_float16"}}, "kernel_size": [3, 3], "strides": [1, 1], "padding": "same", "data_format": "channels_last", "dilation_rate": [1, 1], "groups": 1, "activation": "linear", "use_bias": false, "bias_initializer": {"class_name": "Zeros", "config": {}}, "bias_regularizer": null, "activity_regularizer": null, "bias_constraint": null, "depth_multiplier": 1, "depthwise_initializer": {"class_name": "VarianceScaling", "config": {"scale": 2.0, "mode": "fan_out", "distribution": "truncated_normal", "seed": null}}, "depthwise_regularizer": {"class_name": "L2", "config": {"l2": 0.0002500000118743628}}, "depthwise_constraint": null}, "name": "depthwise_conv2d_59", "inbound_nodes": [[["activation_65", 0, 0, {}]]]}, {"class_name": "BatchNormalization", "config": {"name": "batch_normalization_115", "trainable": true, "dtype": {"class_name": "Policy", "config": {"name": "mixed_float16"}}, "axis": [3], "momentum": 0.9, "epsilon": 1e-05, "center": true, "scale": true, "beta_initializer": {"class_name": "Zeros", "config": {}}, "gamma_initializer": {"class_name": "Ones", "config": {}}, "moving_mean_initializer": {"class_name": "Zeros", "config": {}}, "moving_variance_initializer": {"class_name": "Ones", "config": {}}, "beta_regularizer": null, "gamma_regularizer": null, "beta_constraint": null, "gamma_constraint": null}, "name": "batch_normalization_115", "inbound_nodes": [[["depthwise_conv2d_59", 0, 0, {}]]]}, {"class_name": "PReLU", "config": {"name": "activation_66", "trainable": true, "dtype": {"class_name": "Policy", "config": {"name": "mixed_float16"}, "shared_object_id": 13}, "alpha_initializer": {"class_name": "Constant", "config": {"value": 0.25}}, "alpha_regularizer": null, "alpha_constraint": null, "shared_axes": [1, 2]}, "name": "activation_66", "inbound_nodes": [[["batch_normalization_115", 0, 0, {}]]]}, {"class_name": "Concatenate", "config": {"name": "concatenate_44", "trainable": true, "dtype": {"class_name": "Policy", "config": {"name": "mixed_float16"}}, "axis": -1}, "name": "concatenate_44", "inbound_nodes": [[["activation_65", 0, 0, {}], ["activation_66", 0, 0, {}]]]}, {"class_name": "Conv2D", "config": {"name": "conv2d_74", "trainable": true, "dtype": {"class_name": "Policy", "config": {"name": "mixed_float16"}}, "filters": 40, "kernel_size": [1, 1], "strides": [1, 1], "padding": "same", "data_format": "channels_last", "dilation_rate": [1, 1], "groups": 1, "activation": "linear", "use_bias": false, "kernel_initializer": {"class_name": "VarianceScaling", "config": {"scale": 2.0, "mode": "fan_out", "distribution": "truncated_normal", "seed": null}}, "bias_initializer": {"class_name": "Zeros", "config": {}}, "kernel_regularizer": {"class_name": "L2", "config": {"l2": 0.0002500000118743628}}, "bias_regularizer": null, "activity_regularizer": null, "kernel_constraint": null, "bias_constraint": null}, "name": "conv2d_74", "inbound_nodes": [[["concatenate_44", 0, 0, {}]]]}, {"class_name": "BatchNormalization", "config": {"name": "batch_normalization_116", "trainable": true, "dtype": {"class_name": "Policy", "config": {"name": "mixed_float16"}}, "axis": [3], "momentum": 0.9, "epsilon": 1e-05, "center": true, "scale": true, "beta_initializer": {"class_name": "Zeros", "config": {}}, "gamma_initializer": {"class_name": "Ones", "config": {}}, "moving_mean_initializer": {"class_name": "Zeros", "config": {}}, "moving_variance_initializer": {"class_name": "Ones", "config": {}}, "beta_regularizer": null, "gamma_regularizer": null, "beta_constraint": null, "gamma_constraint": null}, "name": "batch_normalization_116", "inbound_nodes": [[["conv2d_74", 0, 0, {}]]]}, {"class_name": "DepthwiseConv2D", "config": {"name": "depthwise_conv2d_60", "trainable": true, "dtype": {"class_name": "Policy", "config": {"name": "mixed_float16"}}, "kernel_size": [3, 3], "strides": [1, 1], "padding": "same", "data_format": "channels_last", "dilation_rate": [1, 1], "groups": 1, "activation": "linear", "use_bias": false, "bias_initializer": {"class_name": "Zeros", "config": {}}, "bias_regularizer": null, "activity_regularizer": null, "bias_constraint": null, "depth_multiplier": 1, "depthwise_initializer": {"class_name": "VarianceScaling", "config": {"scale": 2.0, "mode": "fan_out", "distribution": "truncated_normal", "seed": null}}, "depthwise_regularizer": {"class_name": "L2", "config": {"l2": 0.0002500000118743628}}, "depthwise_constraint": null}, "name": "depthwise_conv2d_60", "inbound_nodes": [[["batch_normalization_116", 0, 0, {}]]]}, {"class_name": "BatchNormalization", "config": {"name": "batch_normalization_117", "trainable": true, "dtype": {"class_name": "Policy", "config": {"name": "mixed_float16"}}, "axis": [3], "momentum": 0.9, "epsilon": 1e-05, "center": true, "scale": true, "beta_initializer": {"class_name": "Zeros", "config": {}}, "gamma_initializer": {"class_name": "Ones", "config": {}}, "moving_mean_initializer": {"class_name": "Zeros", "config": {}}, "moving_variance_initializer": {"class_name": "Ones", "config": {}}, "beta_regularizer": null, "gamma_regularizer": null, "beta_constraint": null, "gamma_constraint": null}, "name": "batch_normalization_117", "inbound_nodes": [[["depthwise_conv2d_60", 0, 0, {}]]]}, {"class_name": "Concatenate", "config": {"name": "concatenate_45", "trainable": true, "dtype": {"class_name": "Policy", "config": {"name": "mixed_float16"}}, "axis": -1}, "name": "concatenate_45", "inbound_nodes": [[["batch_normalization_116", 0, 0, {}], ["batch_normalization_117", 0, 0, {}]]]}, {"class_name": "Add", "config": {"name": "add_22", "trainable": true, "dtype": {"class_name": "Policy", "config": {"name": "mixed_float16"}}}, "name": "add_22", "inbound_nodes": [[["add_21", 0, 0, {}], ["concatenate_45", 0, 0, {}]]]}, {"class_name": "Conv2D", "config": {"name": "conv2d_75", "trainable": true, "dtype": {"class_name": "Policy", "config": {"name": "mixed_float16"}}, "filters": 92, "kernel_size": [1, 1], "strides": [1, 1], "padding": "same", "data_format": "channels_last", "dilation_rate": [1, 1], "groups": 1, "activation": "linear", "use_bias": false, "kernel_initializer": {"class_name": "VarianceScaling", "config": {"scale": 2.0, "mode": "fan_out", "distribution": "truncated_normal", "seed": null}}, "bias_initializer": {"class_name": "Zeros", "config": {}}, "kernel_regularizer": {"class_name": "L2", "config": {"l2": 0.0002500000118743628}}, "bias_regularizer": null, "activity_regularizer": null, "kernel_constraint": null, "bias_constraint": null}, "name": "conv2d_75", "inbound_nodes": [[["add_22", 0, 0, {}]]]}, {"class_name": "BatchNormalization", "config": {"name": "batch_normalization_118", "trainable": true, "dtype": {"class_name": "Policy", "config": {"name": "mixed_float16"}}, "axis": [3], "momentum": 0.9, "epsilon": 1e-05, "center": true, "scale": true, "beta_initializer": {"class_name": "Zeros", "config": {}}, "gamma_initializer": {"class_name": "Ones", "config": {}}, "moving_mean_initializer": {"class_name": "Zeros", "config": {}}, "moving_variance_initializer": {"class_name": "Ones", "config": {}}, "beta_regularizer": null, "gamma_regularizer": null, "beta_constraint": null, "gamma_constraint": null}, "name": "batch_normalization_118", "inbound_nodes": [[["conv2d_75", 0, 0, {}]]]}, {"class_name": "PReLU", "config": {"name": "activation_67", "trainable": true, "dtype": {"class_name": "Policy", "config": {"name": "mixed_float16"}, "shared_object_id": 13}, "alpha_initializer": {"class_name": "Constant", "config": {"value": 0.25}}, "alpha_regularizer": null, "alpha_constraint": null, "shared_axes": [1, 2]}, "name": "activation_67", "inbound_nodes": [[["batch_normalization_118", 0, 0, {}]]]}, {"class_name": "DepthwiseConv2D", "config": {"name": "depthwise_conv2d_61", "trainable": true, "dtype": {"class_name": "Policy", "config": {"name": "mixed_float16"}}, "kernel_size": [3, 3], "strides": [1, 1], "padding": "same", "data_format": "channels_last", "dilation_rate": [1, 1], "groups": 1, "activation": "linear", "use_bias": false, "bias_initializer": {"class_name": "Zeros", "config": {}}, "bias_regularizer": null, "activity_regularizer": null, "bias_constraint": null, "depth_multiplier": 1, "depthwise_initializer": {"class_name": "VarianceScaling", "config": {"scale": 2.0, "mode": "fan_out", "distribution": "truncated_normal", "seed": null}}, "depthwise_regularizer": {"class_name": "L2", "config": {"l2": 0.0002500000118743628}}, "depthwise_constraint": null}, "name": "depthwise_conv2d_61", "inbound_nodes": [[["activation_67", 0, 0, {}]]]}, {"class_name": "BatchNormalization", "config": {"name": "batch_normalization_119", "trainable": true, "dtype": {"class_name": "Policy", "config": {"name": "mixed_float16"}}, "axis": [3], "momentum": 0.9, "epsilon": 1e-05, "center": true, "scale": true, "beta_initializer": {"class_name": "Zeros", "config": {}}, "gamma_initializer": {"class_name": "Ones", "config": {}}, "moving_mean_initializer": {"class_name": "Zeros", "config": {}}, "moving_variance_initializer": {"class_name": "Ones", "config": {}}, "beta_regularizer": null, "gamma_regularizer": null, "beta_constraint": null, "gamma_constraint": null}, "name": "batch_normalization_119", "inbound_nodes": [[["depthwise_conv2d_61", 0, 0, {}]]]}, {"class_name": "PReLU", "config": {"name": "activation_68", "trainable": true, "dtype": {"class_name": "Policy", "config": {"name": "mixed_float16"}, "shared_object_id": 13}, "alpha_initializer": {"class_name": "Constant", "config": {"value": 0.25}}, "alpha_regularizer": null, "alpha_constraint": null, "shared_axes": [1, 2]}, "name": "activation_68", "inbound_nodes": [[["batch_normalization_119", 0, 0, {}]]]}, {"class_name": "Concatenate", "config": {"name": "concatenate_46", "trainable": true, "dtype": {"class_name": "Policy", "config": {"name": "mixed_float16"}}, "axis": -1}, "name": "concatenate_46", "inbound_nodes": [[["activation_67", 0, 0, {}], ["activation_68", 0, 0, {}]]]}, {"class_name": "Conv2D", "config": {"name": "conv2d_76", "trainable": true, "dtype": {"class_name": "Policy", "config": {"name": "mixed_float16"}}, "filters": 40, "kernel_size": [1, 1], "strides": [1, 1], "padding": "same", "data_format": "channels_last", "dilation_rate": [1, 1], "groups": 1, "activation": "linear", "use_bias": false, "kernel_initializer": {"class_name": "VarianceScaling", "config": {"scale": 2.0, "mode": "fan_out", "distribution": "truncated_normal", "seed": null}}, "bias_initializer": {"class_name": "Zeros", "config": {}}, "kernel_regularizer": {"class_name": "L2", "config": {"l2": 0.0002500000118743628}}, "bias_regularizer": null, "activity_regularizer": null, "kernel_constraint": null, "bias_constraint": null}, "name": "conv2d_76", "inbound_nodes": [[["concatenate_46", 0, 0, {}]]]}, {"class_name": "BatchNormalization", "config": {"name": "batch_normalization_120", "trainable": true, "dtype": {"class_name": "Policy", "config": {"name": "mixed_float16"}}, "axis": [3], "momentum": 0.9, "epsilon": 1e-05, "center": true, "scale": true, "beta_initializer": {"class_name": "Zeros", "config": {}}, "gamma_initializer": {"class_name": "Ones", "config": {}}, "moving_mean_initializer": {"class_name": "Zeros", "config": {}}, "moving_variance_initializer": {"class_name": "Ones", "config": {}}, "beta_regularizer": null, "gamma_regularizer": null, "beta_constraint": null, "gamma_constraint": null}, "name": "batch_normalization_120", "inbound_nodes": [[["conv2d_76", 0, 0, {}]]]}, {"class_name": "DepthwiseConv2D", "config": {"name": "depthwise_conv2d_62", "trainable": true, "dtype": {"class_name": "Policy", "config": {"name": "mixed_float16"}}, "kernel_size": [3, 3], "strides": [1, 1], "padding": "same", "data_format": "channels_last", "dilation_rate": [1, 1], "groups": 1, "activation": "linear", "use_bias": false, "bias_initializer": {"class_name": "Zeros", "config": {}}, "bias_regularizer": null, "activity_regularizer": null, "bias_constraint": null, "depth_multiplier": 1, "depthwise_initializer": {"class_name": "VarianceScaling", "config": {"scale": 2.0, "mode": "fan_out", "distribution": "truncated_normal", "seed": null}}, "depthwise_regularizer": {"class_name": "L2", "config": {"l2": 0.0002500000118743628}}, "depthwise_constraint": null}, "name": "depthwise_conv2d_62", "inbound_nodes": [[["batch_normalization_120", 0, 0, {}]]]}, {"class_name": "BatchNormalization", "config": {"name": "batch_normalization_121", "trainable": true, "dtype": {"class_name": "Policy", "config": {"name": "mixed_float16"}}, "axis": [3], "momentum": 0.9, "epsilon": 1e-05, "center": true, "scale": true, "beta_initializer": {"class_name": "Zeros", "config": {}}, "gamma_initializer": {"class_name": "Ones", "config": {}}, "moving_mean_initializer": {"class_name": "Zeros", "config": {}}, "moving_variance_initializer": {"class_name": "Ones", "config": {}}, "beta_regularizer": null, "gamma_regularizer": null, "beta_constraint": null, "gamma_constraint": null}, "name": "batch_normalization_121", "inbound_nodes": [[["depthwise_conv2d_62", 0, 0, {}]]]}, {"class_name": "Concatenate", "config": {"name": "concatenate_47", "trainable": true, "dtype": {"class_name": "Policy", "config": {"name": "mixed_float16"}}, "axis": -1}, "name": "concatenate_47", "inbound_nodes": [[["batch_normalization_120", 0, 0, {}], ["batch_normalization_121", 0, 0, {}]]]}, {"class_name": "Add", "config": {"name": "add_23", "trainable": true, "dtype": {"class_name": "Policy", "config": {"name": "mixed_float16"}}}, "name": "add_23", "inbound_nodes": [[["add_22", 0, 0, {}], ["concatenate_47", 0, 0, {}]]]}, {"class_name": "Conv2D", "config": {"name": "conv2d_77", "trainable": true, "dtype": {"class_name": "Policy", "config": {"name": "mixed_float16"}}, "filters": 92, "kernel_size": [1, 1], "strides": [1, 1], "padding": "same", "data_format": "channels_last", "dilation_rate": [1, 1], "groups": 1, "activation": "linear", "use_bias": false, "kernel_initializer": {"class_name": "VarianceScaling", "config": {"scale": 2.0, "mode": "fan_out", "distribution": "truncated_normal", "seed": null}}, "bias_initializer": {"class_name": "Zeros", "config": {}}, "kernel_regularizer": {"class_name": "L2", "config": {"l2": 0.0002500000118743628}}, "bias_regularizer": null, "activity_regularizer": null, "kernel_constraint": null, "bias_constraint": null}, "name": "conv2d_77", "inbound_nodes": [[["add_23", 0, 0, {}]]]}, {"class_name": "BatchNormalization", "config": {"name": "batch_normalization_122", "trainable": true, "dtype": {"class_name": "Policy", "config": {"name": "mixed_float16"}}, "axis": [3], "momentum": 0.9, "epsilon": 1e-05, "center": true, "scale": true, "beta_initializer": {"class_name": "Zeros", "config": {}}, "gamma_initializer": {"class_name": "Ones", "config": {}}, "moving_mean_initializer": {"class_name": "Zeros", "config": {}}, "moving_variance_initializer": {"class_name": "Ones", "config": {}}, "beta_regularizer": null, "gamma_regularizer": null, "beta_constraint": null, "gamma_constraint": null}, "name": "batch_normalization_122", "inbound_nodes": [[["conv2d_77", 0, 0, {}]]]}, {"class_name": "PReLU", "config": {"name": "activation_69", "trainable": true, "dtype": {"class_name": "Policy", "config": {"name": "mixed_float16"}, "shared_object_id": 13}, "alpha_initializer": {"class_name": "Constant", "config": {"value": 0.25}}, "alpha_regularizer": null, "alpha_constraint": null, "shared_axes": [1, 2]}, "name": "activation_69", "inbound_nodes": [[["batch_normalization_122", 0, 0, {}]]]}, {"class_name": "DepthwiseConv2D", "config": {"name": "depthwise_conv2d_63", "trainable": true, "dtype": {"class_name": "Policy", "config": {"name": "mixed_float16"}}, "kernel_size": [3, 3], "strides": [1, 1], "padding": "same", "data_format": "channels_last", "dilation_rate": [1, 1], "groups": 1, "activation": "linear", "use_bias": false, "bias_initializer": {"class_name": "Zeros", "config": {}}, "bias_regularizer": null, "activity_regularizer": null, "bias_constraint": null, "depth_multiplier": 1, "depthwise_initializer": {"class_name": "VarianceScaling", "config": {"scale": 2.0, "mode": "fan_out", "distribution": "truncated_normal", "seed": null}}, "depthwise_regularizer": {"class_name": "L2", "config": {"l2": 0.0002500000118743628}}, "depthwise_constraint": null}, "name": "depthwise_conv2d_63", "inbound_nodes": [[["activation_69", 0, 0, {}]]]}, {"class_name": "BatchNormalization", "config": {"name": "batch_normalization_123", "trainable": true, "dtype": {"class_name": "Policy", "config": {"name": "mixed_float16"}}, "axis": [3], "momentum": 0.9, "epsilon": 1e-05, "center": true, "scale": true, "beta_initializer": {"class_name": "Zeros", "config": {}}, "gamma_initializer": {"class_name": "Ones", "config": {}}, "moving_mean_initializer": {"class_name": "Zeros", "config": {}}, "moving_variance_initializer": {"class_name": "Ones", "config": {}}, "beta_regularizer": null, "gamma_regularizer": null, "beta_constraint": null, "gamma_constraint": null}, "name": "batch_normalization_123", "inbound_nodes": [[["depthwise_conv2d_63", 0, 0, {}]]]}, {"class_name": "PReLU", "config": {"name": "activation_70", "trainable": true, "dtype": {"class_name": "Policy", "config": {"name": "mixed_float16"}, "shared_object_id": 13}, "alpha_initializer": {"class_name": "Constant", "config": {"value": 0.25}}, "alpha_regularizer": null, "alpha_constraint": null, "shared_axes": [1, 2]}, "name": "activation_70", "inbound_nodes": [[["batch_normalization_123", 0, 0, {}]]]}, {"class_name": "Concatenate", "config": {"name": "concatenate_48", "trainable": true, "dtype": {"class_name": "Policy", "config": {"name": "mixed_float16"}}, "axis": -1}, "name": "concatenate_48", "inbound_nodes": [[["activation_69", 0, 0, {}], ["activation_70", 0, 0, {}]]]}, {"class_name": "Conv2D", "config": {"name": "conv2d_78", "trainable": true, "dtype": {"class_name": "Policy", "config": {"name": "mixed_float16"}}, "filters": 40, "kernel_size": [1, 1], "strides": [1, 1], "padding": "same", "data_format": "channels_last", "dilation_rate": [1, 1], "groups": 1, "activation": "linear", "use_bias": false, "kernel_initializer": {"class_name": "VarianceScaling", "config": {"scale": 2.0, "mode": "fan_out", "distribution": "truncated_normal", "seed": null}}, "bias_initializer": {"class_name": "Zeros", "config": {}}, "kernel_regularizer": {"class_name": "L2", "config": {"l2": 0.0002500000118743628}}, "bias_regularizer": null, "activity_regularizer": null, "kernel_constraint": null, "bias_constraint": null}, "name": "conv2d_78", "inbound_nodes": [[["concatenate_48", 0, 0, {}]]]}, {"class_name": "BatchNormalization", "config": {"name": "batch_normalization_124", "trainable": true, "dtype": {"class_name": "Policy", "config": {"name": "mixed_float16"}}, "axis": [3], "momentum": 0.9, "epsilon": 1e-05, "center": true, "scale": true, "beta_initializer": {"class_name": "Zeros", "config": {}}, "gamma_initializer": {"class_name": "Ones", "config": {}}, "moving_mean_initializer": {"class_name": "Zeros", "config": {}}, "moving_variance_initializer": {"class_name": "Ones", "config": {}}, "beta_regularizer": null, "gamma_regularizer": null, "beta_constraint": null, "gamma_constraint": null}, "name": "batch_normalization_124", "inbound_nodes": [[["conv2d_78", 0, 0, {}]]]}, {"class_name": "DepthwiseConv2D", "config": {"name": "depthwise_conv2d_64", "trainable": true, "dtype": {"class_name": "Policy", "config": {"name": "mixed_float16"}}, "kernel_size": [3, 3], "strides": [1, 1], "padding": "same", "data_format": "channels_last", "dilation_rate": [1, 1], "groups": 1, "activation": "linear", "use_bias": false, "bias_initializer": {"class_name": "Zeros", "config": {}}, "bias_regularizer": null, "activity_regularizer": null, "bias_constraint": null, "depth_multiplier": 1, "depthwise_initializer": {"class_name": "VarianceScaling", "config": {"scale": 2.0, "mode": "fan_out", "distribution": "truncated_normal", "seed": null}}, "depthwise_regularizer": {"class_name": "L2", "config": {"l2": 0.0002500000118743628}}, "depthwise_constraint": null}, "name": "depthwise_conv2d_64", "inbound_nodes": [[["batch_normalization_124", 0, 0, {}]]]}, {"class_name": "BatchNormalization", "config": {"name": "batch_normalization_125", "trainable": true, "dtype": {"class_name": "Policy", "config": {"name": "mixed_float16"}}, "axis": [3], "momentum": 0.9, "epsilon": 1e-05, "center": true, "scale": true, "beta_initializer": {"class_name": "Zeros", "config": {}}, "gamma_initializer": {"class_name": "Ones", "config": {}}, "moving_mean_initializer": {"class_name": "Zeros", "config": {}}, "moving_variance_initializer": {"class_name": "Ones", "config": {}}, "beta_regularizer": null, "gamma_regularizer": null, "beta_constraint": null, "gamma_constraint": null}, "name": "batch_normalization_125", "inbound_nodes": [[["depthwise_conv2d_64", 0, 0, {}]]]}, {"class_name": "Concatenate", "config": {"name": "concatenate_49", "trainable": true, "dtype": {"class_name": "Policy", "config": {"name": "mixed_float16"}}, "axis": -1}, "name": "concatenate_49", "inbound_nodes": [[["batch_normalization_124", 0, 0, {}], ["batch_normalization_125", 0, 0, {}]]]}, {"class_name": "Add", "config": {"name": "add_24", "trainable": true, "dtype": {"class_name": "Policy", "config": {"name": "mixed_float16"}}}, "name": "add_24", "inbound_nodes": [[["add_23", 0, 0, {}], ["concatenate_49", 0, 0, {}]]]}, {"class_name": "Conv2D", "config": {"name": "conv2d_79", "trainable": true, "dtype": {"class_name": "Policy", "config": {"name": "mixed_float16"}}, "filters": 240, "kernel_size": [1, 1], "strides": [1, 1], "padding": "same", "data_format": "channels_last", "dilation_rate": [1, 1], "groups": 1, "activation": "linear", "use_bias": false, "kernel_initializer": {"class_name": "VarianceScaling", "config": {"scale": 2.0, "mode": "fan_out", "distribution": "truncated_normal", "seed": null}}, "bias_initializer": {"class_name": "Zeros", "config": {}}, "kernel_regularizer": {"class_name": "L2", "config": {"l2": 0.0002500000118743628}}, "bias_regularizer": null, "activity_regularizer": null, "kernel_constraint": null, "bias_constraint": null}, "name": "conv2d_79", "inbound_nodes": [[["add_24", 0, 0, {}]]]}, {"class_name": "BatchNormalization", "config": {"name": "batch_normalization_126", "trainable": true, "dtype": {"class_name": "Policy", "config": {"name": "mixed_float16"}}, "axis": [3], "momentum": 0.9, "epsilon": 1e-05, "center": true, "scale": true, "beta_initializer": {"class_name": "Zeros", "config": {}}, "gamma_initializer": {"class_name": "Ones", "config": {}}, "moving_mean_initializer": {"class_name": "Zeros", "config": {}}, "moving_variance_initializer": {"class_name": "Ones", "config": {}}, "beta_regularizer": null, "gamma_regularizer": null, "beta_constraint": null, "gamma_constraint": null}, "name": "batch_normalization_126", "inbound_nodes": [[["conv2d_79", 0, 0, {}]]]}, {"class_name": "PReLU", "config": {"name": "activation_71", "trainable": true, "dtype": {"class_name": "Policy", "config": {"name": "mixed_float16"}, "shared_object_id": 13}, "alpha_initializer": {"class_name": "Constant", "config": {"value": 0.25}}, "alpha_regularizer": null, "alpha_constraint": null, "shared_axes": [1, 2]}, "name": "activation_71", "inbound_nodes": [[["batch_normalization_126", 0, 0, {}]]]}, {"class_name": "DepthwiseConv2D", "config": {"name": "depthwise_conv2d_65", "trainable": true, "dtype": {"class_name": "Policy", "config": {"name": "mixed_float16"}}, "kernel_size": [3, 3], "strides": [1, 1], "padding": "same", "data_format": "channels_last", "dilation_rate": [1, 1], "groups": 1, "activation": "linear", "use_bias": false, "bias_initializer": {"class_name": "Zeros", "config": {}}, "bias_regularizer": null, "activity_regularizer": null, "bias_constraint": null, "depth_multiplier": 1, "depthwise_initializer": {"class_name": "VarianceScaling", "config": {"scale": 2.0, "mode": "fan_out", "distribution": "truncated_normal", "seed": null}}, "depthwise_regularizer": {"class_name": "L2", "config": {"l2": 0.0002500000118743628}}, "depthwise_constraint": null}, "name": "depthwise_conv2d_65", "inbound_nodes": [[["activation_71", 0, 0, {}]]]}, {"class_name": "BatchNormalization", "config": {"name": "batch_normalization_127", "trainable": true, "dtype": {"class_name": "Policy", "config": {"name": "mixed_float16"}}, "axis": [3], "momentum": 0.9, "epsilon": 1e-05, "center": true, "scale": true, "beta_initializer": {"class_name": "Zeros", "config": {}}, "gamma_initializer": {"class_name": "Ones", "config": {}}, "moving_mean_initializer": {"class_name": "Zeros", "config": {}}, "moving_variance_initializer": {"class_name": "Ones", "config": {}}, "beta_regularizer": null, "gamma_regularizer": null, "beta_constraint": null, "gamma_constraint": null}, "name": "batch_normalization_127", "inbound_nodes": [[["depthwise_conv2d_65", 0, 0, {}]]]}, {"class_name": "PReLU", "config": {"name": "activation_72", "trainable": true, "dtype": {"class_name": "Policy", "config": {"name": "mixed_float16"}, "shared_object_id": 13}, "alpha_initializer": {"class_name": "Constant", "config": {"value": 0.25}}, "alpha_regularizer": null, "alpha_constraint": null, "shared_axes": [1, 2]}, "name": "activation_72", "inbound_nodes": [[["batch_normalization_127", 0, 0, {}]]]}, {"class_name": "Concatenate", "config": {"name": "concatenate_50", "trainable": true, "dtype": {"class_name": "Policy", "config": {"name": "mixed_float16"}}, "axis": -1}, "name": "concatenate_50", "inbound_nodes": [[["activation_71", 0, 0, {}], ["activation_72", 0, 0, {}]]]}, {"class_name": "GlobalAveragePooling2D", "config": {"name": "global_average_pooling2d_9", "trainable": true, "dtype": {"class_name": "Policy", "config": {"name": "mixed_float16"}}, "data_format": "channels_last", "keepdims": false}, "name": "global_average_pooling2d_9", "inbound_nodes": [[["concatenate_50", 0, 0, {}]]]}, {"class_name": "Reshape", "config": {"name": "reshape_9", "trainable": true, "dtype": {"class_name": "Policy", "config": {"name": "mixed_float16"}}, "target_shape": [1, 1, 480]}, "name": "reshape_9", "inbound_nodes": [[["global_average_pooling2d_9", 0, 0, {}]]]}, {"class_name": "Conv2D", "config": {"name": "conv2d_80", "trainable": true, "dtype": {"class_name": "Policy", "config": {"name": "mixed_float16"}}, "filters": 120, "kernel_size": [1, 1], "strides": [1, 1], "padding": "valid", "data_format": "channels_last", "dilation_rate": [1, 1], "groups": 1, "activation": "linear", "use_bias": true, "kernel_initializer": {"class_name": "VarianceScaling", "config": {"scale": 2.0, "mode": "fan_out", "distribution": "truncated_normal", "seed": null}}, "bias_initializer": {"class_name": "Zeros", "config": {}}, "kernel_regularizer": {"class_name": "L2", "config": {"l2": 0.0002500000118743628}}, "bias_regularizer": null, "activity_regularizer": null, "kernel_constraint": null, "bias_constraint": null}, "name": "conv2d_80", "inbound_nodes": [[["reshape_9", 0, 0, {}]]]}, {"class_name": "PReLU", "config": {"name": "activation_73", "trainable": true, "dtype": {"class_name": "Policy", "config": {"name": "mixed_float16"}, "shared_object_id": 13}, "alpha_initializer": {"class_name": "Constant", "config": {"value": 0.25}}, "alpha_regularizer": null, "alpha_constraint": null, "shared_axes": [1, 2]}, "name": "activation_73", "inbound_nodes": [[["conv2d_80", 0, 0, {}]]]}, {"class_name": "Conv2D", "config": {"name": "conv2d_81", "trainable": true, "dtype": {"class_name": "Policy", "config": {"name": "mixed_float16"}}, "filters": 480, "kernel_size": [1, 1], "strides": [1, 1], "padding": "valid", "data_format": "channels_last", "dilation_rate": [1, 1], "groups": 1, "activation": "linear", "use_bias": true, "kernel_initializer": {"class_name": "VarianceScaling", "config": {"scale": 2.0, "mode": "fan_out", "distribution": "truncated_normal", "seed": null}}, "bias_initializer": {"class_name": "Zeros", "config": {}}, "kernel_regularizer": {"class_name": "L2", "config": {"l2": 0.0002500000118743628}}, "bias_regularizer": null, "activity_regularizer": null, "kernel_constraint": null, "bias_constraint": null}, "name": "conv2d_81", "inbound_nodes": [[["activation_73", 0, 0, {}]]]}, {"class_name": "Activation", "config": {"name": "activation_74", "trainable": true, "dtype": {"class_name": "Policy", "config": {"name": "mixed_float16"}}, "activation": "hard_sigmoid"}, "name": "activation_74", "inbound_nodes": [[["conv2d_81", 0, 0, {}]]]}, {"class_name": "Multiply", "config": {"name": "multiply_9", "trainable": true, "dtype": {"class_name": "Policy", "config": {"name": "mixed_float16"}}}, "name": "multiply_9", "inbound_nodes": [[["concatenate_50", 0, 0, {}], ["activation_74", 0, 0, {}]]]}, {"class_name": "Conv2D", "config": {"name": "conv2d_82", "trainable": true, "dtype": {"class_name": "Policy", "config": {"name": "mixed_float16"}}, "filters": 56, "kernel_size": [1, 1], "strides": [1, 1], "padding": "same", "data_format": "channels_last", "dilation_rate": [1, 1], "groups": 1, "activation": "linear", "use_bias": false, "kernel_initializer": {"class_name": "VarianceScaling", "config": {"scale": 2.0, "mode": "fan_out", "distribution": "truncated_normal", "seed": null}}, "bias_initializer": {"class_name": "Zeros", "config": {}}, "kernel_regularizer": {"class_name": "L2", "config": {"l2": 0.0002500000118743628}}, "bias_regularizer": null, "activity_regularizer": null, "kernel_constraint": null, "bias_constraint": null}, "name": "conv2d_82", "inbound_nodes": [[["multiply_9", 0, 0, {}]]]}, {"class_name": "DepthwiseConv2D", "config": {"name": "depthwise_conv2d_67", "trainable": true, "dtype": {"class_name": "Policy", "config": {"name": "mixed_float16"}}, "kernel_size": [3, 3], "strides": [1, 1], "padding": "same", "data_format": "channels_last", "dilation_rate": [1, 1], "groups": 1, "activation": "linear", "use_bias": false, "bias_initializer": {"class_name": "Zeros", "config": {}}, "bias_regularizer": null, "activity_regularizer": null, "bias_constraint": null, "depth_multiplier": 1, "depthwise_initializer": {"class_name": "VarianceScaling", "config": {"scale": 2.0, "mode": "fan_out", "distribution": "truncated_normal", "seed": null}}, "depthwise_regularizer": {"class_name": "L2", "config": {"l2": 0.0002500000118743628}}, "depthwise_constraint": null}, "name": "depthwise_conv2d_67", "inbound_nodes": [[["add_24", 0, 0, {}]]]}, {"class_name": "BatchNormalization", "config": {"name": "batch_normalization_128", "trainable": true, "dtype": {"class_name": "Policy", "config": {"name": "mixed_float16"}}, "axis": [3], "momentum": 0.9, "epsilon": 1e-05, "center": true, "scale": true, "beta_initializer": {"class_name": "Zeros", "config": {}}, "gamma_initializer": {"class_name": "Ones", "config": {}}, "moving_mean_initializer": {"class_name": "Zeros", "config": {}}, "moving_variance_initializer": {"class_name": "Ones", "config": {}}, "beta_regularizer": null, "gamma_regularizer": null, "beta_constraint": null, "gamma_constraint": null}, "name": "batch_normalization_128", "inbound_nodes": [[["conv2d_82", 0, 0, {}]]]}, {"class_name": "BatchNormalization", "config": {"name": "batch_normalization_130", "trainable": true, "dtype": {"class_name": "Policy", "config": {"name": "mixed_float16"}}, "axis": [3], "momentum": 0.9, "epsilon": 1e-05, "center": true, "scale": true, "beta_initializer": {"class_name": "Zeros", "config": {}}, "gamma_initializer": {"class_name": "Ones", "config": {}}, "moving_mean_initializer": {"class_name": "Zeros", "config": {}}, "moving_variance_initializer": {"class_name": "Ones", "config": {}}, "beta_regularizer": null, "gamma_regularizer": null, "beta_constraint": null, "gamma_constraint": null}, "name": "batch_normalization_130", "inbound_nodes": [[["depthwise_conv2d_67", 0, 0, {}]]]}, {"class_name": "DepthwiseConv2D", "config": {"name": "depthwise_conv2d_66", "trainable": true, "dtype": {"class_name": "Policy", "config": {"name": "mixed_float16"}}, "kernel_size": [3, 3], "strides": [1, 1], "padding": "same", "data_format": "channels_last", "dilation_rate": [1, 1], "groups": 1, "activation": "linear", "use_bias": false, "bias_initializer": {"class_name": "Zeros", "config": {}}, "bias_regularizer": null, "activity_regularizer": null, "bias_constraint": null, "depth_multiplier": 1, "depthwise_initializer": {"class_name": "VarianceScaling", "config": {"scale": 2.0, "mode": "fan_out", "distribution": "truncated_normal", "seed": null}}, "depthwise_regularizer": {"class_name": "L2", "config": {"l2": 0.0002500000118743628}}, "depthwise_constraint": null}, "name": "depthwise_conv2d_66", "inbound_nodes": [[["batch_normalization_128", 0, 0, {}]]]}, {"class_name": "Conv2D", "config": {"name": "conv2d_83", "trainable": true, "dtype": {"class_name": "Policy", "config": {"name": "mixed_float16"}}, "filters": 112, "kernel_size": [1, 1], "strides": [1, 1], "padding": "valid", "data_format": "channels_last", "dilation_rate": [1, 1], "groups": 1, "activation": "linear", "use_bias": false, "kernel_initializer": {"class_name": "VarianceScaling", "config": {"scale": 2.0, "mode": "fan_out", "distribution": "truncated_normal", "seed": null}}, "bias_initializer": {"class_name": "Zeros", "config": {}}, "kernel_regularizer": {"class_name": "L2", "config": {"l2": 0.0002500000118743628}}, "bias_regularizer": null, "activity_regularizer": null, "kernel_constraint": null, "bias_constraint": null}, "name": "conv2d_83", "inbound_nodes": [[["batch_normalization_130", 0, 0, {}]]]}, {"class_name": "BatchNormalization", "config": {"name": "batch_normalization_129", "trainable": true, "dtype": {"class_name": "Policy", "config": {"name": "mixed_float16"}}, "axis": [3], "momentum": 0.9, "epsilon": 1e-05, "center": true, "scale": true, "beta_initializer": {"class_name": "Zeros", "config": {}}, "gamma_initializer": {"class_name": "Ones", "config": {}}, "moving_mean_initializer": {"class_name": "Zeros", "config": {}}, "moving_variance_initializer": {"class_name": "Ones", "config": {}}, "beta_regularizer": null, "gamma_regularizer": null, "beta_constraint": null, "gamma_constraint": null}, "name": "batch_normalization_129", "inbound_nodes": [[["depthwise_conv2d_66", 0, 0, {}]]]}, {"class_name": "BatchNormalization", "config": {"name": "batch_normalization_131", "trainable": true, "dtype": {"class_name": "Policy", "config": {"name": "mixed_float16"}}, "axis": [3], "momentum": 0.9, "epsilon": 1e-05, "center": true, "scale": true, "beta_initializer": {"class_name": "Zeros", "config": {}}, "gamma_initializer": {"class_name": "Ones", "config": {}}, "moving_mean_initializer": {"class_name": "Zeros", "config": {}}, "moving_variance_initializer": {"class_name": "Ones", "config": {}}, "beta_regularizer": null, "gamma_regularizer": null, "beta_constraint": null, "gamma_constraint": null}, "name": "batch_normalization_131", "inbound_nodes": [[["conv2d_83", 0, 0, {}]]]}, {"class_name": "Concatenate", "config": {"name": "concatenate_51", "trainable": true, "dtype": {"class_name": "Policy", "config": {"name": "mixed_float16"}}, "axis": -1}, "name": "concatenate_51", "inbound_nodes": [[["batch_normalization_128", 0, 0, {}], ["batch_normalization_129", 0, 0, {}]]]}, {"class_name": "Add", "config": {"name": "add_25", "trainable": true, "dtype": {"class_name": "Policy", "config": {"name": "mixed_float16"}}}, "name": "add_25", "inbound_nodes": [[["batch_normalization_131", 0, 0, {}], ["concatenate_51", 0, 0, {}]]]}, {"class_name": "Conv2D", "config": {"name": "conv2d_84", "trainable": true, "dtype": {"class_name": "Policy", "config": {"name": "mixed_float16"}}, "filters": 336, "kernel_size": [1, 1], "strides": [1, 1], "padding": "same", "data_format": "channels_last", "dilation_rate": [1, 1], "groups": 1, "activation": "linear", "use_bias": false, "kernel_initializer": {"class_name": "VarianceScaling", "config": {"scale": 2.0, "mode": "fan_out", "distribution": "truncated_normal", "seed": null}}, "bias_initializer": {"class_name": "Zeros", "config": {}}, "kernel_regularizer": {"class_name": "L2", "config": {"l2": 0.0002500000118743628}}, "bias_regularizer": null, "activity_regularizer": null, "kernel_constraint": null, "bias_constraint": null}, "name": "conv2d_84", "inbound_nodes": [[["add_25", 0, 0, {}]]]}, {"class_name": "BatchNormalization", "config": {"name": "batch_normalization_132", "trainable": true, "dtype": {"class_name": "Policy", "config": {"name": "mixed_float16"}}, "axis": [3], "momentum": 0.9, "epsilon": 1e-05, "center": true, "scale": true, "beta_initializer": {"class_name": "Zeros", "config": {}}, "gamma_initializer": {"class_name": "Ones", "config": {}}, "moving_mean_initializer": {"class_name": "Zeros", "config": {}}, "moving_variance_initializer": {"class_name": "Ones", "config": {}}, "beta_regularizer": null, "gamma_regularizer": null, "beta_constraint": null, "gamma_constraint": null}, "name": "batch_normalization_132", "inbound_nodes": [[["conv2d_84", 0, 0, {}]]]}, {"class_name": "PReLU", "config": {"name": "activation_75", "trainable": true, "dtype": {"class_name": "Policy", "config": {"name": "mixed_float16"}, "shared_object_id": 13}, "alpha_initializer": {"class_name": "Constant", "config": {"value": 0.25}}, "alpha_regularizer": null, "alpha_constraint": null, "shared_axes": [1, 2]}, "name": "activation_75", "inbound_nodes": [[["batch_normalization_132", 0, 0, {}]]]}, {"class_name": "DepthwiseConv2D", "config": {"name": "depthwise_conv2d_68", "trainable": true, "dtype": {"class_name": "Policy", "config": {"name": "mixed_float16"}}, "kernel_size": [3, 3], "strides": [1, 1], "padding": "same", "data_format": "channels_last", "dilation_rate": [1, 1], "groups": 1, "activation": "linear", "use_bias": false, "bias_initializer": {"class_name": "Zeros", "config": {}}, "bias_regularizer": null, "activity_regularizer": null, "bias_constraint": null, "depth_multiplier": 1, "depthwise_initializer": {"class_name": "VarianceScaling", "config": {"scale": 2.0, "mode": "fan_out", "distribution": "truncated_normal", "seed": null}}, "depthwise_regularizer": {"class_name": "L2", "config": {"l2": 0.0002500000118743628}}, "depthwise_constraint": null}, "name": "depthwise_conv2d_68", "inbound_nodes": [[["activation_75", 0, 0, {}]]]}, {"class_name": "BatchNormalization", "config": {"name": "batch_normalization_133", "trainable": true, "dtype": {"class_name": "Policy", "config": {"name": "mixed_float16"}}, "axis": [3], "momentum": 0.9, "epsilon": 1e-05, "center": true, "scale": true, "beta_initializer": {"class_name": "Zeros", "config": {}}, "gamma_initializer": {"class_name": "Ones", "config": {}}, "moving_mean_initializer": {"class_name": "Zeros", "config": {}}, "moving_variance_initializer": {"class_name": "Ones", "config": {}}, "beta_regularizer": null, "gamma_regularizer": null, "beta_constraint": null, "gamma_constraint": null}, "name": "batch_normalization_133", "inbound_nodes": [[["depthwise_conv2d_68", 0, 0, {}]]]}, {"class_name": "PReLU", "config": {"name": "activation_76", "trainable": true, "dtype": {"class_name": "Policy", "config": {"name": "mixed_float16"}, "shared_object_id": 13}, "alpha_initializer": {"class_name": "Constant", "config": {"value": 0.25}}, "alpha_regularizer": null, "alpha_constraint": null, "shared_axes": [1, 2]}, "name": "activation_76", "inbound_nodes": [[["batch_normalization_133", 0, 0, {}]]]}, {"class_name": "Concatenate", "config": {"name": "concatenate_52", "trainable": true, "dtype": {"class_name": "Policy", "config": {"name": "mixed_float16"}}, "axis": -1}, "name": "concatenate_52", "inbound_nodes": [[["activation_75", 0, 0, {}], ["activation_76", 0, 0, {}]]]}, {"class_name": "GlobalAveragePooling2D", "config": {"name": "global_average_pooling2d_10", "trainable": true, "dtype": {"class_name": "Policy", "config": {"name": "mixed_float16"}}, "data_format": "channels_last", "keepdims": false}, "name": "global_average_pooling2d_10", "inbound_nodes": [[["concatenate_52", 0, 0, {}]]]}, {"class_name": "Reshape", "config": {"name": "reshape_10", "trainable": true, "dtype": {"class_name": "Policy", "config": {"name": "mixed_float16"}}, "target_shape": [1, 1, 672]}, "name": "reshape_10", "inbound_nodes": [[["global_average_pooling2d_10", 0, 0, {}]]]}, {"class_name": "Conv2D", "config": {"name": "conv2d_85", "trainable": true, "dtype": {"class_name": "Policy", "config": {"name": "mixed_float16"}}, "filters": 168, "kernel_size": [1, 1], "strides": [1, 1], "padding": "valid", "data_format": "channels_last", "dilation_rate": [1, 1], "groups": 1, "activation": "linear", "use_bias": true, "kernel_initializer": {"class_name": "VarianceScaling", "config": {"scale": 2.0, "mode": "fan_out", "distribution": "truncated_normal", "seed": null}}, "bias_initializer": {"class_name": "Zeros", "config": {}}, "kernel_regularizer": {"class_name": "L2", "config": {"l2": 0.0002500000118743628}}, "bias_regularizer": null, "activity_regularizer": null, "kernel_constraint": null, "bias_constraint": null}, "name": "conv2d_85", "inbound_nodes": [[["reshape_10", 0, 0, {}]]]}, {"class_name": "PReLU", "config": {"name": "activation_77", "trainable": true, "dtype": {"class_name": "Policy", "config": {"name": "mixed_float16"}, "shared_object_id": 13}, "alpha_initializer": {"class_name": "Constant", "config": {"value": 0.25}}, "alpha_regularizer": null, "alpha_constraint": null, "shared_axes": [1, 2]}, "name": "activation_77", "inbound_nodes": [[["conv2d_85", 0, 0, {}]]]}, {"class_name": "Conv2D", "config": {"name": "conv2d_86", "trainable": true, "dtype": {"class_name": "Policy", "config": {"name": "mixed_float16"}}, "filters": 672, "kernel_size": [1, 1], "strides": [1, 1], "padding": "valid", "data_format": "channels_last", "dilation_rate": [1, 1], "groups": 1, "activation": "linear", "use_bias": true, "kernel_initializer": {"class_name": "VarianceScaling", "config": {"scale": 2.0, "mode": "fan_out", "distribution": "truncated_normal", "seed": null}}, "bias_initializer": {"class_name": "Zeros", "config": {}}, "kernel_regularizer": {"class_name": "L2", "config": {"l2": 0.0002500000118743628}}, "bias_regularizer": null, "activity_regularizer": null, "kernel_constraint": null, "bias_constraint": null}, "name": "conv2d_86", "inbound_nodes": [[["activation_77", 0, 0, {}]]]}, {"class_name": "Activation", "config": {"name": "activation_78", "trainable": true, "dtype": {"class_name": "Policy", "config": {"name": "mixed_float16"}}, "activation": "hard_sigmoid"}, "name": "activation_78", "inbound_nodes": [[["conv2d_86", 0, 0, {}]]]}, {"class_name": "Multiply", "config": {"name": "multiply_10", "trainable": true, "dtype": {"class_name": "Policy", "config": {"name": "mixed_float16"}}}, "name": "multiply_10", "inbound_nodes": [[["concatenate_52", 0, 0, {}], ["activation_78", 0, 0, {}]]]}, {"class_name": "Conv2D", "config": {"name": "conv2d_87", "trainable": true, "dtype": {"class_name": "Policy", "config": {"name": "mixed_float16"}}, "filters": 56, "kernel_size": [1, 1], "strides": [1, 1], "padding": "same", "data_format": "channels_last", "dilation_rate": [1, 1], "groups": 1, "activation": "linear", "use_bias": false, "kernel_initializer": {"class_name": "VarianceScaling", "config": {"scale": 2.0, "mode": "fan_out", "distribution": "truncated_normal", "seed": null}}, "bias_initializer": {"class_name": "Zeros", "config": {}}, "kernel_regularizer": {"class_name": "L2", "config": {"l2": 0.0002500000118743628}}, "bias_regularizer": null, "activity_regularizer": null, "kernel_constraint": null, "bias_constraint": null}, "name": "conv2d_87", "inbound_nodes": [[["multiply_10", 0, 0, {}]]]}, {"class_name": "BatchNormalization", "config": {"name": "batch_normalization_134", "trainable": true, "dtype": {"class_name": "Policy", "config": {"name": "mixed_float16"}}, "axis": [3], "momentum": 0.9, "epsilon": 1e-05, "center": true, "scale": true, "beta_initializer": {"class_name": "Zeros", "config": {}}, "gamma_initializer": {"class_name": "Ones", "config": {}}, "moving_mean_initializer": {"class_name": "Zeros", "config": {}}, "moving_variance_initializer": {"class_name": "Ones", "config": {}}, "beta_regularizer": null, "gamma_regularizer": null, "beta_constraint": null, "gamma_constraint": null}, "name": "batch_normalization_134", "inbound_nodes": [[["conv2d_87", 0, 0, {}]]]}, {"class_name": "DepthwiseConv2D", "config": {"name": "depthwise_conv2d_69", "trainable": true, "dtype": {"class_name": "Policy", "config": {"name": "mixed_float16"}}, "kernel_size": [3, 3], "strides": [1, 1], "padding": "same", "data_format": "channels_last", "dilation_rate": [1, 1], "groups": 1, "activation": "linear", "use_bias": false, "bias_initializer": {"class_name": "Zeros", "config": {}}, "bias_regularizer": null, "activity_regularizer": null, "bias_constraint": null, "depth_multiplier": 1, "depthwise_initializer": {"class_name": "VarianceScaling", "config": {"scale": 2.0, "mode": "fan_out", "distribution": "truncated_normal", "seed": null}}, "depthwise_regularizer": {"class_name": "L2", "config": {"l2": 0.0002500000118743628}}, "depthwise_constraint": null}, "name": "depthwise_conv2d_69", "inbound_nodes": [[["batch_normalization_134", 0, 0, {}]]]}, {"class_name": "BatchNormalization", "config": {"name": "batch_normalization_135", "trainable": true, "dtype": {"class_name": "Policy", "config": {"name": "mixed_float16"}}, "axis": [3], "momentum": 0.9, "epsilon": 1e-05, "center": true, "scale": true, "beta_initializer": {"class_name": "Zeros", "config": {}}, "gamma_initializer": {"class_name": "Ones", "config": {}}, "moving_mean_initializer": {"class_name": "Zeros", "config": {}}, "moving_variance_initializer": {"class_name": "Ones", "config": {}}, "beta_regularizer": null, "gamma_regularizer": null, "beta_constraint": null, "gamma_constraint": null}, "name": "batch_normalization_135", "inbound_nodes": [[["depthwise_conv2d_69", 0, 0, {}]]]}, {"class_name": "Concatenate", "config": {"name": "concatenate_53", "trainable": true, "dtype": {"class_name": "Policy", "config": {"name": "mixed_float16"}}, "axis": -1}, "name": "concatenate_53", "inbound_nodes": [[["batch_normalization_134", 0, 0, {}], ["batch_normalization_135", 0, 0, {}]]]}, {"class_name": "Add", "config": {"name": "add_26", "trainable": true, "dtype": {"class_name": "Policy", "config": {"name": "mixed_float16"}}}, "name": "add_26", "inbound_nodes": [[["add_25", 0, 0, {}], ["concatenate_53", 0, 0, {}]]]}, {"class_name": "Conv2D", "config": {"name": "conv2d_88", "trainable": true, "dtype": {"class_name": "Policy", "config": {"name": "mixed_float16"}}, "filters": 336, "kernel_size": [1, 1], "strides": [1, 1], "padding": "same", "data_format": "channels_last", "dilation_rate": [1, 1], "groups": 1, "activation": "linear", "use_bias": false, "kernel_initializer": {"class_name": "VarianceScaling", "config": {"scale": 2.0, "mode": "fan_out", "distribution": "truncated_normal", "seed": null}}, "bias_initializer": {"class_name": "Zeros", "config": {}}, "kernel_regularizer": {"class_name": "L2", "config": {"l2": 0.0002500000118743628}}, "bias_regularizer": null, "activity_regularizer": null, "kernel_constraint": null, "bias_constraint": null}, "name": "conv2d_88", "inbound_nodes": [[["add_26", 0, 0, {}]]]}, {"class_name": "BatchNormalization", "config": {"name": "batch_normalization_136", "trainable": true, "dtype": {"class_name": "Policy", "config": {"name": "mixed_float16"}}, "axis": [3], "momentum": 0.9, "epsilon": 1e-05, "center": true, "scale": true, "beta_initializer": {"class_name": "Zeros", "config": {}}, "gamma_initializer": {"class_name": "Ones", "config": {}}, "moving_mean_initializer": {"class_name": "Zeros", "config": {}}, "moving_variance_initializer": {"class_name": "Ones", "config": {}}, "beta_regularizer": null, "gamma_regularizer": null, "beta_constraint": null, "gamma_constraint": null}, "name": "batch_normalization_136", "inbound_nodes": [[["conv2d_88", 0, 0, {}]]]}, {"class_name": "PReLU", "config": {"name": "activation_79", "trainable": true, "dtype": {"class_name": "Policy", "config": {"name": "mixed_float16"}, "shared_object_id": 13}, "alpha_initializer": {"class_name": "Constant", "config": {"value": 0.25}}, "alpha_regularizer": null, "alpha_constraint": null, "shared_axes": [1, 2]}, "name": "activation_79", "inbound_nodes": [[["batch_normalization_136", 0, 0, {}]]]}, {"class_name": "DepthwiseConv2D", "config": {"name": "depthwise_conv2d_70", "trainable": true, "dtype": {"class_name": "Policy", "config": {"name": "mixed_float16"}}, "kernel_size": [3, 3], "strides": [1, 1], "padding": "same", "data_format": "channels_last", "dilation_rate": [1, 1], "groups": 1, "activation": "linear", "use_bias": false, "bias_initializer": {"class_name": "Zeros", "config": {}}, "bias_regularizer": null, "activity_regularizer": null, "bias_constraint": null, "depth_multiplier": 1, "depthwise_initializer": {"class_name": "VarianceScaling", "config": {"scale": 2.0, "mode": "fan_out", "distribution": "truncated_normal", "seed": null}}, "depthwise_regularizer": {"class_name": "L2", "config": {"l2": 0.0002500000118743628}}, "depthwise_constraint": null}, "name": "depthwise_conv2d_70", "inbound_nodes": [[["activation_79", 0, 0, {}]]]}, {"class_name": "BatchNormalization", "config": {"name": "batch_normalization_137", "trainable": true, "dtype": {"class_name": "Policy", "config": {"name": "mixed_float16"}}, "axis": [3], "momentum": 0.9, "epsilon": 1e-05, "center": true, "scale": true, "beta_initializer": {"class_name": "Zeros", "config": {}}, "gamma_initializer": {"class_name": "Ones", "config": {}}, "moving_mean_initializer": {"class_name": "Zeros", "config": {}}, "moving_variance_initializer": {"class_name": "Ones", "config": {}}, "beta_regularizer": null, "gamma_regularizer": null, "beta_constraint": null, "gamma_constraint": null}, "name": "batch_normalization_137", "inbound_nodes": [[["depthwise_conv2d_70", 0, 0, {}]]]}, {"class_name": "PReLU", "config": {"name": "activation_80", "trainable": true, "dtype": {"class_name": "Policy", "config": {"name": "mixed_float16"}, "shared_object_id": 13}, "alpha_initializer": {"class_name": "Constant", "config": {"value": 0.25}}, "alpha_regularizer": null, "alpha_constraint": null, "shared_axes": [1, 2]}, "name": "activation_80", "inbound_nodes": [[["batch_normalization_137", 0, 0, {}]]]}, {"class_name": "Concatenate", "config": {"name": "concatenate_54", "trainable": true, "dtype": {"class_name": "Policy", "config": {"name": "mixed_float16"}}, "axis": -1}, "name": "concatenate_54", "inbound_nodes": [[["activation_79", 0, 0, {}], ["activation_80", 0, 0, {}]]]}, {"class_name": "DepthwiseConv2D", "config": {"name": "depthwise_conv2d_71", "trainable": true, "dtype": {"class_name": "Policy", "config": {"name": "mixed_float16"}}, "kernel_size": [5, 5], "strides": [2, 2], "padding": "same", "data_format": "channels_last", "dilation_rate": [1, 1], "groups": 1, "activation": "linear", "use_bias": false, "bias_initializer": {"class_name": "Zeros", "config": {}}, "bias_regularizer": null, "activity_regularizer": null, "bias_constraint": null, "depth_multiplier": 1, "depthwise_initializer": {"class_name": "VarianceScaling", "config": {"scale": 2.0, "mode": "fan_out", "distribution": "truncated_normal", "seed": null}}, "depthwise_regularizer": {"class_name": "L2", "config": {"l2": 0.0002500000118743628}}, "depthwise_constraint": null}, "name": "depthwise_conv2d_71", "inbound_nodes": [[["concatenate_54", 0, 0, {}]]]}, {"class_name": "BatchNormalization", "config": {"name": "batch_normalization_138", "trainable": true, "dtype": {"class_name": "Policy", "config": {"name": "mixed_float16"}}, "axis": [3], "momentum": 0.9, "epsilon": 1e-05, "center": true, "scale": true, "beta_initializer": {"class_name": "Zeros", "config": {}}, "gamma_initializer": {"class_name": "Ones", "config": {}}, "moving_mean_initializer": {"class_name": "Zeros", "config": {}}, "moving_variance_initializer": {"class_name": "Ones", "config": {}}, "beta_regularizer": null, "gamma_regularizer": null, "beta_constraint": null, "gamma_constraint": null}, "name": "batch_normalization_138", "inbound_nodes": [[["depthwise_conv2d_71", 0, 0, {}]]]}, {"class_name": "GlobalAveragePooling2D", "config": {"name": "global_average_pooling2d_11", "trainable": true, "dtype": {"class_name": "Policy", "config": {"name": "mixed_float16"}}, "data_format": "channels_last", "keepdims": false}, "name": "global_average_pooling2d_11", "inbound_nodes": [[["batch_normalization_138", 0, 0, {}]]]}, {"class_name": "Reshape", "config": {"name": "reshape_11", "trainable": true, "dtype": {"class_name": "Policy", "config": {"name": "mixed_float16"}}, "target_shape": [1, 1, 672]}, "name": "reshape_11", "inbound_nodes": [[["global_average_pooling2d_11", 0, 0, {}]]]}, {"class_name": "Conv2D", "config": {"name": "conv2d_89", "trainable": true, "dtype": {"class_name": "Policy", "config": {"name": "mixed_float16"}}, "filters": 168, "kernel_size": [1, 1], "strides": [1, 1], "padding": "valid", "data_format": "channels_last", "dilation_rate": [1, 1], "groups": 1, "activation": "linear", "use_bias": true, "kernel_initializer": {"class_name": "VarianceScaling", "config": {"scale": 2.0, "mode": "fan_out", "distribution": "truncated_normal", "seed": null}}, "bias_initializer": {"class_name": "Zeros", "config": {}}, "kernel_regularizer": {"class_name": "L2", "config": {"l2": 0.0002500000118743628}}, "bias_regularizer": null, "activity_regularizer": null, "kernel_constraint": null, "bias_constraint": null}, "name": "conv2d_89", "inbound_nodes": [[["reshape_11", 0, 0, {}]]]}, {"class_name": "PReLU", "config": {"name": "activation_81", "trainable": true, "dtype": {"class_name": "Policy", "config": {"name": "mixed_float16"}, "shared_object_id": 13}, "alpha_initializer": {"class_name": "Constant", "config": {"value": 0.25}}, "alpha_regularizer": null, "alpha_constraint": null, "shared_axes": [1, 2]}, "name": "activation_81", "inbound_nodes": [[["conv2d_89", 0, 0, {}]]]}, {"class_name": "Conv2D", "config": {"name": "conv2d_90", "trainable": true, "dtype": {"class_name": "Policy", "config": {"name": "mixed_float16"}}, "filters": 672, "kernel_size": [1, 1], "strides": [1, 1], "padding": "valid", "data_format": "channels_last", "dilation_rate": [1, 1], "groups": 1, "activation": "linear", "use_bias": true, "kernel_initializer": {"class_name": "VarianceScaling", "config": {"scale": 2.0, "mode": "fan_out", "distribution": "truncated_normal", "seed": null}}, "bias_initializer": {"class_name": "Zeros", "config": {}}, "kernel_regularizer": {"class_name": "L2", "config": {"l2": 0.0002500000118743628}}, "bias_regularizer": null, "activity_regularizer": null, "kernel_constraint": null, "bias_constraint": null}, "name": "conv2d_90", "inbound_nodes": [[["activation_81", 0, 0, {}]]]}, {"class_name": "Activation", "config": {"name": "activation_82", "trainable": true, "dtype": {"class_name": "Policy", "config": {"name": "mixed_float16"}}, "activation": "hard_sigmoid"}, "name": "activation_82", "inbound_nodes": [[["conv2d_90", 0, 0, {}]]]}, {"class_name": "Multiply", "config": {"name": "multiply_11", "trainable": true, "dtype": {"class_name": "Policy", "config": {"name": "mixed_float16"}}}, "name": "multiply_11", "inbound_nodes": [[["batch_normalization_138", 0, 0, {}], ["activation_82", 0, 0, {}]]]}, {"class_name": "Conv2D", "config": {"name": "conv2d_91", "trainable": true, "dtype": {"class_name": "Policy", "config": {"name": "mixed_float16"}}, "filters": 80, "kernel_size": [1, 1], "strides": [1, 1], "padding": "same", "data_format": "channels_last", "dilation_rate": [1, 1], "groups": 1, "activation": "linear", "use_bias": false, "kernel_initializer": {"class_name": "VarianceScaling", "config": {"scale": 2.0, "mode": "fan_out", "distribution": "truncated_normal", "seed": null}}, "bias_initializer": {"class_name": "Zeros", "config": {}}, "kernel_regularizer": {"class_name": "L2", "config": {"l2": 0.0002500000118743628}}, "bias_regularizer": null, "activity_regularizer": null, "kernel_constraint": null, "bias_constraint": null}, "name": "conv2d_91", "inbound_nodes": [[["multiply_11", 0, 0, {}]]]}, {"class_name": "DepthwiseConv2D", "config": {"name": "depthwise_conv2d_73", "trainable": true, "dtype": {"class_name": "Policy", "config": {"name": "mixed_float16"}}, "kernel_size": [5, 5], "strides": [2, 2], "padding": "same", "data_format": "channels_last", "dilation_rate": [1, 1], "groups": 1, "activation": "linear", "use_bias": false, "bias_initializer": {"class_name": "Zeros", "config": {}}, "bias_regularizer": null, "activity_regularizer": null, "bias_constraint": null, "depth_multiplier": 1, "depthwise_initializer": {"class_name": "VarianceScaling", "config": {"scale": 2.0, "mode": "fan_out", "distribution": "truncated_normal", "seed": null}}, "depthwise_regularizer": {"class_name": "L2", "config": {"l2": 0.0002500000118743628}}, "depthwise_constraint": null}, "name": "depthwise_conv2d_73", "inbound_nodes": [[["add_26", 0, 0, {}]]]}, {"class_name": "BatchNormalization", "config": {"name": "batch_normalization_139", "trainable": true, "dtype": {"class_name": "Policy", "config": {"name": "mixed_float16"}}, "axis": [3], "momentum": 0.9, "epsilon": 1e-05, "center": true, "scale": true, "beta_initializer": {"class_name": "Zeros", "config": {}}, "gamma_initializer": {"class_name": "Ones", "config": {}}, "moving_mean_initializer": {"class_name": "Zeros", "config": {}}, "moving_variance_initializer": {"class_name": "Ones", "config": {}}, "beta_regularizer": null, "gamma_regularizer": null, "beta_constraint": null, "gamma_constraint": null}, "name": "batch_normalization_139", "inbound_nodes": [[["conv2d_91", 0, 0, {}]]]}, {"class_name": "BatchNormalization", "config": {"name": "batch_normalization_141", "trainable": true, "dtype": {"class_name": "Policy", "config": {"name": "mixed_float16"}}, "axis": [3], "momentum": 0.9, "epsilon": 1e-05, "center": true, "scale": true, "beta_initializer": {"class_name": "Zeros", "config": {}}, "gamma_initializer": {"class_name": "Ones", "config": {}}, "moving_mean_initializer": {"class_name": "Zeros", "config": {}}, "moving_variance_initializer": {"class_name": "Ones", "config": {}}, "beta_regularizer": null, "gamma_regularizer": null, "beta_constraint": null, "gamma_constraint": null}, "name": "batch_normalization_141", "inbound_nodes": [[["depthwise_conv2d_73", 0, 0, {}]]]}, {"class_name": "DepthwiseConv2D", "config": {"name": "depthwise_conv2d_72", "trainable": true, "dtype": {"class_name": "Policy", "config": {"name": "mixed_float16"}}, "kernel_size": [3, 3], "strides": [1, 1], "padding": "same", "data_format": "channels_last", "dilation_rate": [1, 1], "groups": 1, "activation": "linear", "use_bias": false, "bias_initializer": {"class_name": "Zeros", "config": {}}, "bias_regularizer": null, "activity_regularizer": null, "bias_constraint": null, "depth_multiplier": 1, "depthwise_initializer": {"class_name": "VarianceScaling", "config": {"scale": 2.0, "mode": "fan_out", "distribution": "truncated_normal", "seed": null}}, "depthwise_regularizer": {"class_name": "L2", "config": {"l2": 0.0002500000118743628}}, "depthwise_constraint": null}, "name": "depthwise_conv2d_72", "inbound_nodes": [[["batch_normalization_139", 0, 0, {}]]]}, {"class_name": "Conv2D", "config": {"name": "conv2d_92", "trainable": true, "dtype": {"class_name": "Policy", "config": {"name": "mixed_float16"}}, "filters": 160, "kernel_size": [1, 1], "strides": [1, 1], "padding": "valid", "data_format": "channels_last", "dilation_rate": [1, 1], "groups": 1, "activation": "linear", "use_bias": false, "kernel_initializer": {"class_name": "VarianceScaling", "config": {"scale": 2.0, "mode": "fan_out", "distribution": "truncated_normal", "seed": null}}, "bias_initializer": {"class_name": "Zeros", "config": {}}, "kernel_regularizer": {"class_name": "L2", "config": {"l2": 0.0002500000118743628}}, "bias_regularizer": null, "activity_regularizer": null, "kernel_constraint": null, "bias_constraint": null}, "name": "conv2d_92", "inbound_nodes": [[["batch_normalization_141", 0, 0, {}]]]}, {"class_name": "BatchNormalization", "config": {"name": "batch_normalization_140", "trainable": true, "dtype": {"class_name": "Policy", "config": {"name": "mixed_float16"}}, "axis": [3], "momentum": 0.9, "epsilon": 1e-05, "center": true, "scale": true, "beta_initializer": {"class_name": "Zeros", "config": {}}, "gamma_initializer": {"class_name": "Ones", "config": {}}, "moving_mean_initializer": {"class_name": "Zeros", "config": {}}, "moving_variance_initializer": {"class_name": "Ones", "config": {}}, "beta_regularizer": null, "gamma_regularizer": null, "beta_constraint": null, "gamma_constraint": null}, "name": "batch_normalization_140", "inbound_nodes": [[["depthwise_conv2d_72", 0, 0, {}]]]}, {"class_name": "BatchNormalization", "config": {"name": "batch_normalization_142", "trainable": true, "dtype": {"class_name": "Policy", "config": {"name": "mixed_float16"}}, "axis": [3], "momentum": 0.9, "epsilon": 1e-05, "center": true, "scale": true, "beta_initializer": {"class_name": "Zeros", "config": {}}, "gamma_initializer": {"class_name": "Ones", "config": {}}, "moving_mean_initializer": {"class_name": "Zeros", "config": {}}, "moving_variance_initializer": {"class_name": "Ones", "config": {}}, "beta_regularizer": null, "gamma_regularizer": null, "beta_constraint": null, "gamma_constraint": null}, "name": "batch_normalization_142", "inbound_nodes": [[["conv2d_92", 0, 0, {}]]]}, {"class_name": "Concatenate", "config": {"name": "concatenate_55", "trainable": true, "dtype": {"class_name": "Policy", "config": {"name": "mixed_float16"}}, "axis": -1}, "name": "concatenate_55", "inbound_nodes": [[["batch_normalization_139", 0, 0, {}], ["batch_normalization_140", 0, 0, {}]]]}, {"class_name": "Add", "config": {"name": "add_27", "trainable": true, "dtype": {"class_name": "Policy", "config": {"name": "mixed_float16"}}}, "name": "add_27", "inbound_nodes": [[["batch_normalization_142", 0, 0, {}], ["concatenate_55", 0, 0, {}]]]}, {"class_name": "Conv2D", "config": {"name": "conv2d_93", "trainable": true, "dtype": {"class_name": "Policy", "config": {"name": "mixed_float16"}}, "filters": 480, "kernel_size": [1, 1], "strides": [1, 1], "padding": "same", "data_format": "channels_last", "dilation_rate": [1, 1], "groups": 1, "activation": "linear", "use_bias": false, "kernel_initializer": {"class_name": "VarianceScaling", "config": {"scale": 2.0, "mode": "fan_out", "distribution": "truncated_normal", "seed": null}}, "bias_initializer": {"class_name": "Zeros", "config": {}}, "kernel_regularizer": {"class_name": "L2", "config": {"l2": 0.0002500000118743628}}, "bias_regularizer": null, "activity_regularizer": null, "kernel_constraint": null, "bias_constraint": null}, "name": "conv2d_93", "inbound_nodes": [[["add_27", 0, 0, {}]]]}, {"class_name": "BatchNormalization", "config": {"name": "batch_normalization_143", "trainable": true, "dtype": {"class_name": "Policy", "config": {"name": "mixed_float16"}}, "axis": [3], "momentum": 0.9, "epsilon": 1e-05, "center": true, "scale": true, "beta_initializer": {"class_name": "Zeros", "config": {}}, "gamma_initializer": {"class_name": "Ones", "config": {}}, "moving_mean_initializer": {"class_name": "Zeros", "config": {}}, "moving_variance_initializer": {"class_name": "Ones", "config": {}}, "beta_regularizer": null, "gamma_regularizer": null, "beta_constraint": null, "gamma_constraint": null}, "name": "batch_normalization_143", "inbound_nodes": [[["conv2d_93", 0, 0, {}]]]}, {"class_name": "PReLU", "config": {"name": "activation_83", "trainable": true, "dtype": {"class_name": "Policy", "config": {"name": "mixed_float16"}, "shared_object_id": 13}, "alpha_initializer": {"class_name": "Constant", "config": {"value": 0.25}}, "alpha_regularizer": null, "alpha_constraint": null, "shared_axes": [1, 2]}, "name": "activation_83", "inbound_nodes": [[["batch_normalization_143", 0, 0, {}]]]}, {"class_name": "DepthwiseConv2D", "config": {"name": "depthwise_conv2d_74", "trainable": true, "dtype": {"class_name": "Policy", "config": {"name": "mixed_float16"}}, "kernel_size": [3, 3], "strides": [1, 1], "padding": "same", "data_format": "channels_last", "dilation_rate": [1, 1], "groups": 1, "activation": "linear", "use_bias": false, "bias_initializer": {"class_name": "Zeros", "config": {}}, "bias_regularizer": null, "activity_regularizer": null, "bias_constraint": null, "depth_multiplier": 1, "depthwise_initializer": {"class_name": "VarianceScaling", "config": {"scale": 2.0, "mode": "fan_out", "distribution": "truncated_normal", "seed": null}}, "depthwise_regularizer": {"class_name": "L2", "config": {"l2": 0.0002500000118743628}}, "depthwise_constraint": null}, "name": "depthwise_conv2d_74", "inbound_nodes": [[["activation_83", 0, 0, {}]]]}, {"class_name": "BatchNormalization", "config": {"name": "batch_normalization_144", "trainable": true, "dtype": {"class_name": "Policy", "config": {"name": "mixed_float16"}}, "axis": [3], "momentum": 0.9, "epsilon": 1e-05, "center": true, "scale": true, "beta_initializer": {"class_name": "Zeros", "config": {}}, "gamma_initializer": {"class_name": "Ones", "config": {}}, "moving_mean_initializer": {"class_name": "Zeros", "config": {}}, "moving_variance_initializer": {"class_name": "Ones", "config": {}}, "beta_regularizer": null, "gamma_regularizer": null, "beta_constraint": null, "gamma_constraint": null}, "name": "batch_normalization_144", "inbound_nodes": [[["depthwise_conv2d_74", 0, 0, {}]]]}, {"class_name": "PReLU", "config": {"name": "activation_84", "trainable": true, "dtype": {"class_name": "Policy", "config": {"name": "mixed_float16"}, "shared_object_id": 13}, "alpha_initializer": {"class_name": "Constant", "config": {"value": 0.25}}, "alpha_regularizer": null, "alpha_constraint": null, "shared_axes": [1, 2]}, "name": "activation_84", "inbound_nodes": [[["batch_normalization_144", 0, 0, {}]]]}, {"class_name": "Concatenate", "config": {"name": "concatenate_56", "trainable": true, "dtype": {"class_name": "Policy", "config": {"name": "mixed_float16"}}, "axis": -1}, "name": "concatenate_56", "inbound_nodes": [[["activation_83", 0, 0, {}], ["activation_84", 0, 0, {}]]]}, {"class_name": "Conv2D", "config": {"name": "conv2d_94", "trainable": true, "dtype": {"class_name": "Policy", "config": {"name": "mixed_float16"}}, "filters": 80, "kernel_size": [1, 1], "strides": [1, 1], "padding": "same", "data_format": "channels_last", "dilation_rate": [1, 1], "groups": 1, "activation": "linear", "use_bias": false, "kernel_initializer": {"class_name": "VarianceScaling", "config": {"scale": 2.0, "mode": "fan_out", "distribution": "truncated_normal", "seed": null}}, "bias_initializer": {"class_name": "Zeros", "config": {}}, "kernel_regularizer": {"class_name": "L2", "config": {"l2": 0.0002500000118743628}}, "bias_regularizer": null, "activity_regularizer": null, "kernel_constraint": null, "bias_constraint": null}, "name": "conv2d_94", "inbound_nodes": [[["concatenate_56", 0, 0, {}]]]}, {"class_name": "BatchNormalization", "config": {"name": "batch_normalization_145", "trainable": true, "dtype": {"class_name": "Policy", "config": {"name": "mixed_float16"}}, "axis": [3], "momentum": 0.9, "epsilon": 1e-05, "center": true, "scale": true, "beta_initializer": {"class_name": "Zeros", "config": {}}, "gamma_initializer": {"class_name": "Ones", "config": {}}, "moving_mean_initializer": {"class_name": "Zeros", "config": {}}, "moving_variance_initializer": {"class_name": "Ones", "config": {}}, "beta_regularizer": null, "gamma_regularizer": null, "beta_constraint": null, "gamma_constraint": null}, "name": "batch_normalization_145", "inbound_nodes": [[["conv2d_94", 0, 0, {}]]]}, {"class_name": "DepthwiseConv2D", "config": {"name": "depthwise_conv2d_75", "trainable": true, "dtype": {"class_name": "Policy", "config": {"name": "mixed_float16"}}, "kernel_size": [3, 3], "strides": [1, 1], "padding": "same", "data_format": "channels_last", "dilation_rate": [1, 1], "groups": 1, "activation": "linear", "use_bias": false, "bias_initializer": {"class_name": "Zeros", "config": {}}, "bias_regularizer": null, "activity_regularizer": null, "bias_constraint": null, "depth_multiplier": 1, "depthwise_initializer": {"class_name": "VarianceScaling", "config": {"scale": 2.0, "mode": "fan_out", "distribution": "truncated_normal", "seed": null}}, "depthwise_regularizer": {"class_name": "L2", "config": {"l2": 0.0002500000118743628}}, "depthwise_constraint": null}, "name": "depthwise_conv2d_75", "inbound_nodes": [[["batch_normalization_145", 0, 0, {}]]]}, {"class_name": "BatchNormalization", "config": {"name": "batch_normalization_146", "trainable": true, "dtype": {"class_name": "Policy", "config": {"name": "mixed_float16"}}, "axis": [3], "momentum": 0.9, "epsilon": 1e-05, "center": true, "scale": true, "beta_initializer": {"class_name": "Zeros", "config": {}}, "gamma_initializer": {"class_name": "Ones", "config": {}}, "moving_mean_initializer": {"class_name": "Zeros", "config": {}}, "moving_variance_initializer": {"class_name": "Ones", "config": {}}, "beta_regularizer": null, "gamma_regularizer": null, "beta_constraint": null, "gamma_constraint": null}, "name": "batch_normalization_146", "inbound_nodes": [[["depthwise_conv2d_75", 0, 0, {}]]]}, {"class_name": "Concatenate", "config": {"name": "concatenate_57", "trainable": true, "dtype": {"class_name": "Policy", "config": {"name": "mixed_float16"}}, "axis": -1}, "name": "concatenate_57", "inbound_nodes": [[["batch_normalization_145", 0, 0, {}], ["batch_normalization_146", 0, 0, {}]]]}, {"class_name": "Add", "config": {"name": "add_28", "trainable": true, "dtype": {"class_name": "Policy", "config": {"name": "mixed_float16"}}}, "name": "add_28", "inbound_nodes": [[["add_27", 0, 0, {}], ["concatenate_57", 0, 0, {}]]]}, {"class_name": "Conv2D", "config": {"name": "conv2d_95", "trainable": true, "dtype": {"class_name": "Policy", "config": {"name": "mixed_float16"}}, "filters": 480, "kernel_size": [1, 1], "strides": [1, 1], "padding": "same", "data_format": "channels_last", "dilation_rate": [1, 1], "groups": 1, "activation": "linear", "use_bias": false, "kernel_initializer": {"class_name": "VarianceScaling", "config": {"scale": 2.0, "mode": "fan_out", "distribution": "truncated_normal", "seed": null}}, "bias_initializer": {"class_name": "Zeros", "config": {}}, "kernel_regularizer": {"class_name": "L2", "config": {"l2": 0.0002500000118743628}}, "bias_regularizer": null, "activity_regularizer": null, "kernel_constraint": null, "bias_constraint": null}, "name": "conv2d_95", "inbound_nodes": [[["add_28", 0, 0, {}]]]}, {"class_name": "BatchNormalization", "config": {"name": "batch_normalization_147", "trainable": true, "dtype": {"class_name": "Policy", "config": {"name": "mixed_float16"}}, "axis": [3], "momentum": 0.9, "epsilon": 1e-05, "center": true, "scale": true, "beta_initializer": {"class_name": "Zeros", "config": {}}, "gamma_initializer": {"class_name": "Ones", "config": {}}, "moving_mean_initializer": {"class_name": "Zeros", "config": {}}, "moving_variance_initializer": {"class_name": "Ones", "config": {}}, "beta_regularizer": null, "gamma_regularizer": null, "beta_constraint": null, "gamma_constraint": null}, "name": "batch_normalization_147", "inbound_nodes": [[["conv2d_95", 0, 0, {}]]]}, {"class_name": "PReLU", "config": {"name": "activation_85", "trainable": true, "dtype": {"class_name": "Policy", "config": {"name": "mixed_float16"}, "shared_object_id": 13}, "alpha_initializer": {"class_name": "Constant", "config": {"value": 0.25}}, "alpha_regularizer": null, "alpha_constraint": null, "shared_axes": [1, 2]}, "name": "activation_85", "inbound_nodes": [[["batch_normalization_147", 0, 0, {}]]]}, {"class_name": "DepthwiseConv2D", "config": {"name": "depthwise_conv2d_76", "trainable": true, "dtype": {"class_name": "Policy", "config": {"name": "mixed_float16"}}, "kernel_size": [3, 3], "strides": [1, 1], "padding": "same", "data_format": "channels_last", "dilation_rate": [1, 1], "groups": 1, "activation": "linear", "use_bias": false, "bias_initializer": {"class_name": "Zeros", "config": {}}, "bias_regularizer": null, "activity_regularizer": null, "bias_constraint": null, "depth_multiplier": 1, "depthwise_initializer": {"class_name": "VarianceScaling", "config": {"scale": 2.0, "mode": "fan_out", "distribution": "truncated_normal", "seed": null}}, "depthwise_regularizer": {"class_name": "L2", "config": {"l2": 0.0002500000118743628}}, "depthwise_constraint": null}, "name": "depthwise_conv2d_76", "inbound_nodes": [[["activation_85", 0, 0, {}]]]}, {"class_name": "BatchNormalization", "config": {"name": "batch_normalization_148", "trainable": true, "dtype": {"class_name": "Policy", "config": {"name": "mixed_float16"}}, "axis": [3], "momentum": 0.9, "epsilon": 1e-05, "center": true, "scale": true, "beta_initializer": {"class_name": "Zeros", "config": {}}, "gamma_initializer": {"class_name": "Ones", "config": {}}, "moving_mean_initializer": {"class_name": "Zeros", "config": {}}, "moving_variance_initializer": {"class_name": "Ones", "config": {}}, "beta_regularizer": null, "gamma_regularizer": null, "beta_constraint": null, "gamma_constraint": null}, "name": "batch_normalization_148", "inbound_nodes": [[["depthwise_conv2d_76", 0, 0, {}]]]}, {"class_name": "PReLU", "config": {"name": "activation_86", "trainable": true, "dtype": {"class_name": "Policy", "config": {"name": "mixed_float16"}, "shared_object_id": 13}, "alpha_initializer": {"class_name": "Constant", "config": {"value": 0.25}}, "alpha_regularizer": null, "alpha_constraint": null, "shared_axes": [1, 2]}, "name": "activation_86", "inbound_nodes": [[["batch_normalization_148", 0, 0, {}]]]}, {"class_name": "Concatenate", "config": {"name": "concatenate_58", "trainable": true, "dtype": {"class_name": "Policy", "config": {"name": "mixed_float16"}}, "axis": -1}, "name": "concatenate_58", "inbound_nodes": [[["activation_85", 0, 0, {}], ["activation_86", 0, 0, {}]]]}, {"class_name": "GlobalAveragePooling2D", "config": {"name": "global_average_pooling2d_12", "trainable": true, "dtype": {"class_name": "Policy", "config": {"name": "mixed_float16"}}, "data_format": "channels_last", "keepdims": false}, "name": "global_average_pooling2d_12", "inbound_nodes": [[["concatenate_58", 0, 0, {}]]]}, {"class_name": "Reshape", "config": {"name": "reshape_12", "trainable": true, "dtype": {"class_name": "Policy", "config": {"name": "mixed_float16"}}, "target_shape": [1, 1, 960]}, "name": "reshape_12", "inbound_nodes": [[["global_average_pooling2d_12", 0, 0, {}]]]}, {"class_name": "Conv2D", "config": {"name": "conv2d_96", "trainable": true, "dtype": {"class_name": "Policy", "config": {"name": "mixed_float16"}}, "filters": 240, "kernel_size": [1, 1], "strides": [1, 1], "padding": "valid", "data_format": "channels_last", "dilation_rate": [1, 1], "groups": 1, "activation": "linear", "use_bias": true, "kernel_initializer": {"class_name": "VarianceScaling", "config": {"scale": 2.0, "mode": "fan_out", "distribution": "truncated_normal", "seed": null}}, "bias_initializer": {"class_name": "Zeros", "config": {}}, "kernel_regularizer": {"class_name": "L2", "config": {"l2": 0.0002500000118743628}}, "bias_regularizer": null, "activity_regularizer": null, "kernel_constraint": null, "bias_constraint": null}, "name": "conv2d_96", "inbound_nodes": [[["reshape_12", 0, 0, {}]]]}, {"class_name": "PReLU", "config": {"name": "activation_87", "trainable": true, "dtype": {"class_name": "Policy", "config": {"name": "mixed_float16"}, "shared_object_id": 13}, "alpha_initializer": {"class_name": "Constant", "config": {"value": 0.25}}, "alpha_regularizer": null, "alpha_constraint": null, "shared_axes": [1, 2]}, "name": "activation_87", "inbound_nodes": [[["conv2d_96", 0, 0, {}]]]}, {"class_name": "Conv2D", "config": {"name": "conv2d_97", "trainable": true, "dtype": {"class_name": "Policy", "config": {"name": "mixed_float16"}}, "filters": 960, "kernel_size": [1, 1], "strides": [1, 1], "padding": "valid", "data_format": "channels_last", "dilation_rate": [1, 1], "groups": 1, "activation": "linear", "use_bias": true, "kernel_initializer": {"class_name": "VarianceScaling", "config": {"scale": 2.0, "mode": "fan_out", "distribution": "truncated_normal", "seed": null}}, "bias_initializer": {"class_name": "Zeros", "config": {}}, "kernel_regularizer": {"class_name": "L2", "config": {"l2": 0.0002500000118743628}}, "bias_regularizer": null, "activity_regularizer": null, "kernel_constraint": null, "bias_constraint": null}, "name": "conv2d_97", "inbound_nodes": [[["activation_87", 0, 0, {}]]]}, {"class_name": "Activation", "config": {"name": "activation_88", "trainable": true, "dtype": {"class_name": "Policy", "config": {"name": "mixed_float16"}}, "activation": "hard_sigmoid"}, "name": "activation_88", "inbound_nodes": [[["conv2d_97", 0, 0, {}]]]}, {"class_name": "Multiply", "config": {"name": "multiply_12", "trainable": true, "dtype": {"class_name": "Policy", "config": {"name": "mixed_float16"}}}, "name": "multiply_12", "inbound_nodes": [[["concatenate_58", 0, 0, {}], ["activation_88", 0, 0, {}]]]}, {"class_name": "Conv2D", "config": {"name": "conv2d_98", "trainable": true, "dtype": {"class_name": "Policy", "config": {"name": "mixed_float16"}}, "filters": 80, "kernel_size": [1, 1], "strides": [1, 1], "padding": "same", "data_format": "channels_last", "dilation_rate": [1, 1], "groups": 1, "activation": "linear", "use_bias": false, "kernel_initializer": {"class_name": "VarianceScaling", "config": {"scale": 2.0, "mode": "fan_out", "distribution": "truncated_normal", "seed": null}}, "bias_initializer": {"class_name": "Zeros", "config": {}}, "kernel_regularizer": {"class_name": "L2", "config": {"l2": 0.0002500000118743628}}, "bias_regularizer": null, "activity_regularizer": null, "kernel_constraint": null, "bias_constraint": null}, "name": "conv2d_98", "inbound_nodes": [[["multiply_12", 0, 0, {}]]]}, {"class_name": "BatchNormalization", "config": {"name": "batch_normalization_149", "trainable": true, "dtype": {"class_name": "Policy", "config": {"name": "mixed_float16"}}, "axis": [3], "momentum": 0.9, "epsilon": 1e-05, "center": true, "scale": true, "beta_initializer": {"class_name": "Zeros", "config": {}}, "gamma_initializer": {"class_name": "Ones", "config": {}}, "moving_mean_initializer": {"class_name": "Zeros", "config": {}}, "moving_variance_initializer": {"class_name": "Ones", "config": {}}, "beta_regularizer": null, "gamma_regularizer": null, "beta_constraint": null, "gamma_constraint": null}, "name": "batch_normalization_149", "inbound_nodes": [[["conv2d_98", 0, 0, {}]]]}, {"class_name": "DepthwiseConv2D", "config": {"name": "depthwise_conv2d_77", "trainable": true, "dtype": {"class_name": "Policy", "config": {"name": "mixed_float16"}}, "kernel_size": [3, 3], "strides": [1, 1], "padding": "same", "data_format": "channels_last", "dilation_rate": [1, 1], "groups": 1, "activation":…
as": true, "kernel_initializer": {"class_name": "VarianceScaling", "config": {"scale": 2.0, "mode": "fan_out", "distribution": "truncated_normal", "seed": null}}, "bias_initializer": {"class_name": "Zeros", "config": {}}, "kernel_regularizer": {"class_name": "L2", "config": {"l2": 0.0002500000118743628}}, "bias_regularizer": null, "activity_regularizer": null, "kernel_constraint": null, "bias_constraint": null}, "name": "conv2d_102", "inbound_nodes": [[["reshape_13", 0, 0, {}]]]}, {"class_name": "PReLU", "config": {"name": "activation_93", "trainable": true, "dtype": {"class_name": "Policy", "config": {"name": "mixed_float16"}, "shared_object_id": 13}, "alpha_initializer": {"class_name": "Constant", "config": {"value": 0.25}}, "alpha_regularizer": null, "alpha_constraint": null, "shared_axes": [1, 2]}, "name": "activation_93", "inbound_nodes": [[["conv2d_102", 0, 0, {}]]]}, {"class_name": "Conv2D", "config": {"name": "conv2d_103", "trainable": true, "dtype": {"class_name": "Policy", "config": {"name": "mixed_float16"}}, "filters": 512, "kernel_size": [1, 1], "strides": [1, 1], "padding": "valid", "data_format": "channels_last", "dilation_rate": [1, 1], "groups": 1, "activation": "linear", "use_bias": true, "kernel_initializer": {"class_name": "VarianceScaling", "config": {"scale": 2.0, "mode": "fan_out", "distribution": "truncated_normal", "seed": null}}, "bias_initializer": {"class_name": "Zeros", "config": {}}, "kernel_regularizer": {"class_name": "L2", "config": {"l2": 0.0002500000118743628}}, "bias_regularizer": null, "activity_regularizer": null, "kernel_constraint": null, "bias_constraint": null}, "name": "conv2d_103", "inbound_nodes": [[["activation_93", 0, 0, {}]]]}, {"class_name": "Activation", "config": {"name": "activation_94", "trainable": true, "dtype": {"class_name": "Policy", "config": {"name": "mixed_float16"}}, "activation": "hard_sigmoid"}, "name": "activation_94", "inbound_nodes": [[["conv2d_103", 0, 0, {}]]]}, {"class_name": "Multiply", "config": {"name": "multiply_13", "trainable": true, "dtype": {"class_name": "Policy", "config": {"name": "mixed_float16"}}}, "name": "multiply_13", "inbound_nodes": [[["concatenate_62", 0, 0, {}], ["activation_94", 0, 0, {}]]]}, {"class_name": "Conv2D", "config": {"name": "conv2d_104", "trainable": true, "dtype": {"class_name": "Policy", "config": {"name": "mixed_float16"}}, "filters": 80, "kernel_size": [1, 1], "strides": [1, 1], "padding": "same", "data_format": "channels_last", "dilation_rate": [1, 1], "groups": 1, "activation": "linear", "use_bias": false, "kernel_initializer": {"class_name": "VarianceScaling", "config": {"scale": 2.0, "mode": "fan_out", "distribution": "truncated_normal", "seed": null}}, "bias_initializer": {"class_name": "Zeros", "config": {}}, "kernel_regularizer": {"class_name": "L2", "config": {"l2": 0.0002500000118743628}}, "bias_regularizer": null, "activity_regularizer": null, "kernel_constraint": null, "bias_constraint": null}, "name": "conv2d_104", "inbound_nodes": [[["multiply_13", 0, 0, {}]]]}, {"class_name": "BatchNormalization", "config": {"name": "batch_normalization_157", "trainable": true, "dtype": {"class_name": "Policy", "config": {"name": "mixed_float16"}}, "axis": [3], "momentum": 0.9, "epsilon": 1e-05, "center": true, "scale": true, "beta_initializer": {"class_name": "Zeros", "config": {}}, "gamma_initializer": {"class_name": "Ones", "config": {}}, "moving_mean_initializer": {"class_name": "Zeros", "config": {}}, "moving_variance_initializer": {"class_name": "Ones", "config": {}}, "beta_regularizer": null, "gamma_regularizer": null, "beta_constraint": null, "gamma_constraint": null}, "name": "batch_normalization_157", "inbound_nodes": [[["conv2d_104", 0, 0, {}]]]}, {"class_name": "DepthwiseConv2D", "config": {"name": "depthwise_conv2d_81", "trainable": true, "dtype": {"class_name": "Policy", "config": {"name": "mixed_float16"}}, "kernel_size": [3, 3], "strides": [1, 1], "padding": "same", "data_format": "channels_last", "dilation_rate": [1, 1], "groups": 1, "activation": "linear", "use_bias": false, "bias_initializer": {"class_name": "Zeros", "config": {}}, "bias_regularizer": null, "activity_regularizer": null, "bias_constraint": null, "depth_multiplier": 1, "depthwise_initializer": {"class_name": "VarianceScaling", "config": {"scale": 2.0, "mode": "fan_out", "distribution": "truncated_normal", "seed": null}}, "depthwise_regularizer": {"class_name": "L2", "config": {"l2": 0.0002500000118743628}}, "depthwise_constraint": null}, "name": "depthwise_conv2d_81", "inbound_nodes": [[["batch_normalization_157", 0, 0, {}]]]}, {"class_name": "BatchNormalization", "config": {"name": "batch_normalization_158", "trainable": true, "dtype": {"class_name": "Policy", "config": {"name": "mixed_float16"}}, "axis": [3], "momentum": 0.9, "epsilon": 1e-05, "center": true, "scale": true, "beta_initializer": {"class_name": "Zeros", "config": {}}, "gamma_initializer": {"class_name": "Ones", "config": {}}, "moving_mean_initializer": {"class_name": "Zeros", "config": {}}, "moving_variance_initializer": {"class_name": "Ones", "config": {}}, "beta_regularizer": null, "gamma_regularizer": null, "beta_constraint": null, "gamma_constraint": null}, "name": "batch_normalization_158", "inbound_nodes": [[["depthwise_conv2d_81", 0, 0, {}]]]}, {"class_name": "Concatenate", "config": {"name": "concatenate_63", "trainable": true, "dtype": {"class_name": "Policy", "config": {"name": "mixed_float16"}}, "axis": -1}, "name": "concatenate_63", "inbound_nodes": [[["batch_normalization_157", 0, 0, {}], ["batch_normalization_158", 0, 0, {}]]]}, {"class_name": "Add", "config": {"name": "add_31", "trainable": true, "dtype": {"class_name": "Policy", "config": {"name": "mixed_float16"}}}, "name": "add_31", "inbound_nodes": [[["add_30", 0, 0, {}], ["concatenate_63", 0, 0, {}]]]}, {"class_name": "Conv2D", "config": {"name": "conv2d_105", "trainable": true, "dtype": {"class_name": "Policy", "config": {"name": "mixed_float16"}}, "filters": 512, "kernel_size": [1, 1], "strides": [1, 1], "padding": "valid", "data_format": "channels_last", "dilation_rate": [1, 1], "groups": 1, "activation": "linear", "use_bias": false, "kernel_initializer": {"class_name": "VarianceScaling", "config": {"scale": 2.0, "mode": "fan_out", "distribution": "truncated_normal", "seed": null}}, "bias_initializer": {"class_name": "Zeros", "config": {}}, "kernel_regularizer": {"class_name": "L2", "config": {"l2": 0.0002500000118743628}}, "bias_regularizer": null, "activity_regularizer": null, "kernel_constraint": null, "bias_constraint": null}, "name": "conv2d_105", "inbound_nodes": [[["add_31", 0, 0, {}]]]}, {"class_name": "BatchNormalization", "config": {"name": "batch_normalization_159", "trainable": true, "dtype": {"class_name": "Policy", "config": {"name": "mixed_float16"}}, "axis": [3], "momentum": 0.9, "epsilon": 1e-05, "center": true, "scale": true, "beta_initializer": {"class_name": "Zeros", "config": {}}, "gamma_initializer": {"class_name": "Ones", "config": {}}, "moving_mean_initializer": {"class_name": "Zeros", "config": {}}, "moving_variance_initializer": {"class_name": "Ones", "config": {}}, "beta_regularizer": null, "gamma_regularizer": null, "beta_constraint": null, "gamma_constraint": null}, "name": "batch_normalization_159", "inbound_nodes": [[["conv2d_105", 0, 0, {}]]]}, {"class_name": "PReLU", "config": {"name": "activation_95", "trainable": true, "dtype": {"class_name": "Policy", "config": {"name": "mixed_float16"}, "shared_object_id": 13}, "alpha_initializer": {"class_name": "Constant", "config": {"value": 0.25}}, "alpha_regularizer": null, "alpha_constraint": null, "shared_axes": [1, 2]}, "name": "activation_95", "inbound_nodes": [[["batch_normalization_159", 0, 0, {}]]]}, {"class_name": "DepthwiseConv2D", "config": {"name": "GDC_dw", "trainable": true, "dtype": {"class_name": "Policy", "config": {"name": "mixed_float16"}}, "kernel_size": [4, 4], "strides": [1, 1], "padding": "valid", "data_format": "channels_last", "dilation_rate": [1, 1], "groups": 1, "activation": "linear", "use_bias": false, "bias_initializer": {"class_name": "Zeros", "config": {}}, "bias_regularizer": null, "activity_regularizer": null, "bias_constraint": null, "depth_multiplier": 1, "depthwise_initializer": {"class_name": "GlorotUniform", "config": {"seed": null}}, "depthwise_regularizer": {"class_name": "L2", "config": {"l2": 0.0002500000118743628}}, "depthwise_constraint": null}, "name": "GDC_dw", "inbound_nodes": [[["activation_95", 0, 0, {}]]]}, {"class_name": "BatchNormalization", "config": {"name": "GDC_batchnorm", "trainable": true, "dtype": {"class_name": "Policy", "config": {"name": "mixed_float16"}}, "axis": [3], "momentum": 0.9, "epsilon": 1e-05, "center": true, "scale": true, "beta_initializer": {"class_name": "Zeros", "config": {}}, "gamma_initializer": {"class_name": "Ones", "config": {}}, "moving_mean_initializer": {"class_name": "Zeros", "config": {}}, "moving_variance_initializer": {"class_name": "Ones", "config": {}}, "beta_regularizer": null, "gamma_regularizer": null, "beta_constraint": null, "gamma_constraint": null}, "name": "GDC_batchnorm", "inbound_nodes": [[["GDC_dw", 0, 0, {}]]]}, {"class_name": "Conv2D", "config": {"name": "GDC_conv", "trainable": true, "dtype": {"class_name": "Policy", "config": {"name": "mixed_float16"}}, "filters": 512, "kernel_size": [1, 1], "strides": [1, 1], "padding": "valid", "data_format": "channels_last", "dilation_rate": [1, 1], "groups": 1, "activation": "linear", "use_bias": false, "kernel_initializer": {"class_name": "GlorotNormal", "config": {"seed": null}}, "bias_initializer": {"class_name": "Zeros", "config": {}}, "kernel_regularizer": {"class_name": "L2", "config": {"l2": 0.0002500000118743628}}, "bias_regularizer": null, "activity_regularizer": null, "kernel_constraint": null, "bias_constraint": null}, "name": "GDC_conv", "inbound_nodes": [[["GDC_batchnorm", 0, 0, {}]]]}, {"class_name": "Flatten", "config": {"name": "GDC_flatten", "trainable": true, "dtype": {"class_name": "Policy", "config": {"name": "mixed_float16"}}, "data_format": "channels_last"}, "name": "GDC_flatten", "inbound_nodes": [[["GDC_conv", 0, 0, {}]]]}, {"class_name": "BatchNormalization", "config": {"name": "pre_embedding", "trainable": true, "dtype": {"class_name": "Policy", "config": {"name": "mixed_float16"}}, "axis": [1], "momentum": 0.9, "epsilon": 1e-05, "center": true, "scale": true, "beta_initializer": {"class_name": "Zeros", "config": {}}, "gamma_initializer": {"class_name": "Ones", "config": {}}, "moving_mean_initializer": {"class_name": "Zeros", "config": {}}, "moving_variance_initializer": {"class_name": "Ones", "config": {}}, "beta_regularizer": null, "gamma_regularizer": null, "beta_constraint": null, "gamma_constraint": null}, "name": "pre_embedding", "inbound_nodes": [[["GDC_flatten", 0, 0, {}]]]}, {"class_name": "Activation", "config": {"name": "embedding", "trainable": true, "dtype": "float32", "activation": "linear"}, "name": "embedding", "inbound_nodes": [[["pre_embedding", 0, 0, {}]]]}], "input_layers": [["input_4", 0, 0]], "output_layers": [["embedding", 0, 0]]}}}, "weightsManifest": [{"paths": ["group1-shard1of3.bin", "group1-shard2of3.bin", "group1-shard3of3.bin"], "weights": [{"name": "GDC_batchnorm/gamma", "shape": [512], "dtype": "float32"}, {"name": "GDC_batchnorm/beta", "shape": [512], "dtype": "float32"}, {"name": "GDC_batchnorm/moving_mean", "shape": [512], "dtype": "float32"}, {"name": "GDC_batchnorm/moving_variance", "shape": [512], "dtype": "float32"}, {"name": "GDC_conv/kernel", "shape": [1, 1, 512, 512], "dtype": "float32"}, {"name": "GDC_dw/depthwise_kernel", "shape": [4, 4, 512, 1], "dtype": "float32"}, {"name": "activation_48/alpha", "shape": [1, 1, 16], "dtype": "float32"}, {"name": "activation_49/alpha", "shape": [1, 1, 8], "dtype": "float32"}, {"name": "activation_50/alpha", "shape": [1, 1, 8], "dtype": "float32"}, {"name": "activation_51/alpha", "shape": [1, 1, 24], "dtype": "float32"}, {"name": "activation_52/alpha", "shape": [1, 1, 24], "dtype": "float32"}, {"name": "activation_53/alpha", "shape": [1, 1, 36], "dtype": "float32"}, {"name": "activation_54/alpha", "shape": [1, 1, 36], "dtype": "float32"}, {"name": "activation_55/alpha", "shape": [1, 1, 36], "dtype": "float32"}, {"name": "activation_56/alpha", "shape": [1, 1, 36], "dtype": "float32"}, {"name": "activation_57/alpha", "shape": [1, 1, 20], "dtype": "float32"}, {"name": "activation_59/alpha", "shape": [1, 1, 60], "dtype": "float32"}, {"name": "activation_60/alpha", "shape": [1, 1, 60], "dtype": "float32"}, {"name": "activation_61/alpha", "shape": [1, 1, 32], "dtype": "float32"}, {"name": "activation_63/alpha", "shape": [1, 1, 120], "dtype": "float32"}, {"name": "activation_64/alpha", "shape": [1, 1, 120], "dtype": "float32"}, {"name": "activation_65/alpha", "shape": [1, 1, 100], "dtype": "float32"}, {"name": "activation_66/alpha", "shape": [1, 1, 100], "dtype": "float32"}, {"name": "activation_67/alpha", "shape": [1, 1, 92], "dtype": "float32"}, {"name": "activation_68/alpha", "shape": [1, 1, 92], "dtype": "float32"}, {"name": "activation_69/alpha", "shape": [1, 1, 92], "dtype": "float32"}, {"name": "activation_70/alpha", "shape": [1, 1, 92], "dtype": "float32"}, {"name": "activation_71/alpha", "shape": [1, 1, 240], "dtype": "float32"}, {"name": "activation_72/alpha", "shape": [1, 1, 240], "dtype": "float32"}, {"name": "activation_73/alpha", "shape": [1, 1, 120], "dtype": "float32"}, {"name": "activation_75/alpha", "shape": [1, 1, 336], "dtype": "float32"}, {"name": "activation_76/alpha", "shape": [1, 1, 336], "dtype": "float32"}, {"name": "activation_77/alpha", "shape": [1, 1, 168], "dtype": "float32"}, {"name": "activation_79/alpha", "shape": [1, 1, 336], "dtype": "float32"}, {"name": "activation_80/alpha", "shape": [1, 1, 336], "dtype": "float32"}, {"name": "activation_81/alpha", "shape": [1, 1, 168], "dtype": "float32"}, {"name": "activation_83/alpha", "shape": [1, 1, 480], "dtype": "float32"}, {"name": "activation_84/alpha", "shape": [1, 1, 480], "dtype": "float32"}, {"name": "activation_85/alpha", "shape": [1, 1, 480], "dtype": "float32"}, {"name": "activation_86/alpha", "shape": [1, 1, 480], "dtype": "float32"}, {"name": "activation_87/alpha", "shape": [1, 1, 240], "dtype": "float32"}, {"name": "activation_89/alpha", "shape": [1, 1, 480], "dtype": "float32"}, {"name": "activation_90/alpha", "shape": [1, 1, 480], "dtype": "float32"}, {"name": "activation_91/alpha", "shape": [1, 1, 256], "dtype": "float32"}, {"name": "activation_92/alpha", "shape": [1, 1, 256], "dtype": "float32"}, {"name": "activation_93/alpha", "shape": [1, 1, 128], "dtype": "float32"}, {"name": "activation_95/alpha", "shape": [1, 1, 512], "dtype": "float32"}, {"name": "batch_normalization_100/gamma", "shape": [20], "dtype": "float32"}, {"name": "batch_normalization_100/beta", "shape": [20], "dtype": "float32"}, {"name": "batch_normalization_100/moving_mean", "shape": [20], "dtype": "float32"}, {"name": "batch_normalization_100/moving_variance", "shape": [20], "dtype": "float32"}, {"name": "batch_normalization_101/gamma", "shape": [24], "dtype": "float32"}, {"name": "batch_normalization_101/beta", "shape": [24], "dtype": "float32"}, {"name": "batch_normalization_101/moving_mean", "shape": [24], "dtype": "float32"}, {"name": "batch_normalization_101/moving_variance", "shape": [24], "dtype": "float32"}, {"name": "batch_normalization_102/gamma", "shape": [40], "dtype": "float32"}, {"name": "batch_normalization_102/beta", "shape": [40], "dtype": "float32"}, {"name": "batch_normalization_102/moving_mean", "shape": [40], "dtype": "float32"}, {"name": "batch_normalization_102/moving_variance", "shape": [40], "dtype": "float32"}, {"name": "batch_normalization_103/gamma", "shape": [60], "dtype": "float32"}, {"name": "batch_normalization_103/beta", "shape": [60], "dtype": "float32"}, {"name": "batch_normalization_103/moving_mean", "shape": [60], "dtype": "float32"}, {"name": "batch_normalization_103/moving_variance", "shape": [60], "dtype": "float32"}, {"name": "batch_normalization_104/gamma", "shape": [60], "dtype": "float32"}, {"name": "batch_normalization_104/beta", "shape": [60], "dtype": "float32"}, {"name": "batch_normalization_104/moving_mean", "shape": [60], "dtype": "float32"}, {"name": "batch_normalization_104/moving_variance", "shape": [60], "dtype": "float32"}, {"name": "batch_normalization_105/gamma", "shape": [20], "dtype": "float32"}, {"name": "batch_normalization_105/beta", "shape": [20], "dtype": "float32"}, {"name": "batch_normalization_105/moving_mean", "shape": [20], "dtype": "float32"}, {"name": "batch_normalization_105/moving_variance", "shape": [20], "dtype": "float32"}, {"name": "batch_normalization_106/gamma", "shape": [20], "dtype": "float32"}, {"name": "batch_normalization_106/beta", "shape": [20], "dtype": "float32"}, {"name": "batch_normalization_106/moving_mean", "shape": [20], "dtype": "float32"}, {"name": "batch_normalization_106/moving_variance", "shape": [20], "dtype": "float32"}, {"name": "batch_normalization_107/gamma", "shape": [120], "dtype": "float32"}, {"name": "batch_normalization_107/beta", "shape": [120], "dtype": "float32"}, {"name": "batch_normalization_107/moving_mean", "shape": [120], "dtype": "float32"}, {"name": "batch_normalization_107/moving_variance", "shape": [120], "dtype": "float32"}, {"name": "batch_normalization_108/gamma", "shape": [120], "dtype": "float32"}, {"name": "batch_normalization_108/beta", "shape": [120], "dtype": "float32"}, {"name": "batch_normalization_108/moving_mean", "shape": [120], "dtype": "float32"}, {"name": "batch_normalization_108/moving_variance", "shape": [120], "dtype": "float32"}, {"name": "batch_normalization_109/gamma", "shape": [240], "dtype": "float32"}, {"name": "batch_normalization_109/beta", "shape": [240], "dtype": "float32"}, {"name": "batch_normalization_109/moving_mean", "shape": [240], "dtype": "float32"}, {"name": "batch_normalization_109/moving_variance", "shape": [240], "dtype": "float32"}, {"name": "batch_normalization_110/gamma", "shape": [40], "dtype": "float32"}, {"name": "batch_normalization_110/beta", "shape": [40], "dtype": "float32"}, {"name": "batch_normalization_110/moving_mean", "shape": [40], "dtype": "float32"}, {"name": "batch_normalization_110/moving_variance", "shape": [40], "dtype": "float32"}, {"name": "batch_normalization_111/gamma", "shape": [40], "dtype": "float32"}, {"name": "batch_normalization_111/beta", "shape": [40], "dtype": "float32"}, {"name": "batch_normalization_111/moving_mean", "shape": [40], "dtype": "float32"}, {"name": "batch_normalization_111/moving_variance", "shape": [40], "dtype": "float32"}, {"name": "batch_normalization_112/gamma", "shape": [40], "dtype": "float32"}, {"name": "batch_normalization_112/beta", "shape": [40], "dtype": "float32"}, {"name": "batch_normalization_112/moving_mean", "shape": [40], "dtype": "float32"}, {"name": "batch_normalization_112/moving_variance", "shape": [40], "dtype": "float32"}, {"name": "batch_normalization_113/gamma", "shape": [80], "dtype": "float32"}, {"name": "batch_normalization_113/beta", "shape": [80], "dtype": "float32"}, {"name": "batch_normalization_113/moving_mean", "shape": [80], "dtype": "float32"}, {"name": "batch_normalization_113/moving_variance", "shape": [80], "dtype": "float32"}, {"name": "batch_normalization_114/gamma", "shape": [100], "dtype": "float32"}, {"name": "batch_normalization_114/beta", "shape": [100], "dtype": "float32"}, {"name": "batch_normalization_114/moving_mean", "shape": [100], "dtype": "float32"}, {"name": "batch_normalization_114/moving_variance", "shape": [100], "dtype": "float32"}, {"name": "batch_normalization_115/gamma", "shape": [100], "dtype": "float32"}, {"name": "batch_normalization_115/beta", "shape": [100], "dtype": "float32"}, {"name": "batch_normalization_115/moving_mean", "shape": [100], "dtype": "float32"}, {"name": "batch_normalization_115/moving_variance", "shape": [100], "dtype": "float32"}, {"name": "batch_normalization_116/gamma", "shape": [40], "dtype": "float32"}, {"name": "batch_normalization_116/beta", "shape": [40], "dtype": "float32"}, {"name": "batch_normalization_116/moving_mean", "shape": [40], "dtype": "float32"}, {"name": "batch_normalization_116/moving_variance", "shape": [40], "dtype": "float32"}, {"name": "batch_normalization_117/gamma", "shape": [40], "dtype": "float32"}, {"name": "batch_normalization_117/beta", "shape": [40], "dtype": "float32"}, {"name": "batch_normalization_117/moving_mean", "shape": [40], "dtype": "float32"}, {"name": "batch_normalization_117/moving_variance", "shape": [40], "dtype": "float32"}, {"name": "batch_normalization_118/gamma", "shape": [92], "dtype": "float32"}, {"name": "batch_normalization_118/beta", "shape": [92], "dtype": "float32"}, {"name": "batch_normalization_118/moving_mean", "shape": [92], "dtype": "float32"}, {"name": "batch_normalization_118/moving_variance", "shape": [92], "dtype": "float32"}, {"name": "batch_normalization_119/gamma", "shape": [92], "dtype": "float32"}, {"name": "batch_normalization_119/beta", "shape": [92], "dtype": "float32"}, {"name": "batch_normalization_119/moving_mean", "shape": [92], "dtype": "float32"}, {"name": "batch_normalization_119/moving_variance", "shape": [92], "dtype": "float32"}, {"name": "batch_normalization_120/gamma", "shape": [40], "dtype": "float32"}, {"name": "batch_normalization_120/beta", "shape": [40], "dtype": "float32"}, {"name": "batch_normalization_120/moving_mean", "shape": [40], "dtype": "float32"}, {"name": "batch_normalization_120/moving_variance", "shape": [40], "dtype": "float32"}, {"name": "batch_normalization_121/gamma", "shape": [40], "dtype": "float32"}, {"name": "batch_normalization_121/beta", "shape": [40], "dtype": "float32"}, {"name": "batch_normalization_121/moving_mean", "shape": [40], "dtype": "float32"}, {"name": "batch_normalization_121/moving_variance", "shape": [40], "dtype": "float32"}, {"name": "batch_normalization_122/gamma", "shape": [92], "dtype": "float32"}, {"name": "batch_normalization_122/beta", "shape": [92], "dtype": "float32"}, {"name": "batch_normalization_122/moving_mean", "shape": [92], "dtype": "float32"}, {"name": "batch_normalization_122/moving_variance", "shape": [92], "dtype": "float32"}, {"name": "batch_normalization_123/gamma", "shape": [92], "dtype": "float32"}, {"name": "batch_normalization_123/beta", "shape": [92], "dtype": "float32"}, {"name": "batch_normalization_123/moving_mean", "shape": [92], "dtype": "float32"}, {"name": "batch_normalization_123/moving_variance", "shape": [92], "dtype": "float32"}, {"name": "batch_normalization_124/gamma", "shape": [40], "dtype": "float32"}, {"name": "batch_normalization_124/beta", "shape": [40], "dtype": "float32"}, {"name": "batch_normalization_124/moving_mean", "shape": [40], "dtype": "float32"}, {"name": "batch_normalization_124/moving_variance", "shape": [40], "dtype": "float32"}, {"name": "batch_normalization_125/gamma", "shape": [40], "dtype": "float32"}, {"name": "batch_normalization_125/beta", "shape": [40], "dtype": "float32"}, {"name": "batch_normalization_125/moving_mean", "shape": [40], "dtype": "float32"}, {"name": "batch_normalization_125/moving_variance", "shape": [40], "dtype": "float32"}, {"name": "batch_normalization_126/gamma", "shape": [240], "dtype": "float32"}, {"name": "batch_normalization_126/beta", "shape": [240], "dtype": "float32"}, {"name": "batch_normalization_126/moving_mean", "shape": [240], "dtype": "float32"}, {"name": "batch_normalization_126/moving_variance", "shape": [240], "dtype": "float32"}, {"name": "batch_normalization_127/gamma", "shape": [240], "dtype": "float32"}, {"name": "batch_normalization_127/beta", "shape": [240], "dtype": "float32"}, {"name": "batch_normalization_127/moving_mean", "shape": [240], "dtype": "float32"}, {"name": "batch_normalization_127/moving_variance", "shape": [240], "dtype": "float32"}, {"name": "batch_normalization_128/gamma", "shape": [56], "dtype": "float32"}, {"name": "batch_normalization_128/beta", "shape": [56], "dtype": "float32"}, {"name": "batch_normalization_128/moving_mean", "shape": [56], "dtype": "float32"}, {"name": "batch_normalization_128/moving_variance", "shape": [56], "dtype": "float32"}, {"name": "batch_normalization_129/gamma", "shape": [56], "dtype": "float32"}, {"name": "batch_normalization_129/beta", "shape": [56], "dtype": "float32"}, {"name": "batch_normalization_129/moving_mean", "shape": [56], "dtype": "float32"}, {"name": "batch_normalization_129/moving_variance", "shape": [56], "dtype": "float32"}, {"name": "batch_normalization_130/gamma", "shape": [80], "dtype": "float32"}, {"name": "batch_normalization_130/beta", "shape": [80], "dtype": "float32"}, {"name": "batch_normalization_130/moving_mean", "shape": [80], "dtype": "float32"}, {"name": "batch_normalization_130/moving_variance", "shape": [80], "dtype": "float32"}, {"name": "batch_normalization_131/gamma", "shape": [112], "dtype": "float32"}, {"name": "batch_normalization_131/beta", "shape": [112], "dtype": "float32"}, {"name": "batch_normalization_131/moving_mean", "shape": [112], "dtype": "float32"}, {"name": "batch_normalization_131/moving_variance", "shape": [112], "dtype": "float32"}, {"name": "batch_normalization_132/gamma", "shape": [336], "dtype": "float32"}, {"name": "batch_normalization_132/beta", "shape": [336], "dtype": "float32"}, {"name": "batch_normalization_132/moving_mean", "shape": [336], "dtype": "float32"}, {"name": "batch_normalization_132/moving_variance", "shape": [336], "dtype": "float32"}, {"name": "batch_normalization_133/gamma", "shape": [336], "dtype": "float32"}, {"name": "batch_normalization_133/beta", "shape": [336], "dtype": "float32"}, {"name": "batch_normalization_133/moving_mean", "shape": [336], "dtype": "float32"}, {"name": "batch_normalization_133/moving_variance", "shape": [336], "dtype": "float32"}, {"name": "batch_normalization_134/gamma", "shape": [56], "dtype": "float32"}, {"name": "batch_normalization_134/beta", "shape": [56], "dtype": "float32"}, {"name": "batch_normalization_134/moving_mean", "shape": [56], "dtype": "float32"}, {"name": "batch_normalization_134/moving_variance", "shape": [56], "dtype": "float32"}, {"name": "batch_normalization_135/gamma", "shape": [56], "dtype": "float32"}, {"name": "batch_normalization_135/beta", "shape": [56], "dtype": "float32"}, {"name": "batch_normalization_135/moving_mean", "shape": [56], "dtype": "float32"}, {"name": "batch_normalization_135/moving_variance", "shape": [56], "dtype": "float32"}, {"name": "batch_normalization_136/gamma", "shape": [336], "dtype": "float32"}, {"name": "batch_normalization_136/beta", "shape": [336], "dtype": "float32"}, {"name": "batch_normalization_136/moving_mean", "shape": [336], "dtype": "float32"}, {"name": "batch_normalization_136/moving_variance", "shape": [336], "dtype": "float32"}, {"name": "batch_normalization_137/gamma", "shape": [336], "dtype": "float32"}, {"name": "batch_normalization_137/beta", "shape": [336], "dtype": "float32"}, {"name": "batch_normalization_137/moving_mean", "shape": [336], "dtype": "float32"}, {"name": "batch_normalization_137/moving_variance", "shape": [336], "dtype": "float32"}, {"name": "batch_normalization_138/gamma", "shape": [672], "dtype": "float32"}, {"name": "batch_normalization_138/beta", "shape": [672], "dtype": "float32"}, {"name": "batch_normalization_138/moving_mean", "shape": [672], "dtype": "float32"}, {"name": "batch_normalization_138/moving_variance", "shape": [672], "dtype": "float32"}, {"name": "batch_normalization_139/gamma", "shape": [80], "dtype": "float32"}, {"name": "batch_normalization_139/beta", "shape": [80], "dtype": "float32"}, {"name": "batch_normalization_139/moving_mean", "shape": [80], "dtype": "float32"}, {"name": "batch_normalization_139/moving_variance", "shape": [80], "dtype": "float32"}, {"name": "batch_normalization_140/gamma", "shape": [80], "dtype": "float32"}, {"name": "batch_normalization_140/beta", "shape": [80], "dtype": "float32"}, {"name": "batch_normalization_140/moving_mean", "shape": [80], "dtype": "float32"}, {"name": "batch_normalization_140/moving_variance", "shape": [80], "dtype": "float32"}, {"name": "batch_normalization_141/gamma", "shape": [112], "dtype": "float32"}, {"name": "batch_normalization_141/beta", "shape": [112], "dtype": "float32"}, {"name": "batch_normalization_141/moving_mean", "shape": [112], "dtype": "float32"}, {"name": "batch_normalization_141/moving_variance", "shape": [112], "dtype": "float32"}, {"name": "batch_normalization_142/gamma", "shape": [160], "dtype": "float32"}, {"name": "batch_normalization_142/beta", "shape": [160], "dtype": "float32"}, {"name": "batch_normalization_142/moving_mean", "shape": [160], "dtype": "float32"}, {"name": "batch_normalization_142/moving_variance", "shape": [160], "dtype": "float32"}, {"name": "batch_normalization_143/gamma", "shape": [480], "dtype": "float32"}, {"name": "batch_normalization_143/beta", "shape": [480], "dtype": "float32"}, {"name": "batch_normalization_143/moving_mean", "shape": [480], "dtype": "float32"}, {"name": "batch_normalization_143/moving_variance", "shape": [480], "dtype": "float32"}, {"name": "batch_normalization_144/gamma", "shape": [480], "dtype": "float32"}, {"name": "batch_normalization_144/beta", "shape": [480], "dtype": "float32"}, {"name": "batch_normalization_144/moving_mean", "shape": [480], "dtype": "float32"}, {"name": "batch_normalization_144/moving_variance", "shape": [480], "dtype": "float32"}, {"name": "batch_normalization_145/gamma", "shape": [80], "dtype": "float32"}, {"name": "batch_normalization_145/beta", "shape": [80], "dtype": "float32"}, {"name": "batch_normalization_145/moving_mean", "shape": [80], "dtype": "float32"}, {"name": "batch_normalization_145/moving_variance", "shape": [80], "dtype": "float32"}, {"name": "batch_normalization_146/gamma", "shape": [80], "dtype": "float32"}, {"name": "batch_normalization_146/beta", "shape": [80], "dtype": "float32"}, {"name": "batch_normalization_146/moving_mean", "shape": [80], "dtype": "float32"}, {"name": "batch_normalization_146/moving_variance", "shape": [80], "dtype": "float32"}, {"name": "batch_normalization_147/gamma", "shape": [480], "dtype": "float32"}, {"name": "batch_normalization_147/beta", "shape": [480], "dtype": "float32"}, {"name": "batch_normalization_147/moving_mean", "shape": [480], "dtype": "float32"}, {"name": "batch_normalization_147/moving_variance", "shape": [480], "dtype": "float32"}, {"name": "batch_normalization_148/gamma", "shape": [480], "dtype": "float32"}, {"name": "batch_normalization_148/beta", "shape": [480], "dtype": "float32"}, {"name": "batch_normalization_148/moving_mean", "shape": [480], "dtype": "float32"}, {"name": "batch_normalization_148/moving_variance", "shape": [480], "dtype": "float32"}, {"name": "batch_normalization_149/gamma", "shape": [80], "dtype": "float32"}, {"name": "batch_normalization_149/beta", "shape": [80], "dtype": "float32"}, {"name": "batch_normalization_149/moving_mean", "shape": [80], "dtype": "float32"}, {"name": "batch_normalization_149/moving_variance", "shape": [80], "dtype": "float32"}, {"name": "batch_normalization_150/gamma", "shape": [80], "dtype": "float32"}, {"name": "batch_normalization_150/beta", "shape": [80], "dtype": "float32"}, {"name": "batch_normalization_150/moving_mean", "shape": [80], "dtype": "float32"}, {"name": "batch_normalization_150/moving_variance", "shape": [80], "dtype": "float32"}, {"name": "batch_normalization_151/gamma", "shape": [480], "dtype": "float32"}, {"name": "batch_normalization_151/beta", "shape": [480], "dtype": "float32"}, {"name": "batch_normalization_151/moving_mean", "shape": [480], "dtype": "float32"}, {"name": "batch_normalization_151/moving_variance", "shape": [480], "dtype": "float32"}, {"name": "batch_normalization_152/gamma", "shape": [480], "dtype": "float32"}, {"name": "batch_normalization_152/beta", "shape": [480], "dtype": "float32"}, {"name": "batch_normalization_152/moving_mean", "shape": [480], "dtype": "float32"}, {"name": "batch_normalization_152/moving_variance", "shape": [480], "dtype": "float32"}, {"name": "batch_normalization_153/gamma", "shape": [80], "dtype": "float32"}, {"name": "batch_normalization_153/beta", "shape": [80], "dtype": "float32"}, {"name": "batch_normalization_153/moving_mean", "shape": [80], "dtype": "float32"}, {"name": "batch_normalization_153/moving_variance", "shape": [80], "dtype": "float32"}, {"name": "batch_normalization_154/gamma", "shape": [80], "dtype": "float32"}, {"name": "batch_normalization_154/beta", "shape": [80], "dtype": "float32"}, {"name": "batch_normalization_154/moving_mean", "shape": [80], "dtype": "float32"}, {"name": "batch_normalization_154/moving_variance", "shape": [80], "dtype": "float32"}, {"name": "batch_normalization_155/gamma", "shape": [256], "dtype": "float32"}, {"name": "batch_normalization_155/beta", "shape": [256], "dtype": "float32"}, {"name": "batch_normalization_155/moving_mean", "shape": [256], "dtype": "float32"}, {"name": "batch_normalization_155/moving_variance", "shape": [256], "dtype": "float32"}, {"name": "batch_normalization_156/gamma", "shape": [256], "dtype": "float32"}, {"name": "batch_normalization_156/beta", "shape": [256], "dtype": "float32"}, {"name": "batch_normalization_156/moving_mean", "shape": [256], "dtype": "float32"}, {"name": "batch_normalization_156/moving_variance", "shape": [256], "dtype": "float32"}, {"name": "batch_normalization_157/gamma", "shape": [80], "dtype": "float32"}, {"name": "batch_normalization_157/beta", "shape": [80], "dtype": "float32"}, {"name": "batch_normalization_157/moving_mean", "shape": [80], "dtype": "float32"}, {"name": "batch_normalization_157/moving_variance", "shape": [80], "dtype": "float32"}, {"name": "batch_normalization_158/gamma", "shape": [80], "dtype": "float32"}, {"name": "batch_normalization_158/beta", "shape": [80], "dtype": "float32"}, {"name": "batch_normalization_158/moving_mean", "shape": [80], "dtype": "float32"}, {"name": "batch_normalization_158/moving_variance", "shape": [80], "dtype": "float32"}, {"name": "batch_normalization_159/gamma", "shape": [512], "dtype": "float32"}, {"name": "batch_normalization_159/beta", "shape": [512], "dtype": "float32"}, {"name": "batch_normalization_159/moving_mean", "shape": [512], "dtype": "float32"}, {"name": "batch_normalization_159/moving_variance", "shape": [512], "dtype": "float32"}, {"name": "batch_normalization_80/gamma", "shape": [16], "dtype": "float32"}, {"name": "batch_normalization_80/beta", "shape": [16], "dtype": "float32"}, {"name": "batch_normalization_80/moving_mean", "shape": [16], "dtype": "float32"}, {"name": "batch_normalization_80/moving_variance", "shape": [16], "dtype": "float32"}, {"name": "batch_normalization_81/gamma", "shape": [8], "dtype": "float32"}, {"name": "batch_normalization_81/beta", "shape": [8], "dtype": "float32"}, {"name": "batch_normalization_81/moving_mean", "shape": [8], "dtype": "float32"}, {"name": "batch_normalization_81/moving_variance", "shape": [8], "dtype": "float32"}, {"name": "batch_normalization_82/gamma", "shape": [8], "dtype": "float32"}, {"name": "batch_normalization_82/beta", "shape": [8], "dtype": "float32"}, {"name": "batch_normalization_82/moving_mean", "shape": [8], "dtype": "float32"}, {"name": "batch_normalization_82/moving_variance", "shape": [8], "dtype": "float32"}, {"name": "batch_normalization_83/gamma", "shape": [8], "dtype": "float32"}, {"name": "batch_normalization_83/beta", "shape": [8], "dtype": "float32"}, {"name": "batch_normalization_83/moving_mean", "shape": [8], "dtype": "float32"}, {"name": "batch_normalization_83/moving_variance", "shape": [8], "dtype": "float32"}, {"name": "batch_normalization_84/gamma", "shape": [8], "dtype": "float32"}, {"name": "batch_normalization_84/beta", "shape": [8], "dtype": "float32"}, {"name": "batch_normalization_84/moving_mean", "shape": [8], "dtype": "float32"}, {"name": "batch_normalization_84/moving_variance", "shape": [8], "dtype": "float32"}, {"name": "batch_normalization_85/gamma", "shape": [24], "dtype": "float32"}, {"name": "batch_normalization_85/beta", "shape": [24], "dtype": "float32"}, {"name": "batch_normalization_85/moving_mean", "shape": [24], "dtype": "float32"}, {"name": "batch_normalization_85/moving_variance", "shape": [24], "dtype": "float32"}, {"name": "batch_normalization_86/gamma", "shape": [24], "dtype": "float32"}, {"name": "batch_normalization_86/beta", "shape": [24], "dtype": "float32"}, {"name": "batch_normalization_86/moving_mean", "shape": [24], "dtype": "float32"}, {"name": "batch_normalization_86/moving_variance", "shape": [24], "dtype": "float32"}, {"name": "batch_normalization_87/gamma", "shape": [48], "dtype": "float32"}, {"name": "batch_normalization_87/beta", "shape": [48], "dtype": "float32"}, {"name": "batch_normalization_87/moving_mean", "shape": [48], "dtype": "float32"}, {"name": "batch_normalization_87/moving_variance", "shape": [48], "dtype": "float32"}, {"name": "batch_normalization_88/gamma", "shape": [12], "dtype": "float32"}, {"name": "batch_normalization_88/beta", "shape": [12], "dtype": "float32"}, {"name": "batch_normalization_88/moving_mean", "shape": [12], "dtype": "float32"}, {"name": "batch_normalization_88/moving_variance", "shape": [12], "dtype": "float32"}, {"name": "batch_normalization_89/gamma", "shape": [12], "dtype": "float32"}, {"name": "batch_normalization_89/beta", "shape": [12], "dtype": "float32"}, {"name": "batch_normalization_89/moving_mean", "shape": [12], "dtype": "float32"}, {"name": "batch_normalization_89/moving_variance", "shape": [12], "dtype": "float32"}, {"name": "batch_normalization_90/gamma", "shape": [16], "dtype": "float32"}, {"name": "batch_normalization_90/beta", "shape": [16], "dtype": "float32"}, {"name": "batch_normalization_90/moving_mean", "shape": [16], "dtype": "float32"}, {"name": "batch_normalization_90/moving_variance", "shape": [16], "dtype": "float32"}, {"name": "batch_normalization_91/gamma", "shape": [24], "dtype": "float32"}, {"name": "batch_normalization_91/beta", "shape": [24], "dtype": "float32"}, {"name": "batch_normalization_91/moving_mean", "shape": [24], "dtype": "float32"}, {"name": "batch_normalization_91/moving_variance", "shape": [24], "dtype": "float32"}, {"name": "batch_normalization_92/gamma", "shape": [36], "dtype": "float32"}, {"name": "batch_normalization_92/beta", "shape": [36], "dtype": "float32"}, {"name": "batch_normalization_92/moving_mean", "shape": [36], "dtype": "float32"}, {"name": "batch_normalization_92/moving_variance", "shape": [36], "dtype": "float32"}, {"name": "batch_normalization_93/gamma", "shape": [36], "dtype": "float32"}, {"name": "batch_normalization_93/beta", "shape": [36], "dtype": "float32"}, {"name": "batch_normalization_93/moving_mean", "shape": [36], "dtype": "float32"}, {"name": "batch_normalization_93/moving_variance", "shape": [36], "dtype": "float32"}, {"name": "batch_normalization_94/gamma", "shape": [12], "dtype": "float32"}, {"name": "batch_normalization_94/beta", "shape": [12], "dtype": "float32"}, {"name": "batch_normalization_94/moving_mean", "shape": [12], "dtype": "float32"}, {"name": "batch_normalization_94/moving_variance", "shape": [12], "dtype": "float32"}, {"name": "batch_normalization_95/gamma", "shape": [12], "dtype": "float32"}, {"name": "batch_normalization_95/beta", "shape": [12], "dtype": "float32"}, {"name": "batch_normalization_95/moving_mean", "shape": [12], "dtype": "float32"}, {"name": "batch_normalization_95/moving_variance", "shape": [12], "dtype": "float32"}, {"name": "batch_normalization_96/gamma", "shape": [36], "dtype": "float32"}, {"name": "batch_normalization_96/beta", "shape": [36], "dtype": "float32"}, {"name": "batch_normalization_96/moving_mean", "shape": [36], "dtype": "float32"}, {"name": "batch_normalization_96/moving_variance", "shape": [36], "dtype": "float32"}, {"name": "batch_normalization_97/gamma", "shape": [36], "dtype": "float32"}, {"name": "batch_normalization_97/beta", "shape": [36], "dtype": "float32"}, {"name": "batch_normalization_97/moving_mean", "shape": [36], "dtype": "float32"}, {"name": "batch_normalization_97/moving_variance", "shape": [36], "dtype": "float32"}, {"name": "batch_normalization_98/gamma", "shape": [72], "dtype": "float32"}, {"name": "batch_normalization_98/beta", "shape": [72], "dtype": "float32"}, {"name": "batch_normalization_98/moving_mean", "shape": [72], "dtype": "float32"}, {"name": "batch_normalization_98/moving_variance", "shape": [72], "dtype": "float32"}, {"name": "batch_normalization_99/gamma", "shape": [20], "dtype": "float32"}, {"name": "batch_normalization_99/beta", "shape": [20], "dtype": "float32"}, {"name": "batch_normalization_99/moving_mean", "shape": [20], "dtype": "float32"}, {"name": "batch_normalization_99/moving_variance", "shape": [20], "dtype": "float32"}, {"name": "conv2d_100/kernel", "shape": [1, 1, 960, 80], "dtype": "float32"}, {"name": "conv2d_101/kernel", "shape": [1, 1, 160, 256], "dtype": "float32"}, {"name": "conv2d_102/kernel", "shape": [1, 1, 512, 128], "dtype": "float32"}, {"name": "conv2d_102/bias", "shape": [128], "dtype": "float32"}, {"name": "conv2d_103/kernel", "shape": [1, 1, 128, 512], "dtype": "float32"}, {"name": "conv2d_103/bias", "shape": [512], "dtype": "float32"}, {"name": "conv2d_104/kernel", "shape": [1, 1, 512, 80], "dtype": "float32"}, {"name": "conv2d_105/kernel", "shape": [1, 1, 160, 512], "dtype": "float32"}, {"name": "conv2d_53/kernel", "shape": [3, 3, 3, 16], "dtype": "float32"}, {"name": "conv2d_54/kernel", "shape": [1, 1, 16, 8], "dtype": "float32"}, {"name": "conv2d_55/kernel", "shape": [1, 1, 16, 8], "dtype": "float32"}, {"name": "conv2d_56/kernel", "shape": [1, 1, 16, 24], "dtype": "float32"}, {"name": "conv2d_57/kernel", "shape": [1, 1, 48, 12], "dtype": "float32"}, {"name": "conv2d_58/kernel", "shape": [1, 1, 16, 24], "dtype": "float32"}, {"name": "conv2d_59/kernel", "shape": [1, 1, 24, 36], "dtype": "float32"}, {"name": "conv2d_60/kernel", "shape": [1, 1, 72, 12], "dtype": "float32"}, {"name": "conv2d_61/kernel", "shape": [1, 1, 24, 36], "dtype": "float32"}, {"name": "conv2d_62/kernel", "shape": [1, 1, 72, 20], "dtype": "float32"}, {"name": "conv2d_62/bias", "shape": [20], "dtype": "float32"}, {"name": "conv2d_63/kernel", "shape": [1, 1, 20, 72], "dtype": "float32"}, {"name": "conv2d_63/bias", "shape": [72], "dtype": "float32"}, {"name": "conv2d_64/kernel", "shape": [1, 1, 72, 20], "dtype": "float32"}, {"name": "conv2d_65/kernel", "shape": [1, 1, 24, 40], "dtype": "float32"}, {"name": "conv2d_66/kernel", "shape": [1, 1, 40, 60], "dtype": "float32"}, {"name": "conv2d_67/kernel", "shape": [1, 1, 120, 32], "dtype": "float32"}, {"name": "conv2d_67/bias", "shape": [32], "dtype": "float32"}, {"name": "conv2d_68/kernel", "shape": [1, 1, 32, 120], "dtype": "float32"}, {"name": "conv2d_68/bias", "shape": [120], "dtype": "float32"}, {"name": "conv2d_69/kernel", "shape": [1, 1, 120, 20], "dtype": "float32"}, {"name": "conv2d_70/kernel", "shape": [1, 1, 40, 120], "dtype": "float32"}, {"name": "conv2d_71/kernel", "shape": [1, 1, 240, 40], "dtype": "float32"}, {"name": "conv2d_72/kernel", "shape": [1, 1, 40, 80], "dtype": "float32"}, {"name": "conv2d_73/kernel", "shape": [1, 1, 80, 100], "dtype": "float32"}, {"name": "conv2d_74/kernel", "shape": [1, 1, 200, 40], "dtype": "float32"}, {"name": "conv2d_75/kernel", "shape": [1, 1, 80, 92], "dtype": "float32"}, {"name": "conv2d_76/kernel", "shape": [1, 1, 184, 40], "dtype": "float32"}, {"name": "conv2d_77/kernel", "shape": [1, 1, 80, 92], "dtype": "float32"}, {"name": "conv2d_78/kernel", "shape": [1, 1, 184, 40], "dtype": "float32"}, {"name": "conv2d_79/kernel", "shape": [1, 1, 80, 240], "dtype": "float32"}, {"name": "conv2d_80/kernel", "shape": [1, 1, 480, 120], "dtype": "float32"}, {"name": "conv2d_80/bias", "shape": [120], "dtype": "float32"}, {"name": "conv2d_81/kernel", "shape": [1, 1, 120, 480], "dtype": "float32"}, {"name": "conv2d_81/bias", "shape": [480], "dtype": "float32"}, {"name": "conv2d_82/kernel", "shape": [1, 1, 480, 56], "dtype": "float32"}, {"name": "conv2d_83/kernel", "shape": [1, 1, 80, 112], "dtype": "float32"}, {"name": "conv2d_84/kernel", "shape": [1, 1, 112, 336], "dtype": "float32"}, {"name": "conv2d_85/kernel", "shape": [1, 1, 672, 168], "dtype": "float32"}, {"name": "conv2d_85/bias", "shape": [168], "dtype": "float32"}, {"name": "conv2d_86/kernel", "shape": [1, 1, 168, 672], "dtype": "float32"}, {"name": "conv2d_86/bias", "shape": [672], "dtype": "float32"}, {"name": "conv2d_87/kernel", "shape": [1, 1, 672, 56], "dtype": "float32"}, {"name": "conv2d_88/kernel", "shape": [1, 1, 112, 336], "dtype": "float32"}, {"name": "conv2d_89/kernel", "shape": [1, 1, 672, 168], "dtype": "float32"}, {"name": "conv2d_89/bias", "shape": [168], "dtype": "float32"}, {"name": "conv2d_90/kernel", "shape": [1, 1, 168, 672], "dtype": "float32"}, {"name": "conv2d_90/bias", "shape": [672], "dtype": "float32"}, {"name": "conv2d_91/kernel", "shape": [1, 1, 672, 80], "dtype": "float32"}, {"name": "conv2d_92/kernel", "shape": [1, 1, 112, 160], "dtype": "float32"}, {"name": "conv2d_93/kernel", "shape": [1, 1, 160, 480], "dtype": "float32"}, {"name": "conv2d_94/kernel", "shape": [1, 1, 960, 80], "dtype": "float32"}, {"name": "conv2d_95/kernel", "shape": [1, 1, 160, 480], "dtype": "float32"}, {"name": "conv2d_96/kernel", "shape": [1, 1, 960, 240], "dtype": "float32"}, {"name": "conv2d_96/bias", "shape": [240], "dtype": "float32"}, {"name": "conv2d_97/kernel", "shape": [1, 1, 240, 960], "dtype": "float32"}, {"name": "conv2d_97/bias", "shape": [960], "dtype": "float32"}, {"name": "conv2d_98/kernel", "shape": [1, 1, 960, 80], "dtype": "float32"}, {"name": "conv2d_99/kernel", "shape": [1, 1, 160, 480], "dtype": "float32"}, {"name": "depthwise_conv2d_41/depthwise_kernel", "shape": [3, 3, 8, 1], "dtype": "float32"}, {"name": "depthwise_conv2d_42/depthwise_kernel", "shape": [3, 3, 8, 1], "dtype": "float32"}, {"name": "depthwise_conv2d_43/depthwise_kernel", "shape": [3, 3, 24, 1], "dtype": "float32"}, {"name": "depthwise_conv2d_44/depthwise_kernel", "shape": [3, 3, 48, 1], "dtype": "float32"}, {"name": "depthwise_conv2d_45/depthwise_kernel", "shape": [3, 3, 12, 1], "dtype": "float32"}, {"name": "depthwise_conv2d_46/depthwise_kernel", "shape": [3, 3, 16, 1], "dtype": "float32"}, {"name": "depthwise_conv2d_47/depthwise_kernel", "shape": [3, 3, 36, 1], "dtype": "float32"}, {"name": "depthwise_conv2d_48/depthwise_kernel", "shape": [3, 3, 12, 1], "dtype": "float32"}, {"name": "depthwise_conv2d_49/depthwise_kernel", "shape": [3, 3, 36, 1], "dtype": "float32"}, {"name": "depthwise_conv2d_50/depthwise_kernel", "shape": [5, 5, 72, 1], "dtype": "float32"}, {"name": "depthwise_conv2d_51/depthwise_kernel", "shape": [3, 3, 20, 1], "dtype": "float32"}, {"name": "depthwise_conv2d_52/depthwise_kernel", "shape": [5, 5, 24, 1], "dtype": "float32"}, {"name": "depthwise_conv2d_53/depthwise_kernel", "shape": [3, 3, 60, 1], "dtype": "float32"}, {"name": "depthwise_conv2d_54/depthwise_kernel", "shape": [3, 3, 20, 1], "dtype": "float32"}, {"name": "depthwise_conv2d_55/depthwise_kernel", "shape": [3, 3, 120, 1], "dtype": "float32"}, {"name": "depthwise_conv2d_56/depthwise_kernel", "shape": [3, 3, 240, 1], "dtype": "float32"}, {"name": "depthwise_conv2d_57/depthwise_kernel", "shape": [3, 3, 40, 1], "dtype": "float32"}, {"name": "depthwise_conv2d_58/depthwise_kernel", "shape": [3, 3, 40, 1], "dtype": "float32"}, {"name": "depthwise_conv2d_59/depthwise_kernel", "shape": [3, 3, 100, 1], "dtype": "float32"}, {"name": "depthwise_conv2d_60/depthwise_kernel", "shape": [3, 3, 40, 1], "dtype": "float32"}, {"name": "depthwise_conv2d_61/depthwise_kernel", "shape": [3, 3, 92, 1], "dtype": "float32"}, {"name": "depthwise_conv2d_62/depthwise_kernel", "shape": [3, 3, 40, 1], "dtype": "float32"}, {"name": "depthwise_conv2d_63/depthwise_kernel", "shape": [3, 3, 92, 1], "dtype": "float32"}, {"name": "depthwise_conv2d_64/depthwise_kernel", "shape": [3, 3, 40, 1], "dtype": "float32"}, {"name": "depthwise_conv2d_65/depthwise_kernel", "shape": [3, 3, 240, 1], "dtype": "float32"}, {"name": "depthwise_conv2d_66/depthwise_kernel", "shape": [3, 3, 56, 1], "dtype": "float32"}, {"name": "depthwise_conv2d_67/depthwise_kernel", "shape": [3, 3, 80, 1], "dtype": "float32"}, {"name": "depthwise_conv2d_68/depthwise_kernel", "shape": [3, 3, 336, 1], "dtype": "float32"}, {"name": "depthwise_conv2d_69/depthwise_kernel", "shape": [3, 3, 56, 1], "dtype": "float32"}, {"name": "depthwise_conv2d_70/depthwise_kernel", "shape": [3, 3, 336, 1], "dtype": "float32"}, {"name": "depthwise_conv2d_71/depthwise_kernel", "shape": [5, 5, 672, 1], "dtype": "float32"}, {"name": "depthwise_conv2d_72/depthwise_kernel", "shape": [3, 3, 80, 1], "dtype": "float32"}, {"name": "depthwise_conv2d_73/depthwise_kernel", "shape": [5, 5, 112, 1], "dtype": "float32"}, {"name": "depthwise_conv2d_74/depthwise_kernel", "shape": [3, 3, 480, 1], "dtype": "float32"}, {"name": "depthwise_conv2d_75/depthwise_kernel", "shape": [3, 3, 80, 1], "dtype": "float32"}, {"name": "depthwise_conv2d_76/depthwise_kernel", "shape": [3, 3, 480, 1], "dtype": "float32"}, {"name": "depthwise_conv2d_77/depthwise_kernel", "shape": [3, 3, 80, 1], "dtype": "float32"}, {"name": "depthwise_conv2d_78/depthwise_kernel", "shape": [3, 3, 480, 1], "dtype": "float32"}, {"name": "depthwise_conv2d_79/depthwise_kernel", "shape": [3, 3, 80, 1], "dtype": "float32"}, {"name": "depthwise_conv2d_80/depthwise_kernel", "shape": [3, 3, 256, 1], "dtype": "float32"}, {"name": "depthwise_conv2d_81/depthwise_kernel", "shape": [3, 3, 80, 1], "dtype": "float32"}, {"name": "pre_embedding/gamma", "shape": [512], "dtype": "float32"}, {"name": "pre_embedding/beta", "shape": [512], "dtype": "float32"}, {"name": "pre_embedding/moving_mean", "shape": [512], "dtype": "float32"}, {"name": "pre_embedding/moving_variance", "shape": [512], "dtype": "float32"}]}]}