{"format": "layers-model", "generatedBy": "keras v2.4.0", "convertedBy": "TensorFlow.js Converter v4.22.0", "modelTopology": {"keras_version": "2.4.0", "backend": "tensorflow", "model_config": {"class_name": "Functional", "config": {"name": "GhostNet", "layers": [{"class_name": "InputLayer", "config": {"batch_input_shape": [null, 112, 112, 3], "dtype": "float32", "sparse": false, "ragged": false, "name": "input_1"}, "name": "input_1", "inbound_nodes": []}, {"class_name": "Conv2D", "config": {"name": "conv2d", "trainable": true, "dtype": {"class_name": "Policy", "config": {"name": "mixed_float16"}}, "filters": 20, "kernel_size": [3, 3], "strides": [1, 1], "padding": "same", "data_format": "channels_last", "dilation_rate": [1, 1], "groups": 1, "activation": "linear", "use_bias": false, "kernel_initializer": {"class_name": "GlorotUniform", "config": {"seed": null}}, "bias_initializer": {"class_name": "Zeros", "config": {}}, "kernel_regularizer": {"class_name": "L2", "config": {"l2": 0.0002500000118743628}}, "bias_regularizer": null, "activity_regularizer": null, "kernel_constraint": null, "bias_constraint": null}, "name": "conv2d", "inbound_nodes": [[["input_1", 0, 0, {}]]]}, {"class_name": "BatchNormalization", "config": {"name": "batch_normalization", "trainable": true, "dtype": {"class_name": "Policy", "config": {"name": "mixed_float16"}}, "axis": [3], "momentum": 0.9, "epsilon": 1e-05, "center": true, "scale": true, "beta_initializer": {"class_name": "Zeros", "config": {}}, "gamma_initializer": {"class_name": "Ones", "config": {}}, "moving_mean_initializer": {"class_name": "Zeros", "config": {}}, "moving_variance_initializer": {"class_name": "Ones", "config": {}}, "beta_regularizer": null, "gamma_regularizer": null, "beta_constraint": null, "gamma_constraint": null}, "name": "batch_normalization", "inbound_nodes": [[["conv2d", 0, 0, {}]]]}, {"class_name": "PReLU", "config": {"name": "activation", "trainable": true, "dtype": {"class_name": "Policy", "config": {"name": "mixed_float16"}}, "alpha_initializer": {"class_name": "Constant", "config": {"value": 0.25}}, "alpha_regularizer": null, "alpha_constraint": null, "shared_axes": [1, 2]}, "name": "activation", "inbound_nodes": [[["batch_normalization", 0, 0, {}]]]}, {"class_name": "Conv2D", "config": {"name": "conv2d_1", "trainable": true, "dtype": {"class_name": "Policy", "config": {"name": "mixed_float16"}}, "filters": 10, "kernel_size": [1, 1], "strides": [1, 1], "padding": "same", "data_format": "channels_last", "dilation_rate": [1, 1], "groups": 1, "activation": "linear", "use_bias": false, "kernel_initializer": {"class_name": "GlorotUniform", "config": {"seed": null}}, "bias_initializer": {"class_name": "Zeros", "config": {}}, "kernel_regularizer": {"class_name": "L2", "config": {"l2": 0.0002500000118743628}}, "bias_regularizer": null, "activity_regularizer": null, "kernel_constraint": null, "bias_constraint": null}, "name": "conv2d_1", "inbound_nodes": [[["activation", 0, 0, {}]]]}, {"class_name": "BatchNormalization", "config": {"name": "batch_normalization_1", "trainable": true, "dtype": {"class_name": "Policy", "config": {"name": "mixed_float16"}}, "axis": [3], "momentum": 0.9, "epsilon": 1e-05, "center": true, "scale": true, "beta_initializer": {"class_name": "Zeros", "config": {}}, "gamma_initializer": {"class_name": "Ones", "config": {}}, "moving_mean_initializer": {"class_name": "Zeros", "config": {}}, "moving_variance_initializer": {"class_name": "Ones", "config": {}}, "beta_regularizer": null, "gamma_regularizer": null, "beta_constraint": null, "gamma_constraint": null}, "name": "batch_normalization_1", "inbound_nodes": [[["conv2d_1", 0, 0, {}]]]}, {"class_name": "PReLU", "config": {"name": "activation_1", "trainable": true, "dtype": {"class_name": "Policy", "config": {"name": "mixed_float16"}}, "alpha_initializer": {"class_name": "Constant", "config": {"value": 0.25}}, "alpha_regularizer": null, "alpha_constraint": null, "shared_axes": [1, 2]}, "name": "activation_1", "inbound_nodes": [[["batch_normalization_1", 0, 0, {}]]]}, {"class_name": "DepthwiseConv2D", "config": {"name": "depthwise_conv2d", "trainable": true, "dtype": {"class_name": "Policy", "config": {"name": "mixed_float16"}}, "kernel_size": [3, 3], "strides": [1, 1], "padding": "same", "data_format": "channels_last", "dilation_rate": [1, 1], "groups": 1, "activation": "linear", "use_bias": false, "bias_initializer": {"class_name": "Zeros", "config": {}}, "bias_regularizer": null, "activity_regularizer": null, "bias_constraint": null, "depth_multiplier": 1, "depthwise_initializer": {"class_name": "GlorotUniform", "config": {"seed": null}}, "depthwise_regularizer": null, "depthwise_constraint": null}, "name": "depthwise_conv2d", "inbound_nodes": [[["activation_1", 0, 0, {}]]]}, {"class_name": "BatchNormalization", "config": {"name": "batch_normalization_2", "trainable": true, "dtype": {"class_name": "Policy", "config": {"name": "mixed_float16"}}, "axis": [3], "momentum": 0.9, "epsilon": 1e-05, "center": true, "scale": true, "beta_initializer": {"class_name": "Zeros", "config": {}}, "gamma_initializer": {"class_name": "Ones", "config": {}}, "moving_mean_initializer": {"class_name": "Zeros", "config": {}}, "moving_variance_initializer": {"class_name": "Ones", "config": {}}, "beta_regularizer": null, "gamma_regularizer": null, "beta_constraint": null, "gamma_constraint": null}, "name": "batch_normalization_2", "inbound_nodes": [[["depthwise_conv2d", 0, 0, {}]]]}, {"class_name": "PReLU", "config": {"name": "activation_2", "trainable": true, "dtype": {"class_name": "Policy", "config": {"name": "mixed_float16"}}, "alpha_initializer": {"class_name": "Constant", "config": {"value": 0.25}}, "alpha_regularizer": null, "alpha_constraint": null, "shared_axes": [1, 2]}, "name": "activation_2", "inbound_nodes": [[["batch_normalization_2", 0, 0, {}]]]}, {"class_name": "Concatenate", "config": {"name": "concatenate", "trainable": true, "dtype": {"class_name": "Policy", "config": {"name": "mixed_float16"}}, "axis": -1}, "name": "concatenate", "inbound_nodes": [[["activation_1", 0, 0, {}], ["activation_2", 0, 0, {}]]]}, {"class_name": "Conv2D", "config": {"name": "conv2d_2", "trainable": true, "dtype": {"class_name": "Policy", "config": {"name": "mixed_float16"}}, "filters": 10, "kernel_size": [1, 1], "strides": [1, 1], "padding": "same", "data_format": "channels_last", "dilation_rate": [1, 1], "groups": 1, "activation": "linear", "use_bias": false, "kernel_initializer": {"class_name": "GlorotUniform", "config": {"seed": null}}, "bias_initializer": {"class_name": "Zeros", "config": {}}, "kernel_regularizer": {"class_name": "L2", "config": {"l2": 0.0002500000118743628}}, "bias_regularizer": null, "activity_regularizer": null, "kernel_constraint": null, "bias_constraint": null}, "name": "conv2d_2", "inbound_nodes": [[["concatenate", 0, 0, {}]]]}, {"class_name": "BatchNormalization", "config": {"name": "batch_normalization_3", "trainable": true, "dtype": {"class_name": "Policy", "config": {"name": "mixed_float16"}}, "axis": [3], "momentum": 0.9, "epsilon": 1e-05, "center": true, "scale": true, "beta_initializer": {"class_name": "Zeros", "config": {}}, "gamma_initializer": {"class_name": "Ones", "config": {}}, "moving_mean_initializer": {"class_name": "Zeros", "config": {}}, "moving_variance_initializer": {"class_name": "Ones", "config": {}}, "beta_regularizer": null, "gamma_regularizer": null, "beta_constraint": null, "gamma_constraint": null}, "name": "batch_normalization_3", "inbound_nodes": [[["conv2d_2", 0, 0, {}]]]}, {"class_name": "DepthwiseConv2D", "config": {"name": "depthwise_conv2d_1", "trainable": true, "dtype": {"class_name": "Policy", "config": {"name": "mixed_float16"}}, "kernel_size": [3, 3], "strides": [1, 1], "padding": "same", "data_format": "channels_last", "dilation_rate": [1, 1], "groups": 1, "activation": "linear", "use_bias": false, "bias_initializer": {"class_name": "Zeros", "config": {}}, "bias_regularizer": null, "activity_regularizer": null, "bias_constraint": null, "depth_multiplier": 1, "depthwise_initializer": {"class_name": "GlorotUniform", "config": {"seed": null}}, "depthwise_regularizer": null, "depthwise_constraint": null}, "name": "depthwise_conv2d_1", "inbound_nodes": [[["batch_normalization_3", 0, 0, {}]]]}, {"class_name": "BatchNormalization", "config": {"name": "batch_normalization_4", "trainable": true, "dtype": {"class_name": "Policy", "config": {"name": "mixed_float16"}}, "axis": [3], "momentum": 0.9, "epsilon": 1e-05, "center": true, "scale": true, "beta_initializer": {"class_name": "Zeros", "config": {}}, "gamma_initializer": {"class_name": "Ones", "config": {}}, "moving_mean_initializer": {"class_name": "Zeros", "config": {}}, "moving_variance_initializer": {"class_name": "Ones", "config": {}}, "beta_regularizer": null, "gamma_regularizer": null, "beta_constraint": null, "gamma_constraint": null}, "name": "batch_normalization_4", "inbound_nodes": [[["depthwise_conv2d_1", 0, 0, {}]]]}, {"class_name": "Concatenate", "config": {"name": "concatenate_1", "trainable": true, "dtype": {"class_name": "Policy", "config": {"name": "mixed_float16"}}, "axis": -1}, "name": "concatenate_1", "inbound_nodes": [[["batch_normalization_3", 0, 0, {}], ["batch_normalization_4", 0, 0, {}]]]}, {"class_name": "Add", "config": {"name": "add", "trainable": true, "dtype": {"class_name": "Policy", "config": {"name": "mixed_float16"}}}, "name": "add", "inbound_nodes": [[["activation", 0, 0, {}], ["concatenate_1", 0, 0, {}]]]}, {"class_name": "Conv2D", "config": {"name": "conv2d_3", "trainable": true, "dtype": {"class_name": "Policy", "config": {"name": "mixed_float16"}}, "filters": 32, "kernel_size": [1, 1], "strides": [1, 1], "padding": "same", "data_format": "channels_last", "dilation_rate": [1, 1], "groups": 1, "activation": "linear", "use_bias": false, "kernel_initializer": {"class_name": "GlorotUniform", "config": {"seed": null}}, "bias_initializer": {"class_name": "Zeros", "config": {}}, "kernel_regularizer": {"class_name": "L2", "config": {"l2": 0.0002500000118743628}}, "bias_regularizer": null, "activity_regularizer": null, "kernel_constraint": null, "bias_constraint": null}, "name": "conv2d_3", "inbound_nodes": [[["add", 0, 0, {}]]]}, {"class_name": "BatchNormalization", "config": {"name": "batch_normalization_5", "trainable": true, "dtype": {"class_name": "Policy", "config": {"name": "mixed_float16"}}, "axis": [3], "momentum": 0.9, "epsilon": 1e-05, "center": true, "scale": true, "beta_initializer": {"class_name": "Zeros", "config": {}}, "gamma_initializer": {"class_name": "Ones", "config": {}}, "moving_mean_initializer": {"class_name": "Zeros", "config": {}}, "moving_variance_initializer": {"class_name": "Ones", "config": {}}, "beta_regularizer": null, "gamma_regularizer": null, "beta_constraint": null, "gamma_constraint": null}, "name": "batch_normalization_5", "inbound_nodes": [[["conv2d_3", 0, 0, {}]]]}, {"class_name": "PReLU", "config": {"name": "activation_3", "trainable": true, "dtype": {"class_name": "Policy", "config": {"name": "mixed_float16"}}, "alpha_initializer": {"class_name": "Constant", "config": {"value": 0.25}}, "alpha_regularizer": null, "alpha_constraint": null, "shared_axes": [1, 2]}, "name": "activation_3", "inbound_nodes": [[["batch_normalization_5", 0, 0, {}]]]}, {"class_name": "DepthwiseConv2D", "config": {"name": "depthwise_conv2d_2", "trainable": true, "dtype": {"class_name": "Policy", "config": {"name": "mixed_float16"}}, "kernel_size": [3, 3], "strides": [1, 1], "padding": "same", "data_format": "channels_last", "dilation_rate": [1, 1], "groups": 1, "activation": "linear", "use_bias": false, "bias_initializer": {"class_name": "Zeros", "config": {}}, "bias_regularizer": null, "activity_regularizer": null, "bias_constraint": null, "depth_multiplier": 1, "depthwise_initializer": {"class_name": "GlorotUniform", "config": {"seed": null}}, "depthwise_regularizer": null, "depthwise_constraint": null}, "name": "depthwise_conv2d_2", "inbound_nodes": [[["activation_3", 0, 0, {}]]]}, {"class_name": "BatchNormalization", "config": {"name": "batch_normalization_6", "trainable": true, "dtype": {"class_name": "Policy", "config": {"name": "mixed_float16"}}, "axis": [3], "momentum": 0.9, "epsilon": 1e-05, "center": true, "scale": true, "beta_initializer": {"class_name": "Zeros", "config": {}}, "gamma_initializer": {"class_name": "Ones", "config": {}}, "moving_mean_initializer": {"class_name": "Zeros", "config": {}}, "moving_variance_initializer": {"class_name": "Ones", "config": {}}, "beta_regularizer": null, "gamma_regularizer": null, "beta_constraint": null, "gamma_constraint": null}, "name": "batch_normalization_6", "inbound_nodes": [[["depthwise_conv2d_2", 0, 0, {}]]]}, {"class_name": "PReLU", "config": {"name": "activation_4", "trainable": true, "dtype": {"class_name": "Policy", "config": {"name": "mixed_float16"}}, "alpha_initializer": {"class_name": "Constant", "config": {"value": 0.25}}, "alpha_regularizer": null, "alpha_constraint": null, "shared_axes": [1, 2]}, "name": "activation_4", "inbound_nodes": [[["batch_normalization_6", 0, 0, {}]]]}, {"class_name": "Concatenate", "config": {"name": "concatenate_2", "trainable": true, "dtype": {"class_name": "Policy", "config": {"name": "mixed_float16"}}, "axis": -1}, "name": "concatenate_2", "inbound_nodes": [[["activation_3", 0, 0, {}], ["activation_4", 0, 0, {}]]]}, {"class_name": "DepthwiseConv2D", "config": {"name": "depthwise_conv2d_3", "trainable": true, "dtype": {"class_name": "Policy", "config": {"name": "mixed_float16"}}, "kernel_size": [3, 3], "strides": [2, 2], "padding": "same", "data_format": "channels_last", "dilation_rate": [1, 1], "groups": 1, "activation": "linear", "use_bias": false, "bias_initializer": {"class_name": "Zeros", "config": {}}, "bias_regularizer": null, "activity_regularizer": null, "bias_constraint": null, "depth_multiplier": 1, "depthwise_initializer": {"class_name": "GlorotUniform", "config": {"seed": null}}, "depthwise_regularizer": null, "depthwise_constraint": null}, "name": "depthwise_conv2d_3", "inbound_nodes": [[["concatenate_2", 0, 0, {}]]]}, {"class_name": "BatchNormalization", "config": {"name": "batch_normalization_7", "trainable": true, "dtype": {"class_name": "Policy", "config": {"name": "mixed_float16"}}, "axis": [3], "momentum": 0.9, "epsilon": 1e-05, "center": true, "scale": true, "beta_initializer": {"class_name": "Zeros", "config": {}}, "gamma_initializer": {"class_name": "Ones", "config": {}}, "moving_mean_initializer": {"class_name": "Zeros", "config": {}}, "moving_variance_initializer": {"class_name": "Ones", "config": {}}, "beta_regularizer": null, "gamma_regularizer": null, "beta_constraint": null, "gamma_constraint": null}, "name": "batch_normalization_7", "inbound_nodes": [[["depthwise_conv2d_3", 0, 0, {}]]]}, {"class_name": "Conv2D", "config": {"name": "conv2d_4", "trainable": true, "dtype": {"class_name": "Policy", "config": {"name": "mixed_float16"}}, "filters": 16, "kernel_size": [1, 1], "strides": [1, 1], "padding": "same", "data_format": "channels_last", "dilation_rate": [1, 1], "groups": 1, "activation": "linear", "use_bias": false, "kernel_initializer": {"class_name": "GlorotUniform", "config": {"seed": null}}, "bias_initializer": {"class_name": "Zeros", "config": {}}, "kernel_regularizer": {"class_name": "L2", "config": {"l2": 0.0002500000118743628}}, "bias_regularizer": null, "activity_regularizer": null, "kernel_constraint": null, "bias_constraint": null}, "name": "conv2d_4", "inbound_nodes": [[["batch_normalization_7", 0, 0, {}]]]}, {"class_name": "DepthwiseConv2D", "config": {"name": "depthwise_conv2d_5", "trainable": true, "dtype": {"class_name": "Policy", "config": {"name": "mixed_float16"}}, "kernel_size": [3, 3], "strides": [2, 2], "padding": "same", "data_format": "channels_last", "dilation_rate": [1, 1], "groups": 1, "activation": "linear", "use_bias": false, "bias_initializer": {"class_name": "Zeros", "config": {}}, "bias_regularizer": null, "activity_regularizer": null, "bias_constraint": null, "depth_multiplier": 1, "depthwise_initializer": {"class_name": "GlorotUniform", "config": {"seed": null}}, "depthwise_regularizer": null, "depthwise_constraint": null}, "name": "depthwise_conv2d_5", "inbound_nodes": [[["add", 0, 0, {}]]]}, {"class_name": "BatchNormalization", "config": {"name": "batch_normalization_8", "trainable": true, "dtype": {"class_name": "Policy", "config": {"name": "mixed_float16"}}, "axis": [3], "momentum": 0.9, "epsilon": 1e-05, "center": true, "scale": true, "beta_initializer": {"class_name": "Zeros", "config": {}}, "gamma_initializer": {"class_name": "Ones", "config": {}}, "moving_mean_initializer": {"class_name": "Zeros", "config": {}}, "moving_variance_initializer": {"class_name": "Ones", "config": {}}, "beta_regularizer": null, "gamma_regularizer": null, "beta_constraint": null, "gamma_constraint": null}, "name": "batch_normalization_8", "inbound_nodes": [[["conv2d_4", 0, 0, {}]]]}, {"class_name": "BatchNormalization", "config": {"name": "batch_normalization_10", "trainable": true, "dtype": {"class_name": "Policy", "config": {"name": "mixed_float16"}}, "axis": [3], "momentum": 0.9, "epsilon": 1e-05, "center": true, "scale": true, "beta_initializer": {"class_name": "Zeros", "config": {}}, "gamma_initializer": {"class_name": "Ones", "config": {}}, "moving_mean_initializer": {"class_name": "Zeros", "config": {}}, "moving_variance_initializer": {"class_name": "Ones", "config": {}}, "beta_regularizer": null, "gamma_regularizer": null, "beta_constraint": null, "gamma_constraint": null}, "name": "batch_normalization_10", "inbound_nodes": [[["depthwise_conv2d_5", 0, 0, {}]]]}, {"class_name": "DepthwiseConv2D", "config": {"name": "depthwise_conv2d_4", "trainable": true, "dtype": {"class_name": "Policy", "config": {"name": "mixed_float16"}}, "kernel_size": [3, 3], "strides": [1, 1], "padding": "same", "data_format": "channels_last", "dilation_rate": [1, 1], "groups": 1, "activation": "linear", "use_bias": false, "bias_initializer": {"class_name": "Zeros", "config": {}}, "bias_regularizer": null, "activity_regularizer": null, "bias_constraint": null, "depth_multiplier": 1, "depthwise_initializer": {"class_name": "GlorotUniform", "config": {"seed": null}}, "depthwise_regularizer": null, "depthwise_constraint": null}, "name": "depthwise_conv2d_4", "inbound_nodes": [[["batch_normalization_8", 0, 0, {}]]]}, {"class_name": "Conv2D", "config": {"name": "conv2d_5", "trainable": true, "dtype": {"class_name": "Policy", "config": {"name": "mixed_float16"}}, "filters": 32, "kernel_size": [1, 1], "strides": [1, 1], "padding": "valid", "data_format": "channels_last", "dilation_rate": [1, 1], "groups": 1, "activation": "linear", "use_bias": false, "kernel_initializer": {"class_name": "GlorotUniform", "config": {"seed": null}}, "bias_initializer": {"class_name": "Zeros", "config": {}}, "kernel_regularizer": {"class_name": "L2", "config": {"l2": 0.0002500000118743628}}, "bias_regularizer": null, "activity_regularizer": null, "kernel_constraint": null, "bias_constraint": null}, "name": "conv2d_5", "inbound_nodes": [[["batch_normalization_10", 0, 0, {}]]]}, {"class_name": "BatchNormalization", "config": {"name": "batch_normalization_9", "trainable": true, "dtype": {"class_name": "Policy", "config": {"name": "mixed_float16"}}, "axis": [3], "momentum": 0.9, "epsilon": 1e-05, "center": true, "scale": true, "beta_initializer": {"class_name": "Zeros", "config": {}}, "gamma_initializer": {"class_name": "Ones", "config": {}}, "moving_mean_initializer": {"class_name": "Zeros", "config": {}}, "moving_variance_initializer": {"class_name": "Ones", "config": {}}, "beta_regularizer": null, "gamma_regularizer": null, "beta_constraint": null, "gamma_constraint": null}, "name": "batch_normalization_9", "inbound_nodes": [[["depthwise_conv2d_4", 0, 0, {}]]]}, {"class_name": "BatchNormalization", "config": {"name": "batch_normalization_11", "trainable": true, "dtype": {"class_name": "Policy", "config": {"name": "mixed_float16"}}, "axis": [3], "momentum": 0.9, "epsilon": 1e-05, "center": true, "scale": true, "beta_initializer": {"class_name": "Zeros", "config": {}}, "gamma_initializer": {"class_name": "Ones", "config": {}}, "moving_mean_initializer": {"class_name": "Zeros", "config": {}}, "moving_variance_initializer": {"class_name": "Ones", "config": {}}, "beta_regularizer": null, "gamma_regularizer": null, "beta_constraint": null, "gamma_constraint": null}, "name": "batch_normalization_11", "inbound_nodes": [[["conv2d_5", 0, 0, {}]]]}, {"class_name": "Concatenate", "config": {"name": "concatenate_3", "trainable": true, "dtype": {"class_name": "Policy", "config": {"name": "mixed_float16"}}, "axis": -1}, "name": "concatenate_3", "inbound_nodes": [[["batch_normalization_8", 0, 0, {}], ["batch_normalization_9", 0, 0, {}]]]}, {"class_name": "Add", "config": {"name": "add_1", "trainable": true, "dtype": {"class_name": "Policy", "config": {"name": "mixed_float16"}}}, "name": "add_1", "inbound_nodes": [[["batch_normalization_11", 0, 0, {}], ["concatenate_3", 0, 0, {}]]]}, {"class_name": "Conv2D", "config": {"name": "conv2d_6", "trainable": true, "dtype": {"class_name": "Policy", "config": {"name": "mixed_float16"}}, "filters": 46, "kernel_size": [1, 1], "strides": [1, 1], "padding": "same", "data_format": "channels_last", "dilation_rate": [1, 1], "groups": 1, "activation": "linear", "use_bias": false, "kernel_initializer": {"class_name": "GlorotUniform", "config": {"seed": null}}, "bias_initializer": {"class_name": "Zeros", "config": {}}, "kernel_regularizer": {"class_name": "L2", "config": {"l2": 0.0002500000118743628}}, "bias_regularizer": null, "activity_regularizer": null, "kernel_constraint": null, "bias_constraint": null}, "name": "conv2d_6", "inbound_nodes": [[["add_1", 0, 0, {}]]]}, {"class_name": "BatchNormalization", "config": {"name": "batch_normalization_12", "trainable": true, "dtype": {"class_name": "Policy", "config": {"name": "mixed_float16"}}, "axis": [3], "momentum": 0.9, "epsilon": 1e-05, "center": true, "scale": true, "beta_initializer": {"class_name": "Zeros", "config": {}}, "gamma_initializer": {"class_name": "Ones", "config": {}}, "moving_mean_initializer": {"class_name": "Zeros", "config": {}}, "moving_variance_initializer": {"class_name": "Ones", "config": {}}, "beta_regularizer": null, "gamma_regularizer": null, "beta_constraint": null, "gamma_constraint": null}, "name": "batch_normalization_12", "inbound_nodes": [[["conv2d_6", 0, 0, {}]]]}, {"class_name": "PReLU", "config": {"name": "activation_5", "trainable": true, "dtype": {"class_name": "Policy", "config": {"name": "mixed_float16"}}, "alpha_initializer": {"class_name": "Constant", "config": {"value": 0.25}}, "alpha_regularizer": null, "alpha_constraint": null, "shared_axes": [1, 2]}, "name": "activation_5", "inbound_nodes": [[["batch_normalization_12", 0, 0, {}]]]}, {"class_name": "DepthwiseConv2D", "config": {"name": "depthwise_conv2d_6", "trainable": true, "dtype": {"class_name": "Policy", "config": {"name": "mixed_float16"}}, "kernel_size": [3, 3], "strides": [1, 1], "padding": "same", "data_format": "channels_last", "dilation_rate": [1, 1], "groups": 1, "activation": "linear", "use_bias": false, "bias_initializer": {"class_name": "Zeros", "config": {}}, "bias_regularizer": null, "activity_regularizer": null, "bias_constraint": null, "depth_multiplier": 1, "depthwise_initializer": {"class_name": "GlorotUniform", "config": {"seed": null}}, "depthwise_regularizer": null, "depthwise_constraint": null}, "name": "depthwise_conv2d_6", "inbound_nodes": [[["activation_5", 0, 0, {}]]]}, {"class_name": "BatchNormalization", "config": {"name": "batch_normalization_13", "trainable": true, "dtype": {"class_name": "Policy", "config": {"name": "mixed_float16"}}, "axis": [3], "momentum": 0.9, "epsilon": 1e-05, "center": true, "scale": true, "beta_initializer": {"class_name": "Zeros", "config": {}}, "gamma_initializer": {"class_name": "Ones", "config": {}}, "moving_mean_initializer": {"class_name": "Zeros", "config": {}}, "moving_variance_initializer": {"class_name": "Ones", "config": {}}, "beta_regularizer": null, "gamma_regularizer": null, "beta_constraint": null, "gamma_constraint": null}, "name": "batch_normalization_13", "inbound_nodes": [[["depthwise_conv2d_6", 0, 0, {}]]]}, {"class_name": "PReLU", "config": {"name": "activation_6", "trainable": true, "dtype": {"class_name": "Policy", "config": {"name": "mixed_float16"}}, "alpha_initializer": {"class_name": "Constant", "config": {"value": 0.25}}, "alpha_regularizer": null, "alpha_constraint": null, "shared_axes": [1, 2]}, "name": "activation_6", "inbound_nodes": [[["batch_normalization_13", 0, 0, {}]]]}, {"class_name": "Concatenate", "config": {"name": "concatenate_4", "trainable": true, "dtype": {"class_name": "Policy", "config": {"name": "mixed_float16"}}, "axis": -1}, "name": "concatenate_4", "inbound_nodes": [[["activation_5", 0, 0, {}], ["activation_6", 0, 0, {}]]]}, {"class_name": "Conv2D", "config": {"name": "conv2d_7", "trainable": true, "dtype": {"class_name": "Policy", "config": {"name": "mixed_float16"}}, "filters": 16, "kernel_size": [1, 1], "strides": [1, 1], "padding": "same", "data_format": "channels_last", "dilation_rate": [1, 1], "groups": 1, "activation": "linear", "use_bias": false, "kernel_initializer": {"class_name": "GlorotUniform", "config": {"seed": null}}, "bias_initializer": {"class_name": "Zeros", "config": {}}, "kernel_regularizer": {"class_name": "L2", "config": {"l2": 0.0002500000118743628}}, "bias_regularizer": null, "activity_regularizer": null, "kernel_constraint": null, "bias_constraint": null}, "name": "conv2d_7", "inbound_nodes": [[["concatenate_4", 0, 0, {}]]]}, {"class_name": "BatchNormalization", "config": {"name": "batch_normalization_14", "trainable": true, "dtype": {"class_name": "Policy", "config": {"name": "mixed_float16"}}, "axis": [3], "momentum": 0.9, "epsilon": 1e-05, "center": true, "scale": true, "beta_initializer": {"class_name": "Zeros", "config": {}}, "gamma_initializer": {"class_name": "Ones", "config": {}}, "moving_mean_initializer": {"class_name": "Zeros", "config": {}}, "moving_variance_initializer": {"class_name": "Ones", "config": {}}, "beta_regularizer": null, "gamma_regularizer": null, "beta_constraint": null, "gamma_constraint": null}, "name": "batch_normalization_14", "inbound_nodes": [[["conv2d_7", 0, 0, {}]]]}, {"class_name": "DepthwiseConv2D", "config": {"name": "depthwise_conv2d_7", "trainable": true, "dtype": {"class_name": "Policy", "config": {"name": "mixed_float16"}}, "kernel_size": [3, 3], "strides": [1, 1], "padding": "same", "data_format": "channels_last", "dilation_rate": [1, 1], "groups": 1, "activation": "linear", "use_bias": false, "bias_initializer": {"class_name": "Zeros", "config": {}}, "bias_regularizer": null, "activity_regularizer": null, "bias_constraint": null, "depth_multiplier": 1, "depthwise_initializer": {"class_name": "GlorotUniform", "config": {"seed": null}}, "depthwise_regularizer": null, "depthwise_constraint": null}, "name": "depthwise_conv2d_7", "inbound_nodes": [[["batch_normalization_14", 0, 0, {}]]]}, {"class_name": "BatchNormalization", "config": {"name": "batch_normalization_15", "trainable": true, "dtype": {"class_name": "Policy", "config": {"name": "mixed_float16"}}, "axis": [3], "momentum": 0.9, "epsilon": 1e-05, "center": true, "scale": true, "beta_initializer": {"class_name": "Zeros", "config": {}}, "gamma_initializer": {"class_name": "Ones", "config": {}}, "moving_mean_initializer": {"class_name": "Zeros", "config": {}}, "moving_variance_initializer": {"class_name": "Ones", "config": {}}, "beta_regularizer": null, "gamma_regularizer": null, "beta_constraint": null, "gamma_constraint": null}, "name": "batch_normalization_15", "inbound_nodes": [[["depthwise_conv2d_7", 0, 0, {}]]]}, {"class_name": "Concatenate", "config": {"name": "concatenate_5", "trainable": true, "dtype": {"class_name": "Policy", "config": {"name": "mixed_float16"}}, "axis": -1}, "name": "concatenate_5", "inbound_nodes": [[["batch_normalization_14", 0, 0, {}], ["batch_normalization_15", 0, 0, {}]]]}, {"class_name": "Add", "config": {"name": "add_2", "trainable": true, "dtype": {"class_name": "Policy", "config": {"name": "mixed_float16"}}}, "name": "add_2", "inbound_nodes": [[["add_1", 0, 0, {}], ["concatenate_5", 0, 0, {}]]]}, {"class_name": "Conv2D", "config": {"name": "conv2d_8", "trainable": true, "dtype": {"class_name": "Policy", "config": {"name": "mixed_float16"}}, "filters": 46, "kernel_size": [1, 1], "strides": [1, 1], "padding": "same", "data_format": "channels_last", "dilation_rate": [1, 1], "groups": 1, "activation": "linear", "use_bias": false, "kernel_initializer": {"class_name": "GlorotUniform", "config": {"seed": null}}, "bias_initializer": {"class_name": "Zeros", "config": {}}, "kernel_regularizer": {"class_name": "L2", "config": {"l2": 0.0002500000118743628}}, "bias_regularizer": null, "activity_regularizer": null, "kernel_constraint": null, "bias_constraint": null}, "name": "conv2d_8", "inbound_nodes": [[["add_2", 0, 0, {}]]]}, {"class_name": "BatchNormalization", "config": {"name": "batch_normalization_16", "trainable": true, "dtype": {"class_name": "Policy", "config": {"name": "mixed_float16"}}, "axis": [3], "momentum": 0.9, "epsilon": 1e-05, "center": true, "scale": true, "beta_initializer": {"class_name": "Zeros", "config": {}}, "gamma_initializer": {"class_name": "Ones", "config": {}}, "moving_mean_initializer": {"class_name": "Zeros", "config": {}}, "moving_variance_initializer": {"class_name": "Ones", "config": {}}, "beta_regularizer": null, "gamma_regularizer": null, "beta_constraint": null, "gamma_constraint": null}, "name": "batch_normalization_16", "inbound_nodes": [[["conv2d_8", 0, 0, {}]]]}, {"class_name": "PReLU", "config": {"name": "activation_7", "trainable": true, "dtype": {"class_name": "Policy", "config": {"name": "mixed_float16"}}, "alpha_initializer": {"class_name": "Constant", "config": {"value": 0.25}}, "alpha_regularizer": null, "alpha_constraint": null, "shared_axes": [1, 2]}, "name": "activation_7", "inbound_nodes": [[["batch_normalization_16", 0, 0, {}]]]}, {"class_name": "DepthwiseConv2D", "config": {"name": "depthwise_conv2d_8", "trainable": true, "dtype": {"class_name": "Policy", "config": {"name": "mixed_float16"}}, "kernel_size": [3, 3], "strides": [1, 1], "padding": "same", "data_format": "channels_last", "dilation_rate": [1, 1], "groups": 1, "activation": "linear", "use_bias": false, "bias_initializer": {"class_name": "Zeros", "config": {}}, "bias_regularizer": null, "activity_regularizer": null, "bias_constraint": null, "depth_multiplier": 1, "depthwise_initializer": {"class_name": "GlorotUniform", "config": {"seed": null}}, "depthwise_regularizer": null, "depthwise_constraint": null}, "name": "depthwise_conv2d_8", "inbound_nodes": [[["activation_7", 0, 0, {}]]]}, {"class_name": "BatchNormalization", "config": {"name": "batch_normalization_17", "trainable": true, "dtype": {"class_name": "Policy", "config": {"name": "mixed_float16"}}, "axis": [3], "momentum": 0.9, "epsilon": 1e-05, "center": true, "scale": true, "beta_initializer": {"class_name": "Zeros", "config": {}}, "gamma_initializer": {"class_name": "Ones", "config": {}}, "moving_mean_initializer": {"class_name": "Zeros", "config": {}}, "moving_variance_initializer": {"class_name": "Ones", "config": {}}, "beta_regularizer": null, "gamma_regularizer": null, "beta_constraint": null, "gamma_constraint": null}, "name": "batch_normalization_17", "inbound_nodes": [[["depthwise_conv2d_8", 0, 0, {}]]]}, {"class_name": "PReLU", "config": {"name": "activation_8", "trainable": true, "dtype": {"class_name": "Policy", "config": {"name": "mixed_float16"}}, "alpha_initializer": {"class_name": "Constant", "config": {"value": 0.25}}, "alpha_regularizer": null, "alpha_constraint": null, "shared_axes": [1, 2]}, "name": "activation_8", "inbound_nodes": [[["batch_normalization_17", 0, 0, {}]]]}, {"class_name": "Concatenate", "config": {"name": "concatenate_6", "trainable": true, "dtype": {"class_name": "Policy", "config": {"name": "mixed_float16"}}, "axis": -1}, "name": "concatenate_6", "inbound_nodes": [[["activation_7", 0, 0, {}], ["activation_8", 0, 0, {}]]]}, {"class_name": "DepthwiseConv2D", "config": {"name": "depthwise_conv2d_9", "trainable": true, "dtype": {"class_name": "Policy", "config": {"name": "mixed_float16"}}, "kernel_size": [5, 5], "strides": [2, 2], "padding": "same", "data_format": "channels_last", "dilation_rate": [1, 1], "groups": 1, "activation": "linear", "use_bias": false, "bias_initializer": {"class_name": "Zeros", "config": {}}, "bias_regularizer": null, "activity_regularizer": null, "bias_constraint": null, "depth_multiplier": 1, "depthwise_initializer": {"class_name": "GlorotUniform", "config": {"seed": null}}, "depthwise_regularizer": null, "depthwise_constraint": null}, "name": "depthwise_conv2d_9", "inbound_nodes": [[["concatenate_6", 0, 0, {}]]]}, {"class_name": "BatchNormalization", "config": {"name": "batch_normalization_18", "trainable": true, "dtype": {"class_name": "Policy", "config": {"name": "mixed_float16"}}, "axis": [3], "momentum": 0.9, "epsilon": 1e-05, "center": true, "scale": true, "beta_initializer": {"class_name": "Zeros", "config": {}}, "gamma_initializer": {"class_name": "Ones", "config": {}}, "moving_mean_initializer": {"class_name": "Zeros", "config": {}}, "moving_variance_initializer": {"class_name": "Ones", "config": {}}, "beta_regularizer": null, "gamma_regularizer": null, "beta_constraint": null, "gamma_constraint": null}, "name": "batch_normalization_18", "inbound_nodes": [[["depthwise_conv2d_9", 0, 0, {}]]]}, {"class_name": "GlobalAveragePooling2D", "config": {"name": "global_average_pooling2d", "trainable": true, "dtype": {"class_name": "Policy", "config": {"name": "mixed_float16"}}, "data_format": "channels_last"}, "name": "global_average_pooling2d", "inbound_nodes": [[["batch_normalization_18", 0, 0, {}]]]}, {"class_name": "Reshape", "config": {"name": "reshape", "trainable": true, "dtype": {"class_name": "Policy", "config": {"name": "mixed_float16"}}, "target_shape": [1, 1, 92]}, "name": "reshape", "inbound_nodes": [[["global_average_pooling2d", 0, 0, {}]]]}, {"class_name": "Conv2D", "config": {"name": "conv2d_9", "trainable": true, "dtype": {"class_name": "Policy", "config": {"name": "mixed_float16"}}, "filters": 24, "kernel_size": [1, 1], "strides": [1, 1], "padding": "valid", "data_format": "channels_last", "dilation_rate": [1, 1], "groups": 1, "activation": "linear", "use_bias": true, "kernel_initializer": {"class_name": "GlorotUniform", "config": {"seed": null}}, "bias_initializer": {"class_name": "Zeros", "config": {}}, "kernel_regularizer": {"class_name": "L2", "config": {"l2": 0.0002500000118743628}}, "bias_regularizer": {"class_name": "L2", "config": {"l2": 0.0002500000118743628}}, "activity_regularizer": null, "kernel_constraint": null, "bias_constraint": null}, "name": "conv2d_9", "inbound_nodes": [[["reshape", 0, 0, {}]]]}, {"class_name": "PReLU", "config": {"name": "activation_9", "trainable": true, "dtype": {"class_name": "Policy", "config": {"name": "mixed_float16"}}, "alpha_initializer": {"class_name": "Constant", "config": {"value": 0.25}}, "alpha_regularizer": null, "alpha_constraint": null, "shared_axes": [1, 2]}, "name": "activation_9", "inbound_nodes": [[["conv2d_9", 0, 0, {}]]]}, {"class_name": "Conv2D", "config": {"name": "conv2d_10", "trainable": true, "dtype": {"class_name": "Policy", "config": {"name": "mixed_float16"}}, "filters": 92, "kernel_size": [1, 1], "strides": [1, 1], "padding": "valid", "data_format": "channels_last", "dilation_rate": [1, 1], "groups": 1, "activation": "linear", "use_bias": true, "kernel_initializer": {"class_name": "GlorotUniform", "config": {"seed": null}}, "bias_initializer": {"class_name": "Zeros", "config": {}}, "kernel_regularizer": {"class_name": "L2", "config": {"l2": 0.0002500000118743628}}, "bias_regularizer": {"class_name": "L2", "config": {"l2": 0.0002500000118743628}}, "activity_regularizer": null, "kernel_constraint": null, "bias_constraint": null}, "name": "conv2d_10", "inbound_nodes": [[["activation_9", 0, 0, {}]]]}, {"class_name": "Activation", "config": {"name": "activation_10", "trainable": true, "dtype": {"class_name": "Policy", "config": {"name": "mixed_float16"}}, "activation": "hard_sigmoid"}, "name": "activation_10", "inbound_nodes": [[["conv2d_10", 0, 0, {}]]]}, {"class_name": "Multiply", "config": {"name": "multiply", "trainable": true, "dtype": {"class_name": "Policy", "config": {"name": "mixed_float16"}}}, "name": "multiply", "inbound_nodes": [[["batch_normalization_18", 0, 0, {}], ["activation_10", 0, 0, {}]]]}, {"class_name": "Conv2D", "config": {"name": "conv2d_11", "trainable": true, "dtype": {"class_name": "Policy", "config": {"name": "mixed_float16"}}, "filters": 26, "kernel_size": [1, 1], "strides": [1, 1], "padding": "same", "data_format": "channels_last", "dilation_rate": [1, 1], "groups": 1, "activation": "linear", "use_bias": false, "kernel_initializer": {"class_name": "GlorotUniform", "config": {"seed": null}}, "bias_initializer": {"class_name": "Zeros", "config": {}}, "kernel_regularizer": {"class_name": "L2", "config": {"l2": 0.0002500000118743628}}, "bias_regularizer": null, "activity_regularizer": null, "kernel_constraint": null, "bias_constraint": null}, "name": "conv2d_11", "inbound_nodes": [[["multiply", 0, 0, {}]]]}, {"class_name": "DepthwiseConv2D", "config": {"name": "depthwise_conv2d_11", "trainable": true, "dtype": {"class_name": "Policy", "config": {"name": "mixed_float16"}}, "kernel_size": [5, 5], "strides": [2, 2], "padding": "same", "data_format": "channels_last", "dilation_rate": [1, 1], "groups": 1, "activation": "linear", "use_bias": false, "bias_initializer": {"class_name": "Zeros", "config": {}}, "bias_regularizer": null, "activity_regularizer": null, "bias_constraint": null, "depth_multiplier": 1, "depthwise_initializer": {"class_name": "GlorotUniform", "config": {"seed": null}}, "depthwise_regularizer": null, "depthwise_constraint": null}, "name": "depthwise_conv2d_11", "inbound_nodes": [[["add_2", 0, 0, {}]]]}, {"class_name": "BatchNormalization", "config": {"name": "batch_normalization_19", "trainable": true, "dtype": {"class_name": "Policy", "config": {"name": "mixed_float16"}}, "axis": [3], "momentum": 0.9, "epsilon": 1e-05, "center": true, "scale": true, "beta_initializer": {"class_name": "Zeros", "config": {}}, "gamma_initializer": {"class_name": "Ones", "config": {}}, "moving_mean_initializer": {"class_name": "Zeros", "config": {}}, "moving_variance_initializer": {"class_name": "Ones", "config": {}}, "beta_regularizer": null, "gamma_regularizer": null, "beta_constraint": null, "gamma_constraint": null}, "name": "batch_normalization_19", "inbound_nodes": [[["conv2d_11", 0, 0, {}]]]}, {"class_name": "BatchNormalization", "config": {"name": "batch_normalization_21", "trainable": true, "dtype": {"class_name": "Policy", "config": {"name": "mixed_float16"}}, "axis": [3], "momentum": 0.9, "epsilon": 1e-05, "center": true, "scale": true, "beta_initializer": {"class_name": "Zeros", "config": {}}, "gamma_initializer": {"class_name": "Ones", "config": {}}, "moving_mean_initializer": {"class_name": "Zeros", "config": {}}, "moving_variance_initializer": {"class_name": "Ones", "config": {}}, "beta_regularizer": null, "gamma_regularizer": null, "beta_constraint": null, "gamma_constraint": null}, "name": "batch_normalization_21", "inbound_nodes": [[["depthwise_conv2d_11", 0, 0, {}]]]}, {"class_name": "DepthwiseConv2D", "config": {"name": "depthwise_conv2d_10", "trainable": true, "dtype": {"class_name": "Policy", "config": {"name": "mixed_float16"}}, "kernel_size": [3, 3], "strides": [1, 1], "padding": "same", "data_format": "channels_last", "dilation_rate": [1, 1], "groups": 1, "activation": "linear", "use_bias": false, "bias_initializer": {"class_name": "Zeros", "config": {}}, "bias_regularizer": null, "activity_regularizer": null, "bias_constraint": null, "depth_multiplier": 1, "depthwise_initializer": {"class_name": "GlorotUniform", "config": {"seed": null}}, "depthwise_regularizer": null, "depthwise_constraint": null}, "name": "depthwise_conv2d_10", "inbound_nodes": [[["batch_normalization_19", 0, 0, {}]]]}, {"class_name": "Conv2D", "config": {"name": "conv2d_12", "trainable": true, "dtype": {"class_name": "Policy", "config": {"name": "mixed_float16"}}, "filters": 52, "kernel_size": [1, 1], "strides": [1, 1], "padding": "valid", "data_format": "channels_last", "dilation_rate": [1, 1], "groups": 1, "activation": "linear", "use_bias": false, "kernel_initializer": {"class_name": "GlorotUniform", "config": {"seed": null}}, "bias_initializer": {"class_name": "Zeros", "config": {}}, "kernel_regularizer": {"class_name": "L2", "config": {"l2": 0.0002500000118743628}}, "bias_regularizer": null, "activity_regularizer": null, "kernel_constraint": null, "bias_constraint": null}, "name": "conv2d_12", "inbound_nodes": [[["batch_normalization_21", 0, 0, {}]]]}, {"class_name": "BatchNormalization", "config": {"name": "batch_normalization_20", "trainable": true, "dtype": {"class_name": "Policy", "config": {"name": "mixed_float16"}}, "axis": [3], "momentum": 0.9, "epsilon": 1e-05, "center": true, "scale": true, "beta_initializer": {"class_name": "Zeros", "config": {}}, "gamma_initializer": {"class_name": "Ones", "config": {}}, "moving_mean_initializer": {"class_name": "Zeros", "config": {}}, "moving_variance_initializer": {"class_name": "Ones", "config": {}}, "beta_regularizer": null, "gamma_regularizer": null, "beta_constraint": null, "gamma_constraint": null}, "name": "batch_normalization_20", "inbound_nodes": [[["depthwise_conv2d_10", 0, 0, {}]]]}, {"class_name": "BatchNormalization", "config": {"name": "batch_normalization_22", "trainable": true, "dtype": {"class_name": "Policy", "config": {"name": "mixed_float16"}}, "axis": [3], "momentum": 0.9, "epsilon": 1e-05, "center": true, "scale": true, "beta_initializer": {"class_name": "Zeros", "config": {}}, "gamma_initializer": {"class_name": "Ones", "config": {}}, "moving_mean_initializer": {"class_name": "Zeros", "config": {}}, "moving_variance_initializer": {"class_name": "Ones", "config": {}}, "beta_regularizer": null, "gamma_regularizer": null, "beta_constraint": null, "gamma_constraint": null}, "name": "batch_normalization_22", "inbound_nodes": [[["conv2d_12", 0, 0, {}]]]}, {"class_name": "Concatenate", "config": {"name": "concatenate_7", "trainable": true, "dtype": {"class_name": "Policy", "config": {"name": "mixed_float16"}}, "axis": -1}, "name": "concatenate_7", "inbound_nodes": [[["batch_normalization_19", 0, 0, {}], ["batch_normalization_20", 0, 0, {}]]]}, {"class_name": "Add", "config": {"name": "add_3", "trainable": true, "dtype": {"class_name": "Policy", "config": {"name": "mixed_float16"}}}, "name": "add_3", "inbound_nodes": [[["batch_normalization_22", 0, 0, {}], ["concatenate_7", 0, 0, {}]]]}, {"class_name": "Conv2D", "config": {"name": "conv2d_13", "trainable": true, "dtype": {"class_name": "Policy", "config": {"name": "mixed_float16"}}, "filters": 78, "kernel_size": [1, 1], "strides": [1, 1], "padding": "same", "data_format": "channels_last", "dilation_rate": [1, 1], "groups": 1, "activation": "linear", "use_bias": false, "kernel_initializer": {"class_name": "GlorotUniform", "config": {"seed": null}}, "bias_initializer": {"class_name": "Zeros", "config": {}}, "kernel_regularizer": {"class_name": "L2", "config": {"l2": 0.0002500000118743628}}, "bias_regularizer": null, "activity_regularizer": null, "kernel_constraint": null, "bias_constraint": null}, "name": "conv2d_13", "inbound_nodes": [[["add_3", 0, 0, {}]]]}, {"class_name": "BatchNormalization", "config": {"name": "batch_normalization_23", "trainable": true, "dtype": {"class_name": "Policy", "config": {"name": "mixed_float16"}}, "axis": [3], "momentum": 0.9, "epsilon": 1e-05, "center": true, "scale": true, "beta_initializer": {"class_name": "Zeros", "config": {}}, "gamma_initializer": {"class_name": "Ones", "config": {}}, "moving_mean_initializer": {"class_name": "Zeros", "config": {}}, "moving_variance_initializer": {"class_name": "Ones", "config": {}}, "beta_regularizer": null, "gamma_regularizer": null, "beta_constraint": null, "gamma_constraint": null}, "name": "batch_normalization_23", "inbound_nodes": [[["conv2d_13", 0, 0, {}]]]}, {"class_name": "PReLU", "config": {"name": "activation_11", "trainable": true, "dtype": {"class_name": "Policy", "config": {"name": "mixed_float16"}}, "alpha_initializer": {"class_name": "Constant", "config": {"value": 0.25}}, "alpha_regularizer": null, "alpha_constraint": null, "shared_axes": [1, 2]}, "name": "activation_11", "inbound_nodes": [[["batch_normalization_23", 0, 0, {}]]]}, {"class_name": "DepthwiseConv2D", "config": {"name": "depthwise_conv2d_12", "trainable": true, "dtype": {"class_name": "Policy", "config": {"name": "mixed_float16"}}, "kernel_size": [3, 3], "strides": [1, 1], "padding": "same", "data_format": "channels_last", "dilation_rate": [1, 1], "groups": 1, "activation": "linear", "use_bias": false, "bias_initializer": {"class_name": "Zeros", "config": {}}, "bias_regularizer": null, "activity_regularizer": null, "bias_constraint": null, "depth_multiplier": 1, "depthwise_initializer": {"class_name": "GlorotUniform", "config": {"seed": null}}, "depthwise_regularizer": null, "depthwise_constraint": null}, "name": "depthwise_conv2d_12", "inbound_nodes": [[["activation_11", 0, 0, {}]]]}, {"class_name": "BatchNormalization", "config": {"name": "batch_normalization_24", "trainable": true, "dtype": {"class_name": "Policy", "config": {"name": "mixed_float16"}}, "axis": [3], "momentum": 0.9, "epsilon": 1e-05, "center": true, "scale": true, "beta_initializer": {"class_name": "Zeros", "config": {}}, "gamma_initializer": {"class_name": "Ones", "config": {}}, "moving_mean_initializer": {"class_name": "Zeros", "config": {}}, "moving_variance_initializer": {"class_name": "Ones", "config": {}}, "beta_regularizer": null, "gamma_regularizer": null, "beta_constraint": null, "gamma_constraint": null}, "name": "batch_normalization_24", "inbound_nodes": [[["depthwise_conv2d_12", 0, 0, {}]]]}, {"class_name": "PReLU", "config": {"name": "activation_12", "trainable": true, "dtype": {"class_name": "Policy", "config": {"name": "mixed_float16"}}, "alpha_initializer": {"class_name": "Constant", "config": {"value": 0.25}}, "alpha_regularizer": null, "alpha_constraint": null, "shared_axes": [1, 2]}, "name": "activation_12", "inbound_nodes": [[["batch_normalization_24", 0, 0, {}]]]}, {"class_name": "Concatenate", "config": {"name": "concatenate_8", "trainable": true, "dtype": {"class_name": "Policy", "config": {"name": "mixed_float16"}}, "axis": -1}, "name": "concatenate_8", "inbound_nodes": [[["activation_11", 0, 0, {}], ["activation_12", 0, 0, {}]]]}, {"class_name": "GlobalAveragePooling2D", "config": {"name": "global_average_pooling2d_1", "trainable": true, "dtype": {"class_name": "Policy", "config": {"name": "mixed_float16"}}, "data_format": "channels_last"}, "name": "global_average_pooling2d_1", "inbound_nodes": [[["concatenate_8", 0, 0, {}]]]}, {"class_name": "Reshape", "config": {"name": "reshape_1", "trainable": true, "dtype": {"class_name": "Policy", "config": {"name": "mixed_float16"}}, "target_shape": [1, 1, 156]}, "name": "reshape_1", "inbound_nodes": [[["global_average_pooling2d_1", 0, 0, {}]]]}, {"class_name": "Conv2D", "config": {"name": "conv2d_14", "trainable": true, "dtype": {"class_name": "Policy", "config": {"name": "mixed_float16"}}, "filters": 40, "kernel_size": [1, 1], "strides": [1, 1], "padding": "valid", "data_format": "channels_last", "dilation_rate": [1, 1], "groups": 1, "activation": "linear", "use_bias": true, "kernel_initializer": {"class_name": "GlorotUniform", "config": {"seed": null}}, "bias_initializer": {"class_name": "Zeros", "config": {}}, "kernel_regularizer": {"class_name": "L2", "config": {"l2": 0.0002500000118743628}}, "bias_regularizer": {"class_name": "L2", "config": {"l2": 0.0002500000118743628}}, "activity_regularizer": null, "kernel_constraint": null, "bias_constraint": null}, "name": "conv2d_14", "inbound_nodes": [[["reshape_1", 0, 0, {}]]]}, {"class_name": "PReLU", "config": {"name": "activation_13", "trainable": true, "dtype": {"class_name": "Policy", "config": {"name": "mixed_float16"}}, "alpha_initializer": {"class_name": "Constant", "config": {"value": 0.25}}, "alpha_regularizer": null, "alpha_constraint": null, "shared_axes": [1, 2]}, "name": "activation_13", "inbound_nodes": [[["conv2d_14", 0, 0, {}]]]}, {"class_name": "Conv2D", "config": {"name": "conv2d_15", "trainable": true, "dtype": {"class_name": "Policy", "config": {"name": "mixed_float16"}}, "filters": 156, "kernel_size": [1, 1], "strides": [1, 1], "padding": "valid", "data_format": "channels_last", "dilation_rate": [1, 1], "groups": 1, "activation": "linear", "use_bias": true, "kernel_initializer": {"class_name": "GlorotUniform", "config": {"seed": null}}, "bias_initializer": {"class_name": "Zeros", "config": {}}, "kernel_regularizer": {"class_name": "L2", "config": {"l2": 0.0002500000118743628}}, "bias_regularizer": {"class_name": "L2", "config": {"l2": 0.0002500000118743628}}, "activity_regularizer": null, "kernel_constraint": null, "bias_constraint": null}, "name": "conv2d_15", "inbound_nodes": [[["activation_13", 0, 0, {}]]]}, {"class_name": "Activation", "config": {"name": "activation_14", "trainable": true, "dtype": {"class_name": "Policy", "config": {"name": "mixed_float16"}}, "activation": "hard_sigmoid"}, "name": "activation_14", "inbound_nodes": [[["conv2d_15", 0, 0, {}]]]}, {"class_name": "Multiply", "config": {"name": "multiply_1", "trainable": true, "dtype": {"class_name": "Policy", "config": {"name": "mixed_float16"}}}, "name": "multiply_1", "inbound_nodes": [[["concatenate_8", 0, 0, {}], ["activation_14", 0, 0, {}]]]}, {"class_name": "Conv2D", "config": {"name": "conv2d_16", "trainable": true, "dtype": {"class_name": "Policy", "config": {"name": "mixed_float16"}}, "filters": 26, "kernel_size": [1, 1], "strides": [1, 1], "padding": "same", "data_format": "channels_last", "dilation_rate": [1, 1], "groups": 1, "activation": "linear", "use_bias": false, "kernel_initializer": {"class_name": "GlorotUniform", "config": {"seed": null}}, "bias_initializer": {"class_name": "Zeros", "config": {}}, "kernel_regularizer": {"class_name": "L2", "config": {"l2": 0.0002500000118743628}}, "bias_regularizer": null, "activity_regularizer": null, "kernel_constraint": null, "bias_constraint": null}, "name": "conv2d_16", "inbound_nodes": [[["multiply_1", 0, 0, {}]]]}, {"class_name": "BatchNormalization", "config": {"name": "batch_normalization_25", "trainable": true, "dtype": {"class_name": "Policy", "config": {"name": "mixed_float16"}}, "axis": [3], "momentum": 0.9, "epsilon": 1e-05, "center": true, "scale": true, "beta_initializer": {"class_name": "Zeros", "config": {}}, "gamma_initializer": {"class_name": "Ones", "config": {}}, "moving_mean_initializer": {"class_name": "Zeros", "config": {}}, "moving_variance_initializer": {"class_name": "Ones", "config": {}}, "beta_regularizer": null, "gamma_regularizer": null, "beta_constraint": null, "gamma_constraint": null}, "name": "batch_normalization_25", "inbound_nodes": [[["conv2d_16", 0, 0, {}]]]}, {"class_name": "DepthwiseConv2D", "config": {"name": "depthwise_conv2d_13", "trainable": true, "dtype": {"class_name": "Policy", "config": {"name": "mixed_float16"}}, "kernel_size": [3, 3], "strides": [1, 1], "padding": "same", "data_format": "channels_last", "dilation_rate": [1, 1], "groups": 1, "activation": "linear", "use_bias": false, "bias_initializer": {"class_name": "Zeros", "config": {}}, "bias_regularizer": null, "activity_regularizer": null, "bias_constraint": null, "depth_multiplier": 1, "depthwise_initializer": {"class_name": "GlorotUniform", "config": {"seed": null}}, "depthwise_regularizer": null, "depthwise_constraint": null}, "name": "depthwise_conv2d_13", "inbound_nodes": [[["batch_normalization_25", 0, 0, {}]]]}, {"class_name": "BatchNormalization", "config": {"name": "batch_normalization_26", "trainable": true, "dtype": {"class_name": "Policy", "config": {"name": "mixed_float16"}}, "axis": [3], "momentum": 0.9, "epsilon": 1e-05, "center": true, "scale": true, "beta_initializer": {"class_name": "Zeros", "config": {}}, "gamma_initializer": {"class_name": "Ones", "config": {}}, "moving_mean_initializer": {"class_name": "Zeros", "config": {}}, "moving_variance_initializer": {"class_name": "Ones", "config": {}}, "beta_regularizer": null, "gamma_regularizer": null, "beta_constraint": null, "gamma_constraint": null}, "name": "batch_normalization_26", "inbound_nodes": [[["depthwise_conv2d_13", 0, 0, {}]]]}, {"class_name": "Concatenate", "config": {"name": "concatenate_9", "trainable": true, "dtype": {"class_name": "Policy", "config": {"name": "mixed_float16"}}, "axis": -1}, "name": "concatenate_9", "inbound_nodes": [[["batch_normalization_25", 0, 0, {}], ["batch_normalization_26", 0, 0, {}]]]}, {"class_name": "Add", "config": {"name": "add_4", "trainable": true, "dtype": {"class_name": "Policy", "config": {"name": "mixed_float16"}}}, "name": "add_4", "inbound_nodes": [[["add_3", 0, 0, {}], ["concatenate_9", 0, 0, {}]]]}, {"class_name": "Conv2D", "config": {"name": "conv2d_17", "trainable": true, "dtype": {"class_name": "Policy", "config": {"name": "mixed_float16"}}, "filters": 156, "kernel_size": [1, 1], "strides": [1, 1], "padding": "same", "data_format": "channels_last", "dilation_rate": [1, 1], "groups": 1, "activation": "linear", "use_bias": false, "kernel_initializer": {"class_name": "GlorotUniform", "config": {"seed": null}}, "bias_initializer": {"class_name": "Zeros", "config": {}}, "kernel_regularizer": {"class_name": "L2", "config": {"l2": 0.0002500000118743628}}, "bias_regularizer": null, "activity_regularizer": null, "kernel_constraint": null, "bias_constraint": null}, "name": "conv2d_17", "inbound_nodes": [[["add_4", 0, 0, {}]]]}, {"class_name": "BatchNormalization", "config": {"name": "batch_normalization_27", "trainable": true, "dtype": {"class_name": "Policy", "config": {"name": "mixed_float16"}}, "axis": [3], "momentum": 0.9, "epsilon": 1e-05, "center": true, "scale": true, "beta_initializer": {"class_name": "Zeros", "config": {}}, "gamma_initializer": {"class_name": "Ones", "config": {}}, "moving_mean_initializer": {"class_name": "Zeros", "config": {}}, "moving_variance_initializer": {"class_name": "Ones", "config": {}}, "beta_regularizer": null, "gamma_regularizer": null, "beta_constraint": null, "gamma_constraint": null}, "name": "batch_normalization_27", "inbound_nodes": [[["conv2d_17", 0, 0, {}]]]}, {"class_name": "PReLU", "config": {"name": "activation_15", "trainable": true, "dtype": {"class_name": "Policy", "config": {"name": "mixed_float16"}}, "alpha_initializer": {"class_name": "Constant", "config": {"value": 0.25}}, "alpha_regularizer": null, "alpha_constraint": null, "shared_axes": [1, 2]}, "name": "activation_15", "inbound_nodes": [[["batch_normalization_27", 0, 0, {}]]]}, {"class_name": "DepthwiseConv2D", "config": {"name": "depthwise_conv2d_14", "trainable": true, "dtype": {"class_name": "Policy", "config": {"name": "mixed_float16"}}, "kernel_size": [3, 3], "strides": [1, 1], "padding": "same", "data_format": "channels_last", "dilation_rate": [1, 1], "groups": 1, "activation": "linear", "use_bias": false, "bias_initializer": {"class_name": "Zeros", "config": {}}, "bias_regularizer": null, "activity_regularizer": null, "bias_constraint": null, "depth_multiplier": 1, "depthwise_initializer": {"class_name": "GlorotUniform", "config": {"seed": null}}, "depthwise_regularizer": null, "depthwise_constraint": null}, "name": "depthwise_conv2d_14", "inbound_nodes": [[["activation_15", 0, 0, {}]]]}, {"class_name": "BatchNormalization", "config": {"name": "batch_normalization_28", "trainable": true, "dtype": {"class_name": "Policy", "config": {"name": "mixed_float16"}}, "axis": [3], "momentum": 0.9, "epsilon": 1e-05, "center": true, "scale": true, "beta_initializer": {"class_name": "Zeros", "config": {}}, "gamma_initializer": {"class_name": "Ones", "config": {}}, "moving_mean_initializer": {"class_name": "Zeros", "config": {}}, "moving_variance_initializer": {"class_name": "Ones", "config": {}}, "beta_regularizer": null, "gamma_regularizer": null, "beta_constraint": null, "gamma_constraint": null}, "name": "batch_normalization_28", "inbound_nodes": [[["depthwise_conv2d_14", 0, 0, {}]]]}, {"class_name": "PReLU", "config": {"name": "activation_16", "trainable": true, "dtype": {"class_name": "Policy", "config": {"name": "mixed_float16"}}, "alpha_initializer": {"class_name": "Constant", "config": {"value": 0.25}}, "alpha_regularizer": null, "alpha_constraint": null, "shared_axes": [1, 2]}, "name": "activation_16", "inbound_nodes": [[["batch_normalization_28", 0, 0, {}]]]}, {"class_name": "Concatenate", "config": {"name": "concatenate_10", "trainable": true, "dtype": {"class_name": "Policy", "config": {"name": "mixed_float16"}}, "axis": -1}, "name": "concatenate_10", "inbound_nodes": [[["activation_15", 0, 0, {}], ["activation_16", 0, 0, {}]]]}, {"class_name": "DepthwiseConv2D", "config": {"name": "depthwise_conv2d_15", "trainable": true, "dtype": {"class_name": "Policy", "config": {"name": "mixed_float16"}}, "kernel_size": [3, 3], "strides": [2, 2], "padding": "same", "data_format": "channels_last", "dilation_rate": [1, 1], "groups": 1, "activation": "linear", "use_bias": false, "bias_initializer": {"class_name": "Zeros", "config": {}}, "bias_regularizer": null, "activity_regularizer": null, "bias_constraint": null, "depth_multiplier": 1, "depthwise_initializer": {"class_name": "GlorotUniform", "config": {"seed": null}}, "depthwise_regularizer": null, "depthwise_constraint": null}, "name": "depthwise_conv2d_15", "inbound_nodes": [[["concatenate_10", 0, 0, {}]]]}, {"class_name": "BatchNormalization", "config": {"name": "batch_normalization_29", "trainable": true, "dtype": {"class_name": "Policy", "config": {"name": "mixed_float16"}}, "axis": [3], "momentum": 0.9, "epsilon": 1e-05, "center": true, "scale": true, "beta_initializer": {"class_name": "Zeros", "config": {}}, "gamma_initializer": {"class_name": "Ones", "config": {}}, "moving_mean_initializer": {"class_name": "Zeros", "config": {}}, "moving_variance_initializer": {"class_name": "Ones", "config": {}}, "beta_regularizer": null, "gamma_regularizer": null, "beta_constraint": null, "gamma_constraint": null}, "name": "batch_normalization_29", "inbound_nodes": [[["depthwise_conv2d_15", 0, 0, {}]]]}, {"class_name": "Conv2D", "config": {"name": "conv2d_18", "trainable": true, "dtype": {"class_name": "Policy", "config": {"name": "mixed_float16"}}, "filters": 52, "kernel_size": [1, 1], "strides": [1, 1], "padding": "same", "data_format": "channels_last", "dilation_rate": [1, 1], "groups": 1, "activation": "linear", "use_bias": false, "kernel_initializer": {"class_name": "GlorotUniform", "config": {"seed": null}}, "bias_initializer": {"class_name": "Zeros", "config": {}}, "kernel_regularizer": {"class_name": "L2", "config": {"l2": 0.0002500000118743628}}, "bias_regularizer": null, "activity_regularizer": null, "kernel_constraint": null, "bias_constraint": null}, "name": "conv2d_18", "inbound_nodes": [[["batch_normalization_29", 0, 0, {}]]]}, {"class_name": "DepthwiseConv2D", "config": {"name": "depthwise_conv2d_17", "trainable": true, "dtype": {"class_name": "Policy", "config": {"name": "mixed_float16"}}, "kernel_size": [3, 3], "strides": [2, 2], "padding": "same", "data_format": "channels_last", "dilation_rate": [1, 1], "groups": 1, "activation": "linear", "use_bias": false, "bias_initializer": {"class_name": "Zeros", "config": {}}, "bias_regularizer": null, "activity_regularizer": null, "bias_constraint": null, "depth_multiplier": 1, "depthwise_initializer": {"class_name": "GlorotUniform", "config": {"seed": null}}, "depthwise_regularizer": null, "depthwise_constraint": null}, "name": "depthwise_conv2d_17", "inbound_nodes": [[["add_4", 0, 0, {}]]]}, {"class_name": "BatchNormalization", "config": {"name": "batch_normalization_30", "trainable": true, "dtype": {"class_name": "Policy", "config": {"name": "mixed_float16"}}, "axis": [3], "momentum": 0.9, "epsilon": 1e-05, "center": true, "scale": true, "beta_initializer": {"class_name": "Zeros", "config": {}}, "gamma_initializer": {"class_name": "Ones", "config": {}}, "moving_mean_initializer": {"class_name": "Zeros", "config": {}}, "moving_variance_initializer": {"class_name": "Ones", "config": {}}, "beta_regularizer": null, "gamma_regularizer": null, "beta_constraint": null, "gamma_constraint": null}, "name": "batch_normalization_30", "inbound_nodes": [[["conv2d_18", 0, 0, {}]]]}, {"class_name": "BatchNormalization", "config": {"name": "batch_normalization_32", "trainable": true, "dtype": {"class_name": "Policy", "config": {"name": "mixed_float16"}}, "axis": [3], "momentum": 0.9, "epsilon": 1e-05, "center": true, "scale": true, "beta_initializer": {"class_name": "Zeros", "config": {}}, "gamma_initializer": {"class_name": "Ones", "config": {}}, "moving_mean_initializer": {"class_name": "Zeros", "config": {}}, "moving_variance_initializer": {"class_name": "Ones", "config": {}}, "beta_regularizer": null, "gamma_regularizer": null, "beta_constraint": null, "gamma_constraint": null}, "name": "batch_normalization_32", "inbound_nodes": [[["depthwise_conv2d_17", 0, 0, {}]]]}, {"class_name": "DepthwiseConv2D", "config": {"name": "depthwise_conv2d_16", "trainable": true, "dtype": {"class_name": "Policy", "config": {"name": "mixed_float16"}}, "kernel_size": [3, 3], "strides": [1, 1], "padding": "same", "data_format": "channels_last", "dilation_rate": [1, 1], "groups": 1, "activation": "linear", "use_bias": false, "bias_initializer": {"class_name": "Zeros", "config": {}}, "bias_regularizer": null, "activity_regularizer": null, "bias_constraint": null, "depth_multiplier": 1, "depthwise_initializer": {"class_name": "GlorotUniform", "config": {"seed": null}}, "depthwise_regularizer": null, "depthwise_constraint": null}, "name": "depthwise_conv2d_16", "inbound_nodes": [[["batch_normalization_30", 0, 0, {}]]]}, {"class_name": "Conv2D", "config": {"name": "conv2d_19", "trainable": true, "dtype": {"class_name": "Policy", "config": {"name": "mixed_float16"}}, "filters": 104, "kernel_size": [1, 1], "strides": [1, 1], "padding": "valid", "data_format": "channels_last", "dilation_rate": [1, 1], "groups": 1, "activation": "linear", "use_bias": false, "kernel_initializer": {"class_name": "GlorotUniform", "config": {"seed": null}}, "bias_initializer": {"class_name": "Zeros", "config": {}}, "kernel_regularizer": {"class_name": "L2", "config": {"l2": 0.0002500000118743628}}, "bias_regularizer": null, "activity_regularizer": null, "kernel_constraint": null, "bias_constraint": null}, "name": "conv2d_19", "inbound_nodes": [[["batch_normalization_32", 0, 0, {}]]]}, {"class_name": "BatchNormalization", "config": {"name": "batch_normalization_31", "trainable": true, "dtype": {"class_name": "Policy", "config": {"name": "mixed_float16"}}, "axis": [3], "momentum": 0.9, "epsilon": 1e-05, "center": true, "scale": true, "beta_initializer": {"class_name": "Zeros", "config": {}}, "gamma_initializer": {"class_name": "Ones", "config": {}}, "moving_mean_initializer": {"class_name": "Zeros", "config": {}}, "moving_variance_initializer": {"class_name": "Ones", "config": {}}, "beta_regularizer": null, "gamma_regularizer": null, "beta_constraint": null, "gamma_constraint": null}, "name": "batch_normalization_31", "inbound_nodes": [[["depthwise_conv2d_16", 0, 0, {}]]]}, {"class_name": "BatchNormalization", "config": {"name": "batch_normalization_33", "trainable": true, "dtype": {"class_name": "Policy", "config": {"name": "mixed_float16"}}, "axis": [3], "momentum": 0.9, "epsilon": 1e-05, "center": true, "scale": true, "beta_initializer": {"class_name": "Zeros", "config": {}}, "gamma_initializer": {"class_name": "Ones", "config": {}}, "moving_mean_initializer": {"class_name": "Zeros", "config": {}}, "moving_variance_initializer": {"class_name": "Ones", "config": {}}, "beta_regularizer": null, "gamma_regularizer": null, "beta_constraint": null, "gamma_constraint": null}, "name": "batch_normalization_33", "inbound_nodes": [[["conv2d_19", 0, 0, {}]]]}, {"class_name": "Concatenate", "config": {"name": "concatenate_11", "trainable": true, "dtype": {"class_name": "Policy", "config": {"name": "mixed_float16"}}, "axis": -1}, "name": "concatenate_11", "inbound_nodes": [[["batch_normalization_30", 0, 0, {}], ["batch_normalization_31", 0, 0, {}]]]}, {"class_name": "Add", "config": {"name": "add_5", "trainable": true, "dtype": {"class_name": "Policy", "config": {"name": "mixed_float16"}}}, "name": "add_5", "inbound_nodes": [[["batch_normalization_33", 0, 0, {}], ["concatenate_11", 0, 0, {}]]]}, {"class_name": "Conv2D", "config": {"name": "conv2d_20", "trainable": true, "dtype": {"class_name": "Policy", "config": {"name": "mixed_float16"}}, "filters": 130, "kernel_size": [1, 1], "strides": [1, 1], "padding": "same", "data_format": "channels_last", "dilation_rate": [1, 1], "groups": 1, "activation": "linear", "use_bias": false, "kernel_initializer": {"class_name": "GlorotUniform", "config": {"seed": null}}, "bias_initializer": {"class_name": "Zeros", "config": {}}, "kernel_regularizer": {"class_name": "L2", "config": {"l2": 0.0002500000118743628}}, "bias_regularizer": null, "activity_regularizer": null, "kernel_constraint": null, "bias_constraint": null}, "name": "conv2d_20", "inbound_nodes": [[["add_5", 0, 0, {}]]]}, {"class_name": "BatchNormalization", "config": {"name": "batch_normalization_34", "trainable": true, "dtype": {"class_name": "Policy", "config": {"name": "mixed_float16"}}, "axis": [3], "momentum": 0.9, "epsilon": 1e-05, "center": true, "scale": true, "beta_initializer": {"class_name": "Zeros", "config": {}}, "gamma_initializer": {"class_name": "Ones", "config": {}}, "moving_mean_initializer": {"class_name": "Zeros", "config": {}}, "moving_variance_initializer": {"class_name": "Ones", "config": {}}, "beta_regularizer": null, "gamma_regularizer": null, "beta_constraint": null, "gamma_constraint": null}, "name": "batch_normalization_34", "inbound_nodes": [[["conv2d_20", 0, 0, {}]]]}, {"class_name": "PReLU", "config": {"name": "activation_17", "trainable": true, "dtype": {"class_name": "Policy", "config": {"name": "mixed_float16"}}, "alpha_initializer": {"class_name": "Constant", "config": {"value": 0.25}}, "alpha_regularizer": null, "alpha_constraint": null, "shared_axes": [1, 2]}, "name": "activation_17", "inbound_nodes": [[["batch_normalization_34", 0, 0, {}]]]}, {"class_name": "DepthwiseConv2D", "config": {"name": "depthwise_conv2d_18", "trainable": true, "dtype": {"class_name": "Policy", "config": {"name": "mixed_float16"}}, "kernel_size": [3, 3], "strides": [1, 1], "padding": "same", "data_format": "channels_last", "dilation_rate": [1, 1], "groups": 1, "activation": "linear", "use_bias": false, "bias_initializer": {"class_name": "Zeros", "config": {}}, "bias_regularizer": null, "activity_regularizer": null, "bias_constraint": null, "depth_multiplier": 1, "depthwise_initializer": {"class_name": "GlorotUniform", "config": {"seed": null}}, "depthwise_regularizer": null, "depthwise_constraint": null}, "name": "depthwise_conv2d_18", "inbound_nodes": [[["activation_17", 0, 0, {}]]]}, {"class_name": "BatchNormalization", "config": {"name": "batch_normalization_35", "trainable": true, "dtype": {"class_name": "Policy", "config": {"name": "mixed_float16"}}, "axis": [3], "momentum": 0.9, "epsilon": 1e-05, "center": true, "scale": true, "beta_initializer": {"class_name": "Zeros", "config": {}}, "gamma_initializer": {"class_name": "Ones", "config": {}}, "moving_mean_initializer": {"class_name": "Zeros", "config": {}}, "moving_variance_initializer": {"class_name": "Ones", "config": {}}, "beta_regularizer": null, "gamma_regularizer": null, "beta_constraint": null, "gamma_constraint": null}, "name": "batch_normalization_35", "inbound_nodes": [[["depthwise_conv2d_18", 0, 0, {}]]]}, {"class_name": "PReLU", "config": {"name": "activation_18", "trainable": true, "dtype": {"class_name": "Policy", "config": {"name": "mixed_float16"}}, "alpha_initializer": {"class_name": "Constant", "config": {"value": 0.25}}, "alpha_regularizer": null, "alpha_constraint": null, "shared_axes": [1, 2]}, "name": "activation_18", "inbound_nodes": [[["batch_normalization_35", 0, 0, {}]]]}, {"class_name": "Concatenate", "config": {"name": "concatenate_12", "trainable": true, "dtype": {"class_name": "Policy", "config": {"name": "mixed_float16"}}, "axis": -1}, "name": "concatenate_12", "inbound_nodes": [[["activation_17", 0, 0, {}], ["activation_18", 0, 0, {}]]]}, {"class_name": "Conv2D", "config": {"name": "conv2d_21", "trainable": true, "dtype": {"class_name": "Policy", "config": {"name": "mixed_float16"}}, "filters": 52, "kernel_size": [1, 1], "strides": [1, 1], "padding": "same", "data_format": "channels_last", "dilation_rate": [1, 1], "groups": 1, "activation": "linear", "use_bias": false, "kernel_initializer": {"class_name": "GlorotUniform", "config": {"seed": null}}, "bias_initializer": {"class_name": "Zeros", "config": {}}, "kernel_regularizer": {"class_name": "L2", "config": {"l2": 0.0002500000118743628}}, "bias_regularizer": null, "activity_regularizer": null, "kernel_constraint": null, "bias_constraint": null}, "name": "conv2d_21", "inbound_nodes": [[["concatenate_12", 0, 0, {}]]]}, {"class_name": "BatchNormalization", "config": {"name": "batch_normalization_36", "trainable": true, "dtype": {"class_name": "Policy", "config": {"name": "mixed_float16"}}, "axis": [3], "momentum": 0.9, "epsilon": 1e-05, "center": true, "scale": true, "beta_initializer": {"class_name": "Zeros", "config": {}}, "gamma_initializer": {"class_name": "Ones", "config": {}}, "moving_mean_initializer": {"class_name": "Zeros", "config": {}}, "moving_variance_initializer": {"class_name": "Ones", "config": {}}, "beta_regularizer": null, "gamma_regularizer": null, "beta_constraint": null, "gamma_constraint": null}, "name": "batch_normalization_36", "inbound_nodes": [[["conv2d_21", 0, 0, {}]]]}, {"class_name": "DepthwiseConv2D", "config": {"name": "depthwise_conv2d_19", "trainable": true, "dtype": {"class_name": "Policy", "config": {"name": "mixed_float16"}}, "kernel_size": [3, 3], "strides": [1, 1], "padding": "same", "data_format": "channels_last", "dilation_rate": [1, 1], "groups": 1, "activation": "linear", "use_bias": false, "bias_initializer": {"class_name": "Zeros", "config": {}}, "bias_regularizer": null, "activity_regularizer": null, "bias_constraint": null, "depth_multiplier": 1, "depthwise_initializer": {"class_name": "GlorotUniform", "config": {"seed": null}}, "depthwise_regularizer": null, "depthwise_constraint": null}, "name": "depthwise_conv2d_19", "inbound_nodes": [[["batch_normalization_36", 0, 0, {}]]]}, {"class_name": "BatchNormalization", "config": {"name": "batch_normalization_37", "trainable": true, "dtype": {"class_name": "Policy", "config": {"name": "mixed_float16"}}, "axis": [3], "momentum": 0.9, "epsilon": 1e-05, "center": true, "scale": true, "beta_initializer": {"class_name": "Zeros", "config": {}}, "gamma_initializer": {"class_name": "Ones", "config": {}}, "moving_mean_initializer": {"class_name": "Zeros", "config": {}}, "moving_variance_initializer": {"class_name": "Ones", "config": {}}, "beta_regularizer": null, "gamma_regularizer": null, "beta_constraint": null, "gamma_constraint": null}, "name": "batch_normalization_37", "inbound_nodes": [[["depthwise_conv2d_19", 0, 0, {}]]]}, {"class_name": "Concatenate", "config": {"name": "concatenate_13", "trainable": true, "dtype": {"class_name": "Policy", "config": {"name": "mixed_float16"}}, "axis": -1}, "name": "concatenate_13", "inbound_nodes": [[["batch_normalization_36", 0, 0, {}], ["batch_normalization_37", 0, 0, {}]]]}, {"class_name": "Add", "config": {"name": "add_6", "trainable": true, "dtype": {"class_name": "Policy", "config": {"name": "mixed_float16"}}}, "name": "add_6", "inbound_nodes": [[["add_5", 0, 0, {}], ["concatenate_13", 0, 0, {}]]]}, {"class_name": "Conv2D", "config": {"name": "conv2d_22", "trainable": true, "dtype": {"class_name": "Policy", "config": {"name": "mixed_float16"}}, "filters": 120, "kernel_size": [1, 1], "strides": [1, 1], "padding": "same", "data_format": "channels_last", "dilation_rate": [1, 1], "groups": 1, "activation": "linear", "use_bias": false, "kernel_initializer": {"class_name": "GlorotUniform", "config": {"seed": null}}, "bias_initializer": {"class_name": "Zeros", "config": {}}, "kernel_regularizer": {"class_name": "L2", "config": {"l2": 0.0002500000118743628}}, "bias_regularizer": null, "activity_regularizer": null, "kernel_constraint": null, "bias_constraint": null}, "name": "conv2d_22", "inbound_nodes": [[["add_6", 0, 0, {}]]]}, {"class_name": "BatchNormalization", "config": {"name": "batch_normalization_38", "trainable": true, "dtype": {"class_name": "Policy", "config": {"name": "mixed_float16"}}, "axis": [3], "momentum": 0.9, "epsilon": 1e-05, "center": true, "scale": true, "beta_initializer": {"class_name": "Zeros", "config": {}}, "gamma_initializer": {"class_name": "Ones", "config": {}}, "moving_mean_initializer": {"class_name": "Zeros", "config": {}}, "moving_variance_initializer": {"class_name": "Ones", "config": {}}, "beta_regularizer": null, "gamma_regularizer": null, "beta_constraint": null, "gamma_constraint": null}, "name": "batch_normalization_38", "inbound_nodes": [[["conv2d_22", 0, 0, {}]]]}, {"class_name": "PReLU", "config": {"name": "activation_19", "trainable": true, "dtype": {"class_name": "Policy", "config": {"name": "mixed_float16"}}, "alpha_initializer": {"class_name": "Constant", "config": {"value": 0.25}}, "alpha_regularizer": null, "alpha_constraint": null, "shared_axes": [1, 2]}, "name": "activation_19", "inbound_nodes": [[["batch_normalization_38", 0, 0, {}]]]}, {"class_name": "DepthwiseConv2D", "config": {"name": "depthwise_conv2d_20", "trainable": true, "dtype": {"class_name": "Policy", "config": {"name": "mixed_float16"}}, "kernel_size": [3, 3], "strides": [1, 1], "padding": "same", "data_format": "channels_last", "dilation_rate": [1, 1], "groups": 1, "activation": "linear", "use_bias": false, "bias_initializer": {"class_name": "Zeros", "config": {}}, "bias_regularizer": null, "activity_regularizer": null, "bias_constraint": null, "depth_multiplier": 1, "depthwise_initializer": {"class_name": "GlorotUniform", "config": {"seed": null}}, "depthwise_regularizer": null, "depthwise_constraint": null}, "name": "depthwise_conv2d_20", "inbound_nodes": [[["activation_19", 0, 0, {}]]]}, {"class_name": "BatchNormalization", "config": {"name": "batch_normalization_39", "trainable": true, "dtype": {"class_name": "Policy", "config": {"name": "mixed_float16"}}, "axis": [3], "momentum": 0.9, "epsilon": 1e-05, "center": true, "scale": true, "beta_initializer": {"class_name": "Zeros", "config": {}}, "gamma_initializer": {"class_name": "Ones", "config": {}}, "moving_mean_initializer": {"class_name": "Zeros", "config": {}}, "moving_variance_initializer": {"class_name": "Ones", "config": {}}, "beta_regularizer": null, "gamma_regularizer": null, "beta_constraint": null, "gamma_constraint": null}, "name": "batch_normalization_39", "inbound_nodes": [[["depthwise_conv2d_20", 0, 0, {}]]]}, {"class_name": "PReLU", "config": {"name": "activation_20", "trainable": true, "dtype": {"class_name": "Policy", "config": {"name": "mixed_float16"}}, "alpha_initializer": {"class_name": "Constant", "config": {"value": 0.25}}, "alpha_regularizer": null, "alpha_constraint": null, "shared_axes": [1, 2]}, "name": "activation_20", "inbound_nodes": [[["batch_normalization_39", 0, 0, {}]]]}, {"class_name": "Concatenate", "config": {"name": "concatenate_14", "trainable": true, "dtype": {"class_name": "Policy", "config": {"name": "mixed_float16"}}, "axis": -1}, "name": "concatenate_14", "inbound_nodes": [[["activation_19", 0, 0, {}], ["activation_20", 0, 0, {}]]]}, {"class_name": "Conv2D", "config": {"name": "conv2d_23", "trainable": true, "dtype": {"class_name": "Policy", "config": {"name": "mixed_float16"}}, "filters": 52, "kernel_size": [1, 1], "strides": [1, 1], "padding": "same", "data_format": "channels_last", "dilation_rate": [1, 1], "groups": 1, "activation": "linear", "use_bias": false, "kernel_initializer": {"class_name": "GlorotUniform", "config": {"seed": null}}, "bias_initializer": {"class_name": "Zeros", "config": {}}, "kernel_regularizer": {"class_name": "L2", "config": {"l2": 0.0002500000118743628}}, "bias_regularizer": null, "activity_regularizer": null, "kernel_constraint": null, "bias_constraint": null}, "name": "conv2d_23", "inbound_nodes": [[["concatenate_14", 0, 0, {}]]]}, {"class_name": "BatchNormalization", "config": {"name": "batch_normalization_40", "trainable": true, "dtype": {"class_name": "Policy", "config": {"name": "mixed_float16"}}, "axis": [3], "momentum": 0.9, "epsilon": 1e-05, "center": true, "scale": true, "beta_initializer": {"class_name": "Zeros", "config": {}}, "gamma_initializer": {"class_name": "Ones", "config": {}}, "moving_mean_initializer": {"class_name": "Zeros", "config": {}}, "moving_variance_initializer": {"class_name": "Ones", "config": {}}, "beta_regularizer": null, "gamma_regularizer": null, "beta_constraint": null, "gamma_constraint": null}, "name": "batch_normalization_40", "inbound_nodes": [[["conv2d_23", 0, 0, {}]]]}, {"class_name": "DepthwiseConv2D", "config": {"name": "depthwise_conv2d_21", "trainable": true, "dtype": {"class_name": "Policy", "config": {"name": "mixed_float16"}}, "kernel_size": [3, 3], "strides": [1, 1], "padding": "same", "data_format": "channels_last", "dilation_rate": [1, 1], "groups": 1, "activation": "linear", "use_bias": false, "bias_initializer": {"class_name": "Zeros", "config": {}}, "bias_regularizer": null, "activity_regularizer": null, "bias_constraint": null, "depth_multiplier": 1, "depthwise_initializer": {"class_name": "GlorotUniform", "config": {"seed": null}}, "depthwise_regularizer": null, "depthwise_constraint": null}, "name": "depthwise_conv2d_21", "inbound_nodes": [[["batch_normalization_40", 0, 0, {}]]]}, {"class_name": "BatchNormalization", "config": {"name": "batch_normalization_41", "trainable": true, "dtype": {"class_name": "Policy", "config": {"name": "mixed_float16"}}, "axis": [3], "momentum": 0.9, "epsilon": 1e-05, "center": true, "scale": true, "beta_initializer": {"class_name": "Zeros", "config": {}}, "gamma_initializer": {"class_name": "Ones", "config": {}}, "moving_mean_initializer": {"class_name": "Zeros", "config": {}}, "moving_variance_initializer": {"class_name": "Ones", "config": {}}, "beta_regularizer": null, "gamma_regularizer": null, "beta_constraint": null, "gamma_constraint": null}, "name": "batch_normalization_41", "inbound_nodes": [[["depthwise_conv2d_21", 0, 0, {}]]]}, {"class_name": "Concatenate", "config": {"name": "concatenate_15", "trainable": true, "dtype": {"class_name": "Policy", "config": {"name": "mixed_float16"}}, "axis": -1}, "name": "concatenate_15", "inbound_nodes": [[["batch_normalization_40", 0, 0, {}], ["batch_normalization_41", 0, 0, {}]]]}, {"class_name": "Add", "config": {"name": "add_7", "trainable": true, "dtype": {"class_name": "Policy", "config": {"name": "mixed_float16"}}}, "name": "add_7", "inbound_nodes": [[["add_6", 0, 0, {}], ["concatenate_15", 0, 0, {}]]]}, {"class_name": "Conv2D", "config": {"name": "conv2d_24", "trainable": true, "dtype": {"class_name": "Policy", "config": {"name": "mixed_float16"}}, "filters": 120, "kernel_size": [1, 1], "strides": [1, 1], "padding": "same", "data_format": "channels_last", "dilation_rate": [1, 1], "groups": 1, "activation": "linear", "use_bias": false, "kernel_initializer": {"class_name": "GlorotUniform", "config": {"seed": null}}, "bias_initializer": {"class_name": "Zeros", "config": {}}, "kernel_regularizer": {"class_name": "L2", "config": {"l2": 0.0002500000118743628}}, "bias_regularizer": null, "activity_regularizer": null, "kernel_constraint": null, "bias_constraint": null}, "name": "conv2d_24", "inbound_nodes": [[["add_7", 0, 0, {}]]]}, {"class_name": "BatchNormalization", "config": {"name": "batch_normalization_42", "trainable": true, "dtype": {"class_name": "Policy", "config": {"name": "mixed_float16"}}, "axis": [3], "momentum": 0.9, "epsilon": 1e-05, "center": true, "scale": true, "beta_initializer": {"class_name": "Zeros", "config": {}}, "gamma_initializer": {"class_name": "Ones", "config": {}}, "moving_mean_initializer": {"class_name": "Zeros", "config": {}}, "moving_variance_initializer": {"class_name": "Ones", "config": {}}, "beta_regularizer": null, "gamma_regularizer": null, "beta_constraint": null, "gamma_constraint": null}, "name": "batch_normalization_42", "inbound_nodes": [[["conv2d_24", 0, 0, {}]]]}, {"class_name": "PReLU", "config": {"name": "activation_21", "trainable": true, "dtype": {"class_name": "Policy", "config": {"name": "mixed_float16"}}, "alpha_initializer": {"class_name": "Constant", "config": {"value": 0.25}}, "alpha_regularizer": null, "alpha_constraint": null, "shared_axes": [1, 2]}, "name": "activation_21", "inbound_nodes": [[["batch_normalization_42", 0, 0, {}]]]}, {"class_name": "DepthwiseConv2D", "config": {"name": "depthwise_conv2d_22", "trainable": true, "dtype": {"class_name": "Policy", "config": {"name": "mixed_float16"}}, "kernel_size": [3, 3], "strides": [1, 1], "padding": "same", "data_format": "channels_last", "dilation_rate": [1, 1], "groups": 1, "activation": "linear", "use_bias": false, "bias_initializer": {"class_name": "Zeros", "config": {}}, "bias_regularizer": null, "activity_regularizer": null, "bias_constraint": null, "depth_multiplier": 1, "depthwise_initializer": {"class_name": "GlorotUniform", "config": {"seed": null}}, "depthwise_regularizer": null, "depthwise_constraint": null}, "name": "depthwise_conv2d_22", "inbound_nodes": [[["activation_21", 0, 0, {}]]]}, {"class_name": "BatchNormalization", "config": {"name": "batch_normalization_43", "trainable": true, "dtype": {"class_name": "Policy", "config": {"name": "mixed_float16"}}, "axis": [3], "momentum": 0.9, "epsilon": 1e-05, "center": true, "scale": true, "beta_initializer": {"class_name": "Zeros", "config": {}}, "gamma_initializer": {"class_name": "Ones", "config": {}}, "moving_mean_initializer": {"class_name": "Zeros", "config": {}}, "moving_variance_initializer": {"class_name": "Ones", "config": {}}, "beta_regularizer": null, "gamma_regularizer": null, "beta_constraint": null, "gamma_constraint": null}, "name": "batch_normalization_43", "inbound_nodes": [[["depthwise_conv2d_22", 0, 0, {}]]]}, {"class_name": "PReLU", "config": {"name": "activation_22", "trainable": true, "dtype": {"class_name": "Policy", "config": {"name": "mixed_float16"}}, "alpha_initializer": {"class_name": "Constant", "config": {"value": 0.25}}, "alpha_regularizer": null, "alpha_constraint": null, "shared_axes": [1, 2]}, "name": "activation_22", "inbound_nodes": [[["batch_normalization_43", 0, 0, {}]]]}, {"class_name": "Concatenate", "config": {"name": "concatenate_16", "trainable": true, "dtype": {"class_name": "Policy", "config": {"name": "mixed_float16"}}, "axis": -1}, "name": "concatenate_16", "inbound_nodes": [[["activation_21", 0, 0, {}], ["activation_22", 0, 0, {}]]]}, {"class_name": "Conv2D", "config": {"name": "conv2d_25", "trainable": true, "dtype": {"class_name": "Policy", "config": {"name": "mixed_float16"}}, "filters": 52, "kernel_size": [1, 1], "strides": [1, 1], "padding": "same", "data_format": "channels_last", "dilation_rate": [1, 1], "groups": 1, "activation": "linear", "use_bias": false, "kernel_initializer": {"class_name": "GlorotUniform", "config": {"seed": null}}, "bias_initializer": {"class_name": "Zeros", "config": {}}, "kernel_regularizer": {"class_name": "L2", "config": {"l2": 0.0002500000118743628}}, "bias_regularizer": null, "activity_regularizer": null, "kernel_constraint": null, "bias_constraint": null}, "name": "conv2d_25", "inbound_nodes": [[["concatenate_16", 0, 0, {}]]]}, {"class_name": "BatchNormalization", "config": {"name": "batch_normalization_44", "trainable": true, "dtype": {"class_name": "Policy", "config": {"name": "mixed_float16"}}, "axis": [3], "momentum": 0.9, "epsilon": 1e-05, "center": true, "scale": true, "beta_initializer": {"class_name": "Zeros", "config": {}}, "gamma_initializer": {"class_name": "Ones", "config": {}}, "moving_mean_initializer": {"class_name": "Zeros", "config": {}}, "moving_variance_initializer": {"class_name": "Ones", "config": {}}, "beta_regularizer": null, "gamma_regularizer": null, "beta_constraint": null, "gamma_constraint": null}, "name": "batch_normalization_44", "inbound_nodes": [[["conv2d_25", 0, 0, {}]]]}, {"class_name": "DepthwiseConv2D", "config": {"name": "depthwise_conv2d_23", "trainable": true, "dtype": {"class_name": "Policy", "config": {"name": "mixed_float16"}}, "kernel_size": [3, 3], "strides": [1, 1], "padding": "same", "data_format": "channels_last", "dilation_rate": [1, 1], "groups": 1, "activation": "linear", "use_bias": false, "bias_initializer": {"class_name": "Zeros", "config": {}}, "bias_regularizer": null, "activity_regularizer": null, "bias_constraint": null, "depth_multiplier": 1, "depthwise_initializer": {"class_name": "GlorotUniform", "config": {"seed": null}}, "depthwise_regularizer": null, "depthwise_constraint": null}, "name": "depthwise_conv2d_23", "inbound_nodes": [[["batch_normalization_44", 0, 0, {}]]]}, {"class_name": "BatchNormalization", "config": {"name": "batch_normalization_45", "trainable": true, "dtype": {"class_name": "Policy", "config": {"name": "mixed_float16"}}, "axis": [3], "momentum": 0.9, "epsilon": 1e-05, "center": true, "scale": true, "beta_initializer": {"class_name": "Zeros", "config": {}}, "gamma_initializer": {"class_name": "Ones", "config": {}}, "moving_mean_initializer": {"class_name": "Zeros", "config": {}}, "moving_variance_initializer": {"class_name": "Ones", "config": {}}, "beta_regularizer": null, "gamma_regularizer": null, "beta_constraint": null, "gamma_constraint": null}, "name": "batch_normalization_45", "inbound_nodes": [[["depthwise_conv2d_23", 0, 0, {}]]]}, {"class_name": "Concatenate", "config": {"name": "concatenate_17", "trainable": true, "dtype": {"class_name": "Policy", "config": {"name": "mixed_float16"}}, "axis": -1}, "name": "concatenate_17", "inbound_nodes": [[["batch_normalization_44", 0, 0, {}], ["batch_normalization_45", 0, 0, {}]]]}, {"class_name": "Add", "config": {"name": "add_8", "trainable": true, "dtype": {"class_name": "Policy", "config": {"name": "mixed_float16"}}}, "name": "add_8", "inbound_nodes": [[["add_7", 0, 0, {}], ["concatenate_17", 0, 0, {}]]]}, {"class_name": "Conv2D", "config": {"name": "conv2d_26", "trainable": true, "dtype": {"class_name": "Policy", "config": {"name": "mixed_float16"}}, "filters": 312, "kernel_size": [1, 1], "strides": [1, 1], "padding": "same", "data_format": "channels_last", "dilation_rate": [1, 1], "groups": 1, "activation": "linear", "use_bias": false, "kernel_initializer": {"class_name": "GlorotUniform", "config": {"seed": null}}, "bias_initializer": {"class_name": "Zeros", "config": {}}, "kernel_regularizer": {"class_name": "L2", "config": {"l2": 0.0002500000118743628}}, "bias_regularizer": null, "activity_regularizer": null, "kernel_constraint": null, "bias_constraint": null}, "name": "conv2d_26", "inbound_nodes": [[["add_8", 0, 0, {}]]]}, {"class_name": "BatchNormalization", "config": {"name": "batch_normalization_46", "trainable": true, "dtype": {"class_name": "Policy", "config": {"name": "mixed_float16"}}, "axis": [3], "momentum": 0.9, "epsilon": 1e-05, "center": true, "scale": true, "beta_initializer": {"class_name": "Zeros", "config": {}}, "gamma_initializer": {"class_name": "Ones", "config": {}}, "moving_mean_initializer": {"class_name": "Zeros", "config": {}}, "moving_variance_initializer": {"class_name": "Ones", "config": {}}, "beta_regularizer": null, "gamma_regularizer": null, "beta_constraint": null, "gamma_constraint": null}, "name": "batch_normalization_46", "inbound_nodes": [[["conv2d_26", 0, 0, {}]]]}, {"class_name": "PReLU", "config": {"name": "activation_23", "trainable": true, "dtype": {"class_name": "Policy", "config": {"name": "mixed_float16"}}, "alpha_initializer": {"class_name": "Constant", "config": {"value": 0.25}}, "alpha_regularizer": null, "alpha_constraint": null, "shared_axes": [1, 2]}, "name": "activation_23", "inbound_nodes": [[["batch_normalization_46", 0, 0, {}]]]}, {"class_name": "DepthwiseConv2D", "config": {"name": "depthwise_conv2d_24", "trainable": true, "dtype": {"class_name": "Policy", "config": {"name": "mixed_float16"}}, "kernel_size": [3, 3], "strides": [1, 1], "padding": "same", "data_format": "channels_last", "dilation_rate": [1, 1], "groups": 1, "activation": "linear", "use_bias": false, "bias_initializer": {"class_name": "Zeros", "config": {}}, "bias_regularizer": null, "activity_regularizer": null, "bias_constraint": null, "depth_multiplier": 1, "depthwise_initializer": {"class_name": "GlorotUniform", "config": {"seed": null}}, "depthwise_regularizer": null, "depthwise_constraint": null}, "name": "depthwise_conv2d_24", "inbound_nodes": [[["activation_23", 0, 0, {}]]]}, {"class_name": "BatchNormalization", "config": {"name": "batch_normalization_47", "trainable": true, "dtype": {"class_name": "Policy", "config": {"name": "mixed_float16"}}, "axis": [3], "momentum": 0.9, "epsilon": 1e-05, "center": true, "scale": true, "beta_initializer": {"class_name": "Zeros", "config": {}}, "gamma_initializer": {"class_name": "Ones", "config": {}}, "moving_mean_initializer": {"class_name": "Zeros", "config": {}}, "moving_variance_initializer": {"class_name": "Ones", "config": {}}, "beta_regularizer": null, "gamma_regularizer": null, "beta_constraint": null, "gamma_constraint": null}, "name": "batch_normalization_47", "inbound_nodes": [[["depthwise_conv2d_24", 0, 0, {}]]]}, {"class_name": "PReLU", "config": {"name": "activation_24", "trainable": true, "dtype": {"class_name": "Policy", "config": {"name": "mixed_float16"}}, "alpha_initializer": {"class_name": "Constant", "config": {"value": 0.25}}, "alpha_regularizer": null, "alpha_constraint": null, "shared_axes": [1, 2]}, "name": "activation_24", "inbound_nodes": [[["batch_normalization_47", 0, 0, {}]]]}, {"class_name": "Concatenate", "config": {"name": "concatenate_18", "trainable": true, "dtype": {"class_name": "Policy", "config": {"name": "mixed_float16"}}, "axis": -1}, "name": "concatenate_18", "inbound_nodes": [[["activation_23", 0, 0, {}], ["activation_24", 0, 0, {}]]]}, {"class_name": "GlobalAveragePooling2D", "config": {"name": "global_average_pooling2d_2", "trainable": true, "dtype": {"class_name": "Policy", "config": {"name": "mixed_float16"}}, "data_format": "channels_last"}, "name": "global_average_pooling2d_2", "inbound_nodes": [[["concatenate_18", 0, 0, {}]]]}, {"class_name": "Reshape", "config": {"name": "reshape_2", "trainable": true, "dtype": {"class_name": "Policy", "config": {"name": "mixed_float16"}}, "target_shape": [1, 1, 624]}, "name": "reshape_2", "inbound_nodes": [[["global_average_pooling2d_2", 0, 0, {}]]]}, {"class_name": "Conv2D", "config": {"name": "conv2d_27", "trainable": true, "dtype": {"class_name": "Policy", "config": {"name": "mixed_float16"}}, "filters": 156, "kernel_size": [1, 1], "strides": [1, 1], "padding": "valid", "data_format": "channels_last", "dilation_rate": [1, 1], "groups": 1, "activation": "linear", "use_bias": true, "kernel_initializer": {"class_name": "GlorotUniform", "config": {"seed": null}}, "bias_initializer": {"class_name": "Zeros", "config": {}}, "kernel_regularizer": {"class_name": "L2", "config": {"l2": 0.0002500000118743628}}, "bias_regularizer": {"class_name": "L2", "config": {"l2": 0.0002500000118743628}}, "activity_regularizer": null, "kernel_constraint": null, "bias_constraint": null}, "name": "conv2d_27", "inbound_nodes": [[["reshape_2", 0, 0, {}]]]}, {"class_name": "PReLU", "config": {"name": "activation_25", "trainable": true, "dtype": {"class_name": "Policy", "config": {"name": "mixed_float16"}}, "alpha_initializer": {"class_name": "Constant", "config": {"value": 0.25}}, "alpha_regularizer": null, "alpha_constraint": null, "shared_axes": [1, 2]}, "name": "activation_25", "inbound_nodes": [[["conv2d_27", 0, 0, {}]]]}, {"class_name": "Conv2D", "config": {"name": "conv2d_28", "trainable": true, "dtype": {"class_name": "Policy", "config": {"name": "mixed_float16"}}, "filters": 624, "kernel_size": [1, 1], "strides": [1, 1], "padding": "valid", "data_format": "channels_last", "dilation_rate": [1, 1], "groups": 1, "activation": "linear", "use_bias": true, "kernel_initializer": {"class_name": "GlorotUniform", "config": {"seed": null}}, "bias_initializer": {"class_name": "Zeros", "config": {}}, "kernel_regularizer": {"class_name": "L2", "config": {"l2": 0.0002500000118743628}}, "bias_regularizer": {"class_name": "L2", "config": {"l2": 0.0002500000118743628}}, "activity_regularizer": null, "kernel_constraint": null, "bias_constraint": null}, "name": "conv2d_28", "inbound_nodes": [[["activation_25", 0, 0, {}]]]}, {"class_name": "Activation", "config": {"name": "activation_26", "trainable": true, "dtype": {"class_name": "Policy", "config": {"name": "mixed_float16"}}, "activation": "hard_sigmoid"}, "name": "activation_26", "inbound_nodes": [[["conv2d_28", 0, 0, {}]]]}, {"class_name": "Multiply", "config": {"name": "multiply_2", "trainable": true, "dtype": {"class_name": "Policy", "config": {"name": "mixed_float16"}}}, "name": "multiply_2", "inbound_nodes": [[["concatenate_18", 0, 0, {}], ["activation_26", 0, 0, {}]]]}, {"class_name": "Conv2D", "config": {"name": "conv2d_29", "trainable": true, "dtype": {"class_name": "Policy", "config": {"name": "mixed_float16"}}, "filters": 72, "kernel_size": [1, 1], "strides": [1, 1], "padding": "same", "data_format": "channels_last", "dilation_rate": [1, 1], "groups": 1, "activation": "linear", "use_bias": false, "kernel_initializer": {"class_name": "GlorotUniform", "config": {"seed": null}}, "bias_initializer": {"class_name": "Zeros", "config": {}}, "kernel_regularizer": {"class_name": "L2", "config": {"l2": 0.0002500000118743628}}, "bias_regularizer": null, "activity_regularizer": null, "kernel_constraint": null, "bias_constraint": null}, "name": "conv2d_29", "inbound_nodes": [[["multiply_2", 0, 0, {}]]]}, {"class_name": "DepthwiseConv2D", "config": {"name": "depthwise_conv2d_26", "trainable": true, "dtype": {"class_name": "Policy", "config": {"name": "mixed_float16"}}, "kernel_size": [3, 3], "strides": [1, 1], "padding": "same", "data_format": "channels_last", "dilation_rate": [1, 1], "groups": 1, "activation": "linear", "use_bias": false, "bias_initializer": {"class_name": "Zeros", "config": {}}, "bias_regularizer": null, "activity_regularizer": null, "bias_constraint": null, "depth_multiplier": 1, "depthwise_initializer": {"class_name": "GlorotUniform", "config": {"seed": null}}, "depthwise_regularizer": null, "depthwise_constraint": null}, "name": "depthwise_conv2d_26", "inbound_nodes": [[["add_8", 0, 0, {}]]]}, {"class_name": "BatchNormalization", "config": {"name": "batch_normalization_48", "trainable": true, "dtype": {"class_name": "Policy", "config": {"name": "mixed_float16"}}, "axis": [3], "momentum": 0.9, "epsilon": 1e-05, "center": true, "scale": true, "beta_initializer": {"class_name": "Zeros", "config": {}}, "gamma_initializer": {"class_name": "Ones", "config": {}}, "moving_mean_initializer": {"class_name": "Zeros", "config": {}}, "moving_variance_initializer": {"class_name": "Ones", "config": {}}, "beta_regularizer": null, "gamma_regularizer": null, "beta_constraint": null, "gamma_constraint": null}, "name": "batch_normalization_48", "inbound_nodes": [[["conv2d_29", 0, 0, {}]]]}, {"class_name": "BatchNormalization", "config": {"name": "batch_normalization_50", "trainable": true, "dtype": {"class_name": "Policy", "config": {"name": "mixed_float16"}}, "axis": [3], "momentum": 0.9, "epsilon": 1e-05, "center": true, "scale": true, "beta_initializer": {"class_name": "Zeros", "config": {}}, "gamma_initializer": {"class_name": "Ones", "config": {}}, "moving_mean_initializer": {"class_name": "Zeros", "config": {}}, "moving_variance_initializer": {"class_name": "Ones", "config": {}}, "beta_regularizer": null, "gamma_regularizer": null, "beta_constraint": null, "gamma_constraint": null}, "name": "batch_normalization_50", "inbound_nodes": [[["depthwise_conv2d_26", 0, 0, {}]]]}, {"class_name": "DepthwiseConv2D", "config": {"name": "depthwise_conv2d_25", "trainable": true, "dtype": {"class_name": "Policy", "config": {"name": "mixed_float16"}}, "kernel_size": [3, 3], "strides": [1, 1], "padding": "same", "data_format": "channels_last", "dilation_rate": [1, 1], "groups": 1, "activation": "linear", "use_bias": false, "bias_initializer": {"class_name": "Zeros", "config": {}}, "bias_regularizer": null, "activity_regularizer": null, "bias_constraint": null, "depth_multiplier": 1, "depthwise_initializer": {"class_name": "GlorotUniform", "config": {"seed": null}}, "depthwise_regularizer": null, "depthwise_constraint": null}, "name": "depthwise_conv2d_25", "inbound_nodes": [[["batch_normalization_48", 0, 0, {}]]]}, {"class_name": "Conv2D", "config": {"name": "conv2d_30", "trainable": true, "dtype": {"class_name": "Policy", "config": {"name": "mixed_float16"}}, "filters": 144, "kernel_size": [1, 1], "strides": [1, 1], "padding": "valid", "data_format": "channels_last", "dilation_rate": [1, 1], "groups": 1, "activation": "linear", "use_bias": false, "kernel_initializer": {"class_name": "GlorotUniform", "config": {"seed": null}}, "bias_initializer": {"class_name": "Zeros", "config": {}}, "kernel_regularizer": {"class_name": "L2", "config": {"l2": 0.0002500000118743628}}, "bias_regularizer": null, "activity_regularizer": null, "kernel_constraint": null, "bias_constraint": null}, "name": "conv2d_30", "inbound_nodes": [[["batch_normalization_50", 0, 0, {}]]]}, {"class_name": "BatchNormalization", "config": {"name": "batch_normalization_49", "trainable": true, "dtype": {"class_name": "Policy", "config": {"name": "mixed_float16"}}, "axis": [3], "momentum": 0.9, "epsilon": 1e-05, "center": true, "scale": true, "beta_initializer": {"class_name": "Zeros", "config": {}}, "gamma_initializer": {"class_name": "Ones", "config": {}}, "moving_mean_initializer": {"class_name": "Zeros", "config": {}}, "moving_variance_initializer": {"class_name": "Ones", "config": {}}, "beta_regularizer": null, "gamma_regularizer": null, "beta_constraint": null, "gamma_constraint": null}, "name": "batch_normalization_49", "inbound_nodes": [[["depthwise_conv2d_25", 0, 0, {}]]]}, {"class_name": "BatchNormalization", "config": {"name": "batch_normalization_51", "trainable": true, "dtype": {"class_name": "Policy", "config": {"name": "mixed_float16"}}, "axis": [3], "momentum": 0.9, "epsilon": 1e-05, "center": true, "scale": true, "beta_initializer": {"class_name": "Zeros", "config": {}}, "gamma_initializer": {"class_name": "Ones", "config": {}}, "moving_mean_initializer": {"class_name": "Zeros", "config": {}}, "moving_variance_initializer": {"class_name": "Ones", "config": {}}, "beta_regularizer": null, "gamma_regularizer": null, "beta_constraint": null, "gamma_constraint": null}, "name": "batch_normalization_51", "inbound_nodes": [[["conv2d_30", 0, 0, {}]]]}, {"class_name": "Concatenate", "config": {"name": "concatenate_19", "trainable": true, "dtype": {"class_name": "Policy", "config": {"name": "mixed_float16"}}, "axis": -1}, "name": "concatenate_19", "inbound_nodes": [[["batch_normalization_48", 0, 0, {}], ["batch_normalization_49", 0, 0, {}]]]}, {"class_name": "Add", "config": {"name": "add_9", "trainable": true, "dtype": {"class_name": "Policy", "config": {"name": "mixed_float16"}}}, "name": "add_9", "inbound_nodes": [[["batch_normalization_51", 0, 0, {}], ["concatenate_19", 0, 0, {}]]]}, {"class_name": "Conv2D", "config": {"name": "conv2d_31", "trainable": true, "dtype": {"class_name": "Policy", "config": {"name": "mixed_float16"}}, "filters": 436, "kernel_size": [1, 1], "strides": [1, 1], "padding": "same", "data_format": "channels_last", "dilation_rate": [1, 1], "groups": 1, "activation": "linear", "use_bias": false, "kernel_initializer": {"class_name": "GlorotUniform", "config": {"seed": null}}, "bias_initializer": {"class_name": "Zeros", "config": {}}, "kernel_regularizer": {"class_name": "L2", "config": {"l2": 0.0002500000118743628}}, "bias_regularizer": null, "activity_regularizer": null, "kernel_constraint": null, "bias_constraint": null}, "name": "conv2d_31", "inbound_nodes": [[["add_9", 0, 0, {}]]]}, {"class_name": "BatchNormalization", "config": {"name": "batch_normalization_52", "trainable": true, "dtype": {"class_name": "Policy", "config": {"name": "mixed_float16"}}, "axis": [3], "momentum": 0.9, "epsilon": 1e-05, "center": true, "scale": true, "beta_initializer": {"class_name": "Zeros", "config": {}}, "gamma_initializer": {"class_name": "Ones", "config": {}}, "moving_mean_initializer": {"class_name": "Zeros", "config": {}}, "moving_variance_initializer": {"class_name": "Ones", "config": {}}, "beta_regularizer": null, "gamma_regularizer": null, "beta_constraint": null, "gamma_constraint": null}, "name": "batch_normalization_52", "inbound_nodes": [[["conv2d_31", 0, 0, {}]]]}, {"class_name": "PReLU", "config": {"name": "activation_27", "trainable": true, "dtype": {"class_name": "Policy", "config": {"name": "mixed_float16"}}, "alpha_initializer": {"class_name": "Constant", "config": {"value": 0.25}}, "alpha_regularizer": null, "alpha_constraint": null, "shared_axes": [1, 2]}, "name": "activation_27", "inbound_nodes": [[["batch_normalization_52", 0, 0, {}]]]}, {"class_name": "DepthwiseConv2D", "config": {"name": "depthwise_conv2d_27", "trainable": true, "dtype": {"class_name": "Policy", "config": {"name": "mixed_float16"}}, "kernel_size": [3, 3], "strides": [1, 1], "padding": "same", "data_format": "channels_last", "dilation_rate": [1, 1], "groups": 1, "activation": "linear", "use_bias": false, "bias_initializer": {"class_name": "Zeros", "config": {}}, "bias_regularizer": null, "activity_regularizer": null, "bias_constraint": null, "depth_multiplier": 1, "depthwise_initializer": {"class_name": "GlorotUniform", "config": {"seed": null}}, "depthwise_regularizer": null, "depthwise_constraint": null}, "name": "depthwise_conv2d_27", "inbound_nodes": [[["activation_27", 0, 0, {}]]]}, {"class_name": "BatchNormalization", "config": {"name": "batch_normalization_53", "trainable": true, "dtype": {"class_name": "Policy", "config": {"name": "mixed_float16"}}, "axis": [3], "momentum": 0.9, "epsilon": 1e-05, "center": true, "scale": true, "beta_initializer": {"class_name": "Zeros", "config": {}}, "gamma_initializer": {"class_name": "Ones", "config": {}}, "moving_mean_initializer": {"class_name": "Zeros", "config": {}}, "moving_variance_initializer": {"class_name": "Ones", "config": {}}, "beta_regularizer": null, "gamma_regularizer": null, "beta_constraint": null, "gamma_constraint": null}, "name": "batch_normalization_53", "inbound_nodes": [[["depthwise_conv2d_27", 0, 0, {}]]]}, {"class_name": "PReLU", "config": {"name": "activation_28", "trainable": true, "dtype": {"class_name": "Policy", "config": {"name": "mixed_float16"}}, "alpha_initializer": {"class_name": "Constant", "config": {"value": 0.25}}, "alpha_regularizer": null, "alpha_constraint": null, "shared_axes": [1, 2]}, "name": "activation_28", "inbound_nodes": [[["batch_normalization_53", 0, 0, {}]]]}, {"class_name": "Concatenate", "config": {"name": "concatenate_20", "trainable": true, "dtype": {"class_name": "Policy", "config": {"name": "mixed_float16"}}, "axis": -1}, "name": "concatenate_20", "inbound_nodes": [[["activation_27", 0, 0, {}], ["activation_28", 0, 0, {}]]]}, {"class_name": "GlobalAveragePooling2D", "config": {"name": "global_average_pooling2d_3", "trainable": true, "dtype": {"class_name": "Policy", "config": {"name": "mixed_float16"}}, "data_format": "channels_last"}, "name": "global_average_pooling2d_3", "inbound_nodes": [[["concatenate_20", 0, 0, {}]]]}, {"class_name": "Reshape", "config": {"name": "reshape_3", "trainable": true, "dtype": {"class_name": "Policy", "config": {"name": "mixed_float16"}}, "target_shape": [1, 1, 872]}, "name": "reshape_3", "inbound_nodes": [[["global_average_pooling2d_3", 0, 0, {}]]]}, {"class_name": "Conv2D", "config": {"name": "conv2d_32", "trainable": true, "dtype": {"class_name": "Policy", "config": {"name": "mixed_float16"}}, "filters": 220, "kernel_size": [1, 1], "strides": [1, 1], "padding": "valid", "data_format": "channels_last", "dilation_rate": [1, 1], "groups": 1, "activation": "linear", "use_bias": true, "kernel_initializer": {"class_name": "GlorotUniform", "config": {"seed": null}}, "bias_initializer": {"class_name": "Zeros", "config": {}}, "kernel_regularizer": {"class_name": "L2", "config": {"l2": 0.0002500000118743628}}, "bias_regularizer": {"class_name": "L2", "config": {"l2": 0.0002500000118743628}}, "activity_regularizer": null, "kernel_constraint": null, "bias_constraint": null}, "name": "conv2d_32", "inbound_nodes": [[["reshape_3", 0, 0, {}]]]}, {"class_name": "PReLU", "config": {"name": "activation_29", "trainable": true, "dtype": {"class_name": "Policy", "config": {"name": "mixed_float16"}}, "alpha_initializer": {"class_name": "Constant", "config": {"value": 0.25}}, "alpha_regularizer": null, "alpha_constraint": null, "shared_axes": [1, 2]}, "name": "activation_29", "inbound_nodes": [[["conv2d_32", 0, 0, {}]]]}, {"class_name": "Conv2D", "config": {"name": "conv2d_33", "trainable": true, "dtype": {"class_name": "Policy", "config": {"name": "mixed_float16"}}, "filters": 872, "kernel_size": [1, 1], "strides": [1, 1], "padding": "valid", "data_format": "channels_last", "dilation_rate": [1, 1], "groups": 1, "activation": "linear", "use_bias": true, "kernel_initializer": {"class_name": "GlorotUniform", "config": {"seed": null}}, "bias_initializer": {"class_name": "Zeros", "config": {}}, "kernel_regularizer": {"class_name": "L2", "config": {"l2": 0.0002500000118743628}}, "bias_regularizer": {"class_name": "L2", "config": {"l2": 0.0002500000118743628}}, "activity_regularizer": null, "kernel_constraint": null, "bias_constraint": null}, "name": "conv2d_33", "inbound_nodes": [[["activation_29", 0, 0, {}]]]}, {"class_name": "Activation", "config": {"name": "activation_30", "trainable": true, "dtype": {"class_name": "Policy", "config": {"name": "mixed_float16"}}, "activation": "hard_sigmoid"}, "name": "activation_30", "inbound_nodes": [[["conv2d_33", 0, 0, {}]]]}, {"class_name": "Multiply", "config": {"name": "multiply_3", "trainable": true, "dtype": {"class_name": "Policy", "config": {"name": "mixed_float16"}}}, "name": "multiply_3", "inbound_nodes": [[["concatenate_20", 0, 0, {}], ["activation_30", 0, 0, {}]]]}, {"class_name": "Conv2D", "config": {"name": "conv2d_34", "trainable": true, "dtype": {"class_name": "Policy", "config": {"name": "mixed_float16"}}, "filters": 72, "kernel_size": [1, 1], "strides": [1, 1], "padding": "same", "data_format": "channels_last", "dilation_rate": [1, 1], "groups": 1, "activation": "linear", "use_bias": false, "kernel_initializer": {"class_name": "GlorotUniform", "config": {"seed": null}}, "bias_initializer": {"class_name": "Zeros", "config": {}}, "kernel_regularizer": {"class_name": "L2", "config": {"l2": 0.0002500000118743628}}, "bias_regularizer": null, "activity_regularizer": null, "kernel_constraint": null, "bias_constraint": null}, "name": "conv2d_34", "inbound_nodes": [[["multiply_3", 0, 0, {}]]]}, {"class_name": "BatchNormalization", "config": {"name": "batch_normalization_54", "trainable": true, "dtype": {"class_name": "Policy", "config": {"name": "mixed_float16"}}, "axis": [3], "momentum": 0.9, "epsilon": 1e-05, "center": true, "scale": true, "beta_initializer": {"class_name": "Zeros", "config": {}}, "gamma_initializer": {"class_name": "Ones", "config": {}}, "moving_mean_initializer": {"class_name": "Zeros", "config": {}}, "moving_variance_initializer": {"class_name": "Ones", "config": {}}, "beta_regularizer": null, "gamma_regularizer": null, "beta_constraint": null, "gamma_constraint": null}, "name": "batch_normalization_54", "inbound_nodes": [[["conv2d_34", 0, 0, {}]]]}, {"class_name": "DepthwiseConv2D", "config": {"name": "depthwise_conv2d_28", "trainable": true, "dtype": {"class_name": "Policy", "config": {"name": "mixed_float16"}}, "kernel_size": [3, 3], "strides": [1, 1], "padding": "same", "data_format": "channels_last", "dilation_rate": [1, 1], "groups": 1, "activation": "linear", "use_bias": false, "bias_initializer": {"class_name": "Zeros", "config": {}}, "bias_regularizer": null, "activity_regularizer": null, "bias_constraint": null, "depth_multiplier": 1, "depthwise_initializer": {"class_name": "GlorotUniform", "config": {"seed": null}}, "depthwise_regularizer": null, "depthwise_constraint": null}, "name": "depthwise_conv2d_28", "inbound_nodes": [[["batch_normalization_54", 0, 0, {}]]]}, {"class_name": "BatchNormalization", "config": {"name": "batch_normalization_55", "trainable": true, "dtype": {"class_name": "Policy", "config": {"name": "mixed_float16"}}, "axis": [3], "momentum": 0.9, "epsilon": 1e-05, "center": true, "scale": true, "beta_initializer": {"class_name": "Zeros", "config": {}}, "gamma_initializer": {"class_name": "Ones", "config": {}}, "moving_mean_initializer": {"class_name": "Zeros", "config": {}}, "moving_variance_initializer": {"class_name": "Ones", "config": {}}, "beta_regularizer": null, "gamma_regularizer": null, "beta_constraint": null, "gamma_constraint": null}, "name": "batch_normalization_55", "inbound_nodes": [[["depthwise_conv2d_28", 0, 0, {}]]]}, {"class_name": "Concatenate", "config": {"name": "concatenate_21", "trainable": true, "dtype": {"class_name": "Policy", "config": {"name": "mixed_float16"}}, "axis": -1}, "name": "concatenate_21", "inbound_nodes": [[["batch_normalization_54", 0, 0, {}], ["batch_normalization_55", 0, 0, {}]]]}, {"class_name": "Add", "config": {"name": "add_10", "trainable": true, "dtype": {"class_name": "Policy", "config": {"name": "mixed_float16"}}}, "name": "add_10", "inbound_nodes": [[["add_9", 0, 0, {}], ["concatenate_21", 0, 0, {}]]]}, {"class_name": "Conv2D", "config": {"name": "conv2d_35", "trainable": true, "dtype": {"class_name": "Policy", "config": {"name": "mixed_float16"}}, "filters": 436, "kernel_size": [1, 1], "strides": [1, 1], "padding": "same", "data_format": "channels_last", "dilation_rate": [1, 1], "groups": 1, "activation": "linear", "use_bias": false, "kernel_initializer": {"class_name": "GlorotUniform", "config": {"seed": null}}, "bias_initializer": {"class_name": "Zeros", "config": {}}, "kernel_regularizer": {"class_name": "L2", "config": {"l2": 0.0002500000118743628}}, "bias_regularizer": null, "activity_regularizer": null, "kernel_constraint": null, "bias_constraint": null}, "name": "conv2d_35", "inbound_nodes": [[["add_10", 0, 0, {}]]]}, {"class_name": "BatchNormalization", "config": {"name": "batch_normalization_56", "trainable": true, "dtype": {"class_name": "Policy", "config": {"name": "mixed_float16"}}, "axis": [3], "momentum": 0.9, "epsilon": 1e-05, "center": true, "scale": true, "beta_initializer": {"class_name": "Zeros", "config": {}}, "gamma_initializer": {"class_name": "Ones", "config": {}}, "moving_mean_initializer": {"class_name": "Zeros", "config": {}}, "moving_variance_initializer": {"class_name": "Ones", "config": {}}, "beta_regularizer": null, "gamma_regularizer": null, "beta_constraint": null, "gamma_constraint": null}, "name": "batch_normalization_56", "inbound_nodes": [[["conv2d_35", 0, 0, {}]]]}, {"class_name": "PReLU", "config": {"name": "activation_31", "trainable": true, "dtype": {"class_name": "Policy", "config": {"name": "mixed_float16"}}, "alpha_initializer": {"class_name": "Constant", "config": {"value": 0.25}}, "alpha_regularizer": null, "alpha_constraint": null, "shared_axes": [1, 2]}, "name": "activation_31", "inbound_nodes": [[["batch_normalization_56", 0, 0, {}]]]}, {"class_name": "DepthwiseConv2D", "config": {"name": "depthwise_conv2d_29", "trainable": true, "dtype": {"class_name": "Policy", "config": {"name": "mixed_float16"}}, "kernel_size": [3, 3], "strides": [1, 1], "padding": "same", "data_format": "channels_last", "dilation_rate": [1, 1], "groups": 1, "activation": "linear", "use_bias": false, "bias_initializer": {"class_name": "Zeros", "config": {}}, "bias_regularizer": null, "activity_regularizer": null, "bias_constraint": null, "depth_multiplier": 1, "depthwise_initializer": {"class_name": "GlorotUniform", "config": {"seed": null}}, "depthwise_regularizer": null, "depthwise_constraint": null}, "name": "depthwise_conv2d_29", "inbound_nodes": [[["activation_31", 0, 0, {}]]]}, {"class_name": "BatchNormalization", "config": {"name": "batch_normalization_57", "trainable": true, "dtype": {"class_name": "Policy", "config": {"name": "mixed_float16"}}, "axis": [3], "momentum": 0.9, "epsilon": 1e-05, "center": true, "scale": true, "beta_initializer": {"class_name": "Zeros", "config": {}}, "gamma_initializer": {"class_name": "Ones", "config": {}}, "moving_mean_initializer": {"class_name": "Zeros", "config": {}}, "moving_variance_initializer": {"class_name": "Ones", "config": {}}, "beta_regularizer": null, "gamma_regularizer": null, "beta_constraint": null, "gamma_constraint": null}, "name": "batch_normalization_57", "inbound_nodes": [[["depthwise_conv2d_29", 0, 0, {}]]]}, {"class_name": "PReLU", "config": {"name": "activation_32", "trainable": true, "dtype": {"class_name": "Policy", "config": {"name": "mixed_float16"}}, "alpha_initializer": {"class_name": "Constant", "config": {"value": 0.25}}, "alpha_regularizer": null, "alpha_constraint": null, "shared_axes": [1, 2]}, "name": "activation_32", "inbound_nodes": [[["batch_normalization_57", 0, 0, {}]]]}, {"class_name": "Concatenate", "config": {"name": "concatenate_22", "trainable": true, "dtype": {"class_name": "Policy", "config": {"name": "mixed_float16"}}, "axis": -1}, "name": "concatenate_22", "inbound_nodes": [[["activation_31", 0, 0, {}], ["activation_32", 0, 0, {}]]]}, {"class_name": "DepthwiseConv2D", "config": {"name": "depthwise_conv2d_30", "trainable": true, "dtype": {"class_name": "Policy", "config": {"name": "mixed_float16"}}, "kernel_size": [5, 5], "strides": [2, 2], "padding": "same", "data_format": "channels_last", "dilation_rate": [1, 1], "groups": 1, "activation": "linear", "use_bias": false, "bias_initializer": {"class_name": "Zeros", "config": {}}, "bias_regularizer": null, "activity_regularizer": null, "bias_constraint": null, "depth_multiplier": 1, "depthwise_initializer": {"class_name": "GlorotUniform", "config": {"seed": null}}, "depthwise_regularizer": null, "depthwise_constraint": null}, "name": "depthwise_conv2d_30", "inbound_nodes": [[["concatenate_22", 0, 0, {}]]]}, {"class_name": "BatchNormalization", "config": {"name": "batch_normalization_58", "trainable": true, "dtype": {"class_name": "Policy", "config": {"name": "mixed_float16"}}, "axis": [3], "momentum": 0.9, "epsilon": 1e-05, "center": true, "scale": true, "beta_initializer": {"class_name": "Zeros", "config": {}}, "gamma_initializer": {"class_name": "Ones", "config": {}}, "moving_mean_initializer": {"class_name": "Zeros", "config": {}}, "moving_variance_initializer": {"class_name": "Ones", "config": {}}, "beta_regularizer": null, "gamma_regularizer": null, "beta_constraint": null, "gamma_constraint": null}, "name": "batch_normalization_58", "inbound_nodes": [[["depthwise_conv2d_30", 0, 0, {}]]]}, {"class_name": "GlobalAveragePooling2D", "config": {"name": "global_average_pooling2d_4", "trainable": true, "dtype": {"class_name": "Policy", "config": {"name": "mixed_float16"}}, "data_format": "channels_last"}, "name": "global_average_pooling2d_4", "inbound_nodes": [[["batch_normalization_58", 0, 0, {}]]]}, {"class_name": "Reshape", "config": {"name": "reshape_4", "trainable": true, "dtype": {"class_name": "Policy", "config": {"name": "mixed_float16"}}, "target_shape": [1, 1, 872]}, "name": "reshape_4", "inbound_nodes": [[["global_average_pooling2d_4", 0, 0, {}]]]}, {"class_name": "Conv2D", "config": {"name": "conv2d_36", "trainable": true, "dtype": {"class_name": "Policy", "config": {"name": "mixed_float16"}}, "filters": 220, "kernel_size": [1, 1], "strides": [1, 1], "padding": "valid", "data_format": "channels_last", "dilation_rate": [1, 1], "groups": 1, "activation": "linear", "use_bias": true, "kernel_initializer": {"class_name": "GlorotUniform", "config": {"seed": null}}, "bias_initializer": {"class_name": "Zeros", "config": {}}, "kernel_regularizer": {"class_name": "L2", "config": {"l2": 0.0002500000118743628}}, "bias_regularizer": {"class_name": "L2", "config": {"l2": 0.0002500000118743628}}, "activity_regularizer": null, "kernel_constraint": null, "bias_constraint": null}, "name": "conv2d_36", "inbound_nodes": [[["reshape_4", 0, 0, {}]]]}, {"class_name": "PReLU", "config": {"name": "activation_33", "trainable": true, "dtype": {"class_name": "Policy", "config": {"name": "mixed_float16"}}, "alpha_initializer": {"class_name": "Constant", "config": {"value": 0.25}}, "alpha_regularizer": null, "alpha_constraint": null, "shared_axes": [1, 2]}, "name": "activation_33", "inbound_nodes": [[["conv2d_36", 0, 0, {}]]]}, {"class_name": "Conv2D", "config": {"name": "conv2d_37", "trainable": true, "dtype": {"class_name": "Policy", "config": {"name": "mixed_float16"}}, "filters": 872, "kernel_size": [1, 1], "strides": [1, 1], "padding": "valid", "data_format": "channels_last", "dilation_rate": [1, 1], "groups": 1, "activation": "linear", "use_bias": true, "kernel_initializer": {"class_name": "GlorotUniform", "config": {"seed": null}}, "bias_initializer": {"class_name": "Zeros", "config": {}}, "kernel_regularizer": {"class_name": "L2", "config": {"l2": 0.0002500000118743628}}, "bias_regularizer": {"class_name": "L2", "config": {"l2": 0.0002500000118743628}}, "activity_regularizer": null, "kernel_constraint": null, "bias_constraint": null}, "name": "conv2d_37", "inbound_nodes": [[["activation_33", 0, 0, {}]]]}, {"class_name": "Activation", "config": {"name": "activation_34", "trainable": true, "dtype": {"class_name": "Policy", "config": {"name": "mixed_float16"}}, "activation": "hard_sigmoid"}, "name": "activation_34", "inbound_nodes": [[["conv2d_37", 0, 0, {}]]]}, {"class_name": "Multiply", "config": {"name": "multiply_4", "trainable": true, "dtype": {"class_name": "Policy", "config": {"name": "mixed_float16"}}}, "name": "multiply_4", "inbound_nodes": [[["batch_normalization_58", 0, 0, {}], ["activation_34", 0, 0, {}]]]}, {"class_name": "Conv2D", "config": {"name": "conv2d_38", "trainable": true, "dtype": {"class_name": "Policy", "config": {"name": "mixed_float16"}}, "filters": 104, "kernel_size": [1, 1], "strides": [1, 1], "padding": "same", "data_format": "channels_last", "dilation_rate": [1, 1], "groups": 1, "activation": "linear", "use_bias": false, "kernel_initializer": {"class_name": "GlorotUniform", "config": {"seed": null}}, "bias_initializer": {"class_name": "Zeros", "config": {}}, "kernel_regularizer": {"class_name": "L2", "config": {"l2": 0.0002500000118743628}}, "bias_regularizer": null, "activity_regularizer": null, "kernel_constraint": null, "bias_constraint": null}, "name": "conv2d_38", "inbound_nodes": [[["multiply_4", 0, 0, {}]]]}, {"class_name": "DepthwiseConv2D", "config": {"name": "depthwise_conv2d_32", "trainable": true, "dtype": {"class_name": "Policy", "config": {"name": "mixed_float16"}}, "kernel_size": [5, 5], "strides": [2, 2], "padding": "same", "data_format": "channels_last", "dilation_rate": [1, 1], "groups": 1, "activation": "linear", "use_bias": false, "bias_initializer": {"class_name": "Zeros", "config": {}}, "bias_regularizer": null, "activity_regularizer": null, "bias_constraint": null, "depth_multiplier": 1, "depthwise_initializer": {"class_name": "GlorotUniform", "config": {"seed": null}}, "depthwise_regularizer": null, "depthwise_constraint": null}, "name": "depthwise_conv2d_32", "inbound_nodes": [[["add_10", 0, 0, {}]]]}, {"class_name": "BatchNormalization", "config": {"name": "batch_normalization_59", "trainable": true, "dtype": {"class_name": "Policy", "config": {"name": "mixed_float16"}}, "axis": [3], "momentum": 0.9, "epsilon": 1e-05, "center": true, "scale": true, "beta_initializer": {"class_name": "Zeros", "config": {}}, "gamma_initializer": {"class_name": "Ones", "config": {}}, "moving_mean_initializer": {"class_name": "Zeros", "config": {}}, "moving_variance_initializer": {"class_name": "Ones", "config": {}}, "beta_regularizer": null, "gamma_regularizer": null, "beta_constraint": null, "gamma_constraint": null}, "name": "batch_normalization_59", "inbound_nodes": [[["conv2d_38", 0, 0, {}]]]}, {"class_name": "BatchNormalization", "config": {"name": "batch_normalization_61", "trainable": true, "dtype": {"class_name": "Policy", "config": {"name": "mixed_float16"}}, "axis": [3], "momentum": 0.9, "epsilon": 1e-05, "center": true, "scale": true, "beta_initializer": {"class_name": "Zeros", "config": {}}, "gamma_initializer": {"class_name": "Ones", "config": {}}, "moving_mean_initializer": {"class_name": "Zeros", "config": {}}, "moving_variance_initializer": {"class_name": "Ones", "config": {}}, "beta_regularizer": null, "gamma_regularizer": null, "beta_constraint": null, "gamma_constraint": null}, "name": "batch_normalization_61", "inbound_nodes": [[["depthwise_conv2d_32", 0, 0, {}]]]}, {"class_name": "DepthwiseConv2D", "config": {"name": "depthwise_conv2d_31", "trainable": true, "dtype": {"class_name": "Policy", "config": {"name": "mixed_float16"}}, "kernel_size": [3, 3], "strides": [1, 1], "padding": "same", "data_format": "channels_last", "dilation_rate": [1, 1], "groups": 1, "activation": "linear", "use_bias": false, "bias_initializer": {"class_name": "Zeros", "config": {}}, "bias_regularizer": null, "activity_regularizer": null, "bias_constraint": null, "depth_multiplier": 1, "depthwise_initializer": {"class_name": "GlorotUniform", "config": {"seed": null}}, "depthwise_regularizer": null, "depthwise_constraint": null}, "name": "depthwise_conv2d_31", "inbound_nodes": [[["batch_normalization_59", 0, 0, {}]]]}, {"class_name": "Conv2D", "config": {"name": "conv2d_39", "trainable": true, "dtype": {"class_name": "Policy", "config": {"name": "mixed_float16"}}, "filters": 208, "kernel_size": [1, 1], "strides": [1, 1], "padding": "valid", "data_format": "channels_last", "dilation_rate": [1, 1], "groups": 1, "activation": "linear", "use_bias": false, "kernel_initializer": {"class_name": "GlorotUniform", "config": {"seed": null}}, "bias_initializer": {"class_name": "Zeros", "config": {}}, "kernel_regularizer": {"class_name": "L2", "config": {"l2": 0.0002500000118743628}}, "bias_regularizer": null, "activity_regularizer": null, "kernel_constraint": null, "bias_constraint": null}, "name": "conv2d_39", "inbound_nodes": [[["batch_normalization_61", 0, 0, {}]]]}, {"class_name": "BatchNormalization", "config": {"name": "batch_normalization_60", "trainable": true, "dtype": {"class_name": "Policy", "config": {"name": "mixed_float16"}}, "axis": [3], "momentum": 0.9, "epsilon": 1e-05, "center": true, "scale": true, "beta_initializer": {"class_name": "Zeros", "config": {}}, "gamma_initializer": {"class_name": "Ones", "config": {}}, "moving_mean_initializer": {"class_name": "Zeros", "config": {}}, "moving_variance_initializer": {"class_name": "Ones", "config": {}}, "beta_regularizer": null, "gamma_regularizer": null, "beta_constraint": null, "gamma_constraint": null}, "name": "batch_normalization_60", "inbound_nodes": [[["depthwise_conv2d_31", 0, 0, {}]]]}, {"class_name": "BatchNormalization", "config": {"name": "batch_normalization_62", "trainable": true, "dtype": {"class_name": "Policy", "config": {"name": "mixed_float16"}}, "axis": [3], "momentum": 0.9, "epsilon": 1e-05, "center": true, "scale": true, "beta_initializer": {"class_name": "Zeros", "config": {}}, "gamma_initializer": {"class_name": "Ones", "config": {}}, "moving_mean_initializer": {"class_name": "Zeros", "config": {}}, "moving_variance_initializer": {"class_name": "Ones", "config": {}}, "beta_regularizer": null, "gamma_regularizer": null, "beta_constraint": null, "gamma_constraint": null}, "name": "batch_normalization_62", "inbound_nodes": [[["conv2d_39", 0, 0, {}]]]}, {"class_name": "Concatenate", "config": {"name": "concatenate_23", "trainable": true, "dtype": {"class_name": "Policy", "config": {"name": "mixed_float16"}}, "axis": -1}, "name": "concatenate_23", "inbound_nodes": [[["batch_normalization_59", 0, 0, {}], ["batch_normalization_60", 0, 0, {}]]]}, {"class_name": "Add", "config": {"name": "add_11", "trainable": true, "dtype": {"class_name": "Policy", "config": {"name": "mixed_float16"}}}, "name": "add_11", "inbound_nodes": [[["batch_normalization_62", 0, 0, {}], ["concatenate_23", 0, 0, {}]]]}, {"class_name": "Conv2D", "config": {"name": "conv2d_40", "trainable": true, "dtype": {"class_name": "Policy", "config": {"name": "mixed_float16"}}, "filters": 624, "kernel_size": [1, 1], "strides": [1, 1], "padding": "same", "data_format": "channels_last", "dilation_rate": [1, 1], "groups": 1, "activation": "linear", "use_bias": false, "kernel_initializer": {"class_name": "GlorotUniform", "config": {"seed": null}}, "bias_initializer": {"class_name": "Zeros", "config": {}}, "kernel_regularizer": {"class_name": "L2", "config": {"l2": 0.0002500000118743628}}, "bias_regularizer": null, "activity_regularizer": null, "kernel_constraint": null, "bias_constraint": null}, "name": "conv2d_40", "inbound_nodes": [[["add_11", 0, 0, {}]]]}, {"class_name": "BatchNormalization", "config": {"name": "batch_normalization_63", "trainable": true, "dtype": {"class_name": "Policy", "config": {"name": "mixed_float16"}}, "axis": [3], "momentum": 0.9, "epsilon": 1e-05, "center": true, "scale": true, "beta_initializer": {"class_name": "Zeros", "config": {}}, "gamma_initializer": {"class_name": "Ones", "config": {}}, "moving_mean_initializer": {"class_name": "Zeros", "config": {}}, "moving_variance_initializer": {"class_name": "Ones", "config": {}}, "beta_regularizer": null, "gamma_regularizer": null, "beta_constraint": null, "gamma_constraint": null}, "name": "batch_normalization_63", "inbound_nodes": [[["conv2d_40", 0, 0, {}]]]}, {"class_name": "PReLU", "config": {"name": "activation_35", "trainable": true, "dtype": {"class_name": "Policy", "config": {"name": "mixed_float16"}}, "alpha_initializer": {"class_name": "Constant", "config": {"value": 0.25}}, "alpha_regularizer": null, "alpha_constraint": null, "shared_axes": [1, 2]}, "name": "activation_35", "inbound_nodes": [[["batch_normalization_63", 0, 0, {}]]]}, {"class_name": "DepthwiseConv2D", "config": {"name": "depthwise_conv2d_33", "trainable": true, "dtype": {"class_name": "Policy", "config": {"name": "mixed_float16"}}, "kernel_size": [3, 3], "strides": [1, 1], "padding": "same", "data_format": "channels_last", "dilation_rate": [1, 1], "groups": 1, "activation": "linear", "use_bias": false, "bias_initializer": {"class_name": "Zeros", "config": {}}, "bias_regularizer": null, "activity_regularizer": null, "bias_constraint": null, "depth_multiplier": 1, "depthwise_initializer": {"class_name": "GlorotUniform", "config": {"seed": null}}, "depthwise_regularizer": null, "depthwise_constraint": null}, "name": "depthwise_conv2d_33", "inbound_nodes": [[["activation_35", 0, 0, {}]]]}, {"class_name": "BatchNormalization", "config": {"name": "batch_normalization_64", "trainable": true, "dtype": {"class_name": "Policy", "config": {"name": "mixed_float16"}}, "axis": [3], "momentum": 0.9, "epsilon": 1e-05, "center": true, "scale": true, "beta_initializer": {"class_name": "Zeros", "config": {}}, "gamma_initializer": {"class_name": "Ones", "config": {}}, "moving_mean_initializer": {"class_name": "Zeros", "config": {}}, "moving_variance_initializer": {"class_name": "Ones", "config": {}}, "beta_regularizer": null, "gamma_regularizer": null, "beta_constraint": null, "gamma_constraint": null}, "name": "batch_normalization_64", "inbound_nodes": [[["depthwise_conv2d_33", 0, 0, {}]]]}, {"class_name": "PReLU", "config": {"name": "activation_36", "trainable": true, "dtype": {"class_name": "Policy", "config": {"name": "mixed_float16"}}, "alpha_initializer": {"class_name": "Constant", "config": {"value": 0.25}}, "alpha_regularizer": null, "alpha_constraint": null, "shared_axes": [1, 2]}, "name": "activation_36", "inbound_nodes": [[["batch_normalization_64", 0, 0, {}]]]}, {"class_name": "Concatenate", "config": {"name": "concatenate_24", "trainable": true, "dtype": {"class_name": "Policy", "config": {"name": "mixed_float16"}}, "axis": -1}, "name": "concatenate_24", "inbound_nodes": [[["activation_35", 0, 0, {}], ["activation_36", 0, 0, {}]]]}, {"class_name": "Conv2D", "config": {"name": "conv2d_41", "trainable": true, "dtype": {"class_name": "Policy", "config": {"name": "mixed_float16"}}, "filters": 104, "kernel_size": [1, 1], "strides": [1, 1], "padding": "same", "data_format": "channels_last", "dilation_rate": [1, 1], "groups": 1, "activation": "linear", "use_bias": false, "kernel_initializer": {"class_name": "GlorotUniform", "config": {"seed": null}}, "bias_initializer": {"class_name": "Zeros", "config": {}}, "kernel_regularizer": {"class_name": "L2", "config": {"l2": 0.0002500000118743628}}, "bias_regularizer": null, "activity_regularizer": null, "kernel_constraint": null, "bias_constraint": null}, "name": "conv2d_41", "inbound_nodes": [[["concatenate_24", 0, 0, {}]]]}, {"class_name": "BatchNormalization", "config": {"name": "batch_normalization_65", "trainable": true, "dtype": {"class_name": "Policy", "config": {"name": "mixed_float16"}}, "axis": [3], "momentum": 0.9, "epsilon": 1e-05, "center": true, "scale": true, "beta_initializer": {"class_name": "Zeros", "config": {}}, "gamma_initializer": {"class_name": "Ones", "config": {}}, "moving_mean_initializer": {"class_name": "Zeros", "config": {}}, "moving_variance_initializer": {"class_name": "Ones", "config": {}}, "beta_regularizer": null, "gamma_regularizer": null, "beta_constraint": null, "gamma_constraint": null}, "name": "batch_normalization_65", "inbound_nodes": [[["conv2d_41", 0, 0, {}]]]}, {"class_name": "DepthwiseConv2D", "config": {"name": "depthwise_conv2d_34", "trainable": true, "dtype": {"class_name": "Policy", "config": {"name": "mixed_float16"}}, "kernel_size": [3, 3], "strides": [1, 1], "padding": "same", "data_format": "channels_last", "dilation_rate": [1, 1], "groups": 1, "activation": "linear", "use_bias": false, "bias_initializer": {"class_name": "Zeros", "config": {}}, "bias_regularizer": null, "activity_regularizer": null, "bias_constraint": null, "depth_multiplier": 1, "depthwise_initializer": {"class_name": "GlorotUniform", "config": {"seed": null}}, "depthwise_regularizer": null, "depthwise_constraint": null}, "name": "depthwise_conv2d_34", "inbound_nodes": [[["batch_normalization_65", 0, 0, {}]]]}, {"class_name": "BatchNormalization", "config": {"name": "batch_normalization_66", "trainable": true, "dtype": {"class_name": "Policy", "config": {"name": "mixed_float16"}}, "axis": [3], "momentum": 0.9, "epsilon": 1e-05, "center": true, "scale": true, "beta_initializer": {"class_name": "Zeros", "config": {}}, "gamma_initializer": {"class_name": "Ones", "config": {}}, "moving_mean_initializer": {"class_name": "Zeros", "config": {}}, "moving_variance_initializer": {"class_name": "Ones", "config": {}}, "beta_regularizer": null, "gamma_regularizer": null, "beta_constraint": null, "gamma_constraint": null}, "name": "batch_normalization_66", "inbound_nodes": [[["depthwise_conv2d_34", 0, 0, {}]]]}, {"class_name": "Concatenate", "config": {"name": "concatenate_25", "trainable": true, "dtype": {"class_name": "Policy", "config": {"name": "mixed_float16"}}, "axis": -1}, "name": "concatenate_25", "inbound_nodes": [[["batch_normalization_65", 0, 0, {}], ["batch_normalization_66", 0, 0, {}]]]}, {"class_name": "Add", "config": {"name": "add_12", "trainable": true, "dtype": {"class_name": "Policy", "config": {"name": "mixed_float16"}}}, "name": "add_12", "inbound_nodes": [[["add_11", 0, 0, {}], ["concatenate_25", 0, 0, {}]]]}, {"class_name": "Conv2D", "config": {"name": "conv2d_42", "trainable": true, "dtype": {"class_name": "Policy", "config": {"name": "mixed_float16"}}, "filters": 624, "kernel_size": [1, 1], "strides": [1, 1], "padding": "same", "data_format": "channels_last", "dilation_rate": [1, 1], "groups": 1, "activation": "linear", "use_bias": false, "kernel_initializer": {"class_name": "GlorotUniform", "config": {"seed": null}}, "bias_initializer": {"class_name": "Zeros", "config": {}}, "kernel_regularizer": {"class_name": "L2", "config": {"l2": 0.0002500000118743628}}, "bias_regularizer": null, "activity_regularizer": null, "kernel_constraint": null, "bias_constraint": null}, "name": "conv2d_42", "inbound_nodes": [[["add_12", 0, 0, {}]]]}, {"class_name": "BatchNormalization", "config": {"name": "batch_normalization_67", "trainable": true, "dtype": {"class_name": "Policy", "config": {"name": "mixed_float16"}}, "axis": [3], "momentum": 0.9, "epsilon": 1e-05, "center": true, "scale": true, "beta_initializer": {"class_name": "Zeros", "config": {}}, "gamma_initializer": {"class_name": "Ones", "config": {}}, "moving_mean_initializer": {"class_name": "Zeros", "config": {}}, "moving_variance_initializer": {"class_name": "Ones", "config": {}}, "beta_regularizer": null, "gamma_regularizer": null, "beta_constraint": null, "gamma_constraint": null}, "name": "batch_normalization_67", "inbound_nodes": [[["conv2d_42", 0, 0, {}]]]}, {"class_name": "PReLU", "config": {"name": "activation_37", "trainable": true, "dtype": {"class_name": "Policy", "config": {"name": "mixed_float16"}}, "alpha_initializer": {"class_name": "Constant", "config": {"value": 0.25}}, "alpha_regularizer": null, "alpha_constraint": null, "shared_axes": [1, 2]}, "name": "activation_37", "inbound_nodes": [[["batch_normalization_67", 0, 0, {}]]]}, {"class_name": "DepthwiseConv2D", "config": {"name": "depthwise_conv2d_35", "trainable": true, "dtype": {"class_name": "Policy", "config": {"name": "mixed_float16"}}, "kernel_size": [3, 3], "strides": [1, 1], "padding": "same", "data_format": "channels_last", "dilation_rate": [1, 1], "groups": 1, "activation": "linear", "use_bias": false, "bias_initializer": {"class_name": "Zeros", "config": {}}, "bias_regularizer": null, "activity_regularizer": null, "bias_constraint": null, "depth_multiplier": 1, "depthwise_initializer": {"class_name": "GlorotUniform", "config": {"seed": null}}, "depthwise_regularizer": null, "depthwise_constraint": null}, "name": "depthwise_conv2d_35", "inbound_nodes": [[["activation_37", 0, 0, {}]]]}, {"class_name": "BatchNormalization", "config": {"name": "batch_normalization_68", "trainable": true, "dtype": {"class_name": "Policy", "config": {"name": "mixed_float16"}}, "axis": [3], "momentum": 0.9, "epsilon": 1e-05, "center": true, "scale": true, "beta_initializer": {"class_name": "Zeros", "config": {}}, "gamma_initializer": {"class_name": "Ones", "config": {}}, "moving_mean_initializer": {"class_name": "Zeros", "config": {}}, "moving_variance_initializer": {"class_name": "Ones", "config": {}}, "beta_regularizer": null, "gamma_regularizer": null, "beta_constraint": null, "gamma_constraint": null}, "name": "batch_normalization_68", "inbound_nodes": [[["depthwise_conv2d_35", 0, 0, {}]]]}, {"class_name": "PReLU", "config": {"name": "activation_38", "trainable": true, "dtype": {"class_name": "Policy", "config": {"name": "mixed_float16"}}, "alpha_initializer": {"class_name": "Constant", "config": {"value": 0.25}}, "alpha_regularizer": null, "alpha_constraint": null, "shared_axes": [1, 2]}, "name": "activation_38", "inbound_nodes": [[["batch_normalization_68", 0, 0, {}]]]}, {"class_name": "Concatenate", "config": {"name": "concatenate_26", "trainable": true, "dtype": {"class_name": "Policy", "config": {"name": "mixed_float16"}}, "axis": -1}, "name": "concatenate_26", "inbound_nodes": [[["activation_37", 0, 0, {}], ["activation_38", 0, 0, {}]]]}, {"class_name": "GlobalAveragePooling2D", "config": {"name": "global_average_pooling2d_5", "trainable": true, "dtype": {"class_name": "Policy", "config": {"name": "mixed_float16"}}, "data_format": "channels_last"}, "name": "global_average_pooling2d_5", "inbound_nodes": [[["concatenate_26", 0, 0, {}]]]}, {"class_name": "Reshape", "config": {"name": "reshape_5", "trainable": true, "dtype": {"class_name": "Policy", "config": {"name": "mixed_float16"}}, "target_shape": [1, 1, 1248]}, "name": "reshape_5", "inbound_nodes": [[["global_average_pooling2d_5", 0, 0, {}]]]}, {"class_name": "Conv2D", "config": {"name": "conv2d_43", "trainable": true, "dtype": {"class_name": "Policy", "config": {"name": "mixed_float16"}}, "filters": 312, "kernel_size": [1, 1], "strides": [1, 1], "padding": "valid", "data_format": "channels_last", "dilation_rate": [1, 1], "groups": 1, "activation": "linear", "use_bias": true, "kernel_initializer": {"class_name": "GlorotUniform", "config": {"seed": null}}, "bias_initializer": {"class_name": "Zeros", "config": {}}, "kernel_regularizer": {"class_name": "L2", "config": {"l2": 0.0002500000118743628}}, "bias_regularizer": {"class_name": "L2", "config": {"l2": 0.0002500000118743628}}, "activity_regularizer": null, "kernel_constraint": null, "bias_constraint": null}, "name": "conv2d_43", "inbound_nodes": [[["reshape_5", 0, 0, {}]]]}, {"class_name": "PReLU", "config": {"name": "activation_39", "trainable": true, "dtype": {"class_name": "Policy", "config": {"name": "mixed_float16"}}, "alpha_initializer": {"class_name": "Constant", "config": {"value": 0.25}}, "alpha_regularizer": null, "alpha_constraint": null, "shared_axes": [1, 2]}, "name": "activation_39", "inbound_nodes": [[["conv2d_43", 0, 0, {}]]]}, {"class_name": "Conv2D", "config": {"name": "conv2d_44", "trainable": true, "dtype": {"class_name": "Policy", "config": {"name": "mixed_float16"}}, "filters": 1248, "kernel_size": [1, 1], "strides": [1, 1], "padding": "valid", "data_format": "channels_last", "dilation_rate": [1, 1], "groups": 1, "activation": "linear", "use_bias": true, "kernel_initializer": {"class_name": "GlorotUniform", "config": {"seed": null}}, "bias_initializer": {"class_name": "Zeros", "config": {}}, "kernel_regularizer": {"class_name": "L2", "config": {"l2": 0.0002500000118743628}}, "bias_regularizer": {"class_name": "L2", "config": {"l2": 0.0002500000118743628}}, "activity_regularizer": null, "kernel_constraint": null, "bias_constraint": null}, "name": "conv2d_44", "inbound_nodes": [[["activation_39", 0, 0, {}]]]}, {"class_name": "Activation", "config": {"name": "activation_40", "trainable": true, "dtype": {"class_name": "Policy", "config": {"name": "mixed_float16"}}, "activation": "hard_sigmoid"}, "name": "activation_40", "inbound_nodes": [[["conv2d_44", 0, 0, {}]]]}, {"class_name": "Multiply", "config": {"name": "multiply_5", "trainable": true, "dtype": {"class_name": "Policy", "config": {"name": "mixed_float16"}}}, "name": "multiply_5", "inbound_nodes": [[["concatenate_26", 0, 0, {}], ["activation_40", 0, 0, {}]]]}, {"class_name": "Conv2D", "config": {"name": "conv2d_45", "trainable": true, "dtype": {"class_name": "Policy", "config": {"name": "mixed_float16"}}, "filters": 104, "kernel_size": [1, 1], "strides": [1, 1], "padding": "same", "data_format": "channels_last", "dilation_rate": [1, 1], "groups": 1, "activation": "linear", "use_bias": false, "kernel_initializer": {"class_name": "GlorotUniform", "config": {"seed": null}}, "bias_initializer": {"class_name": "Zeros", "config": {}}, "kernel_regularizer": {"class_name": "L2", "config": {"l2": 0.0002500000118743628}}, "bias_regularizer": null, "activity_regularizer": null, "kernel_constraint": null, "bias_constraint": null}, "name": "conv2d_45", "inbound_nodes": [[["multiply_5", 0, 0, {}]]]}, {"class_name": "BatchNormalization", "config": {"name": "batch_normalization_69", "trainable": true, "dtype": {"class_name": "Policy", "config": {"name": "mixed_float16"}}, "axis": [3], "momentum": 0.9, "epsilon": 1e-05, "center": true, "scale": true, "beta_initializer": {"class_name": "Zeros", "config": {}}, "gamma_initializer": {"class_name": "Ones", "config": {}}, "moving_mean_initializer": {"class_name": "Zeros", "config": {}}, "moving_variance_initializer": {"class_name": "Ones", "config": {}}, "beta_regularizer": null, "gamma_regularizer": null, "beta_constraint": null, "gamma_constraint": null}, "name": "batch_normalization_69", "inbound_nodes": [[["conv2d_45", 0, 0, {}]]]}, {"class_name": "DepthwiseConv2D", "config": {"name": "depthwise_conv2d_36", "trainable": true, "dtype": {"class_name": "Policy", "config": {"name": "mixed_float16"}}, "kernel_size": [3, 3], "strides": [1, 1], "padding": "same", "data_format": "channels_last", "dilation_rate": [1, 1], "groups": 1, "activation": "linear", "use_bias": false, "bias_initializer": {"class_name": "Zeros", "config": {}}, "bias_regularizer": null, "activity_regularizer": null, "bias_constraint": null, "depth_multiplier": 1, "depthwise_initializer": {"class_name": "GlorotUniform", "config": {"seed": null}}, "depthwise_regularizer": null, "depthwise_constraint": null}, "name": "depthwise_conv2d_36", "inbound_nodes": [[["batch_normalization_69", 0, 0, {}]]]}, {"class_name": "BatchNormalization", "config": {"name": "batch_normalization_70", "trainable": true, "dtype": {"class_name": "Policy", "config": {"name": "mixed_float16"}}, "axis": [3], "momentum": 0.9, "epsilon": 1e-05, "center": true, "scale": true, "beta_initializer": {"class_name": "Zeros", "config": {}}, "gamma_initializer": {"class_name": "Ones", "config": {}}, "moving_mean_initializer": {"class_name": "Zeros", "config": {}}, "moving_variance_initializer": {"class_name": "Ones", "config": {}}, "beta_regularizer": null, "gamma_regularizer": null, "beta_constraint": null, "gamma_constraint": null}, "name": "batch_normalization_70", "inbound_nodes": [[["depthwise_conv2d_36", 0, 0, {}]]]}, {"class_name": "Concatenate", "config": {"name": "concatenate_27", "trainable": true, "dtype": {"class_name": "Policy", "config": {"name": "mixed_float16"}}, "axis": -1}, "name": "concatenate_27", "inbound_nodes": [[["batch_normalization_69", 0, 0, {}], ["batch_normalization_70", 0, 0, {}]]]}, {"class_name": "Add", "config": {"name": "add_13", "trainable": true, "dtype": {"class_name": "Policy", "config": {"name": "mixed_float16"}}}, "name": "add_13", "inbound_nodes": [[["add_12", 0, 0, {}], ["concatenate_27", 0, 0, {}]]]}, {"class_name": "Conv2D", "config": {"name": "conv2d_46", "trainable": true, "dtype": {"class_name": "Policy", "config": {"name": "mixed_float16"}}, "filters": 624, "kernel_size": [1, 1], "strides": [1, 1], "padding": "same", "data_format": "channels_last", "dilation_rate": [1, 1], "groups": 1, "activation": "linear", "use_bias": false, "kernel_initializer": {"class_name": "GlorotUniform", "config": {"seed": null}}, "bias_initializer": {"class_name": "Zeros", "config": {}}, "kernel_regularizer": {"class_name": "L2", "config": {"l2": 0.0002500000118743628}}, "bias_regularizer": null, "activity_regularizer": null, "kernel_constraint": null, "bias_constraint": null}, "name": "conv2d_46", "inbound_nodes": [[["add_13", 0, 0, {}]]]}, {"class_name": "BatchNormalization", "config": {"name": "batch_normalization_71", "trainable": true, "dtype": {"class_name": "Policy", "config": {"name": "mixed_float16"}}, "axis": [3], "momentum": 0.9, "epsilon": 1e-05, "center": true, "scale": true, "beta_initializer": {"class_name": "Zeros", "config": {}}, "gamma_initializer": {"class_name": "Ones", "config": {}}, "moving_mean_initializer": {"class_name": "Zeros", "config": {}}, "moving_variance_initializer": {"class_name": "Ones", "config": {}}, "beta_regularizer": null, "gamma_regularizer": null, "beta_constraint": null, "gamma_constraint": null}, "name": "batch_normalization_71", "inbound_nodes": [[["conv2d_46", 0, 0, {}]]]}, {"class_name": "PReLU", "config": {"name": "activation_41", "trainable": true, "dtype": {"class_name": "Policy", "config": {"name": "mixed_float16"}}, "alpha_initializer": {"class_name": "Constant", "config": {"value": 0.25}}, "alpha_regularizer": null, "alpha_constraint": null, "shared_axes": [1, 2]}, "name": "activation_41", "inbound_nodes": [[["batch_normalization_71", 0, 0, {}]]]}, {"class_name": "DepthwiseConv2D", "config": {"name": "depthwise_conv2d_37", "trainable": true, "dtype": {"class_name": "Policy", "config": {"name": "mixed_float16"}}, "kernel_size": [3, 3], "strides": [1, 1], "padding": "same", "data_format": "channels_last", "dilation_rate": [1, 1], "groups": 1, "activation": "linear", "use_bias": false, "bias_initializer": {"class_name": "Zeros", "config": {}}, "bias_regularizer": null, "activity_regularizer": null, "bias_constraint": null, "depth_multiplier": 1, "depthwise_initializer": {"class_name": "GlorotUniform", "config": {"seed": null}}, "depthwise_regularizer": null, "depthwise_constraint": null}, "name": "depthwise_conv2d_37", "inbound_nodes": [[["activation_41", 0, 0, {}]]]}, {"class_name": "BatchNormalization", "config": {"name": "batch_normalization_72", "trainable": true, "dtype": {"class_name": "Policy", "config": {"name": "mixed_float16"}}, "axis": [3], "momentum": 0.9, "epsilon": 1e-05, "center": true, "scale": true, "beta_initializer": {"class_name": "Zeros", "config": {}}, "gamma_initializer": {"class_name": "Ones", "config": {}}, "moving_mean_initializer": {"class_name": "Zeros", "config": {}}, "moving_variance_initializer": {"class_name": "Ones", "config": {}}, "beta_regularizer": null, "gamma_regularizer": null, "beta_constraint": null, "gamma_constraint": null}, "name": "batch_normalization_72", "inbound_nodes": [[["depthwise_conv2d_37", 0, 0, {}]]]}, {"class_name": "PReLU", "config": {"name": "activation_42", "trainable": true, "dtype": {"class_name": "Policy", "config": {"name": "mixed_float16"}}, "alpha_initializer": {"class_name": "Constant", "config": {"value": 0.25}}, "alpha_regularizer": null, "alpha_constraint": null, "shared_axes": [1, 2]}, "name": "activation_42", "inbound_nodes": [[["batch_normalization_72", 0, 0, {}]]]}, {"class_name": "Concatenate", "config": {"name": "concatenate_28", "trainable": true, "dtype": {"class_name": "Policy", "config": {"name": "mixed_float16"}}, "axis": -1}, "name": "concatenate_28", "inbound_nodes": [[["activation_41", 0, 0, {}], ["activation_42", 0, 0, {}]]]}, {"class_name": "Conv2D", "config": {"name": "conv2d_47", "trainable": true, "dtype": {"class_name": "Policy", "config": {"name": "mixed_float16"}}, "filters": 104, "kernel_size": [1, 1], "strides": [1, 1], "padding": "same", "data_format": "channels_last", "dilation_rate": [1, 1], "groups": 1, "activation": "linear", "use_bias": false, "kernel_initializer": {"class_name": "GlorotUniform", "config": {"seed": null}}, "bias_initializer": {"class_name": "Zeros", "config": {}}, "kernel_regularizer": {"class_name": "L2", "config": {"l2": 0.0002500000118743628}}, "bias_regularizer": null, "activity_regularizer": null, "kernel_constraint": null, "bias_constraint": null}, "name": "conv2d_47", "inbound_nodes": [[["concatenate_28", 0, 0, {}]]]}, {"class_name": "BatchNormalization", "config": {"name": "batch_normalization_73", "trainable": true, "dtype": {"class_name": "Policy", "config": {"name": "mixed_float16"}}, "axis": [3], "momentum": 0.9, "epsilon": 1e-05, "center": true, "scale": true, "beta_initializer": {"class_name": "Zeros", "config": {}}, "gamma_initializer": {"class_name": "Ones", "config": {}}, "moving_mean_initializer": {"class_name": "Zeros", "config": {}}, "moving_variance_initializer": {"class_name": "Ones", "config": {}}, "beta_regularizer": null, "gamma_regularizer": null, "beta_constraint": null, "gamma_constraint": null}, "name": "batch_normalization_73", "inbound_nodes": [[["conv2d_47", 0, 0, {}]]]}, {"class_name": "DepthwiseConv2D", "config": {"name": "depthwise_conv2d_38", "trainable": true, "dtype": {"class_name": "Policy", "config": {"name": "mixed_float16"}}, "kernel_size": [3, 3], "strides": [1, 1], "padding": "same", "data_format": "channels_last", "dilation_rate": [1, 1], "groups": 1, "activation": "linear", "use_bias": false, "bias_initializer": {"class_name": "Zeros", "config": {}}, "bias_regularizer": null, "activity_regularizer": null, "bias_constraint": null, "depth_multiplier": 1, "depthwise_initializer": {"class_name": "GlorotUniform", "config": {"seed": null}}, "depthwise_regularizer": null, "depthwise_constraint": null}, "name": "depthwise_conv2d_38", "inbound_nodes": [[["batch_normalization_73", 0, 0, {}]]]}, {"class_name": "BatchNormalization", "config": {"name": "batch_normalization_74", "trainable": true, "dtype": {"class_name": "Policy", "config": {"name": "mixed_float16"}}, "axis": [3], "momentum": 0.9, "epsilon": 1e-05, "center": true, "scale": true, "beta_initializer": {"class_name": "Zeros", "config": {}}, "gamma_initializer": {"class_name": "Ones", "config": {}}, "moving_mean_initializer": {"class_name": "Zeros", "config": {}}, "moving_variance_initializer": {"class_name": "Ones", "config": {}}, "beta_regularizer": null, "gamma_regularizer": null, "beta_constraint": null, "gamma_constraint": null}, "name": "batch_normalization_74", "inbound_nodes": [[["depthwise_conv2d_38", 0, 0, {}]]]}, {"class_name": "Concatenate", "config": {"name": "concatenate_29", "trainable": true, "dtype": {"class_name": "Policy", "co…
, {"class_name": "Conv2D", "config": {"name": "conv2d_49", "trainable": true, "dtype": {"class_name": "Policy", "config": {"name": "mixed_float16"}}, "filters": 168, "kernel_size": [1, 1], "strides": [1, 1], "padding": "valid", "data_format": "channels_last", "dilation_rate": [1, 1], "groups": 1, "activation": "linear", "use_bias": true, "kernel_initializer": {"class_name": "GlorotUniform", "config": {"seed": null}}, "bias_initializer": {"class_name": "Zeros", "config": {}}, "kernel_regularizer": {"class_name": "L2", "config": {"l2": 0.0002500000118743628}}, "bias_regularizer": {"class_name": "L2", "config": {"l2": 0.0002500000118743628}}, "activity_regularizer": null, "kernel_constraint": null, "bias_constraint": null}, "name": "conv2d_49", "inbound_nodes": [[["reshape_6", 0, 0, {}]]]}, {"class_name": "PReLU", "config": {"name": "activation_45", "trainable": true, "dtype": {"class_name": "Policy", "config": {"name": "mixed_float16"}}, "alpha_initializer": {"class_name": "Constant", "config": {"value": 0.25}}, "alpha_regularizer": null, "alpha_constraint": null, "shared_axes": [1, 2]}, "name": "activation_45", "inbound_nodes": [[["conv2d_49", 0, 0, {}]]]}, {"class_name": "Conv2D", "config": {"name": "conv2d_50", "trainable": true, "dtype": {"class_name": "Policy", "config": {"name": "mixed_float16"}}, "filters": 664, "kernel_size": [1, 1], "strides": [1, 1], "padding": "valid", "data_format": "channels_last", "dilation_rate": [1, 1], "groups": 1, "activation": "linear", "use_bias": true, "kernel_initializer": {"class_name": "GlorotUniform", "config": {"seed": null}}, "bias_initializer": {"class_name": "Zeros", "config": {}}, "kernel_regularizer": {"class_name": "L2", "config": {"l2": 0.0002500000118743628}}, "bias_regularizer": {"class_name": "L2", "config": {"l2": 0.0002500000118743628}}, "activity_regularizer": null, "kernel_constraint": null, "bias_constraint": null}, "name": "conv2d_50", "inbound_nodes": [[["activation_45", 0, 0, {}]]]}, {"class_name": "Activation", "config": {"name": "activation_46", "trainable": true, "dtype": {"class_name": "Policy", "config": {"name": "mixed_float16"}}, "activation": "hard_sigmoid"}, "name": "activation_46", "inbound_nodes": [[["conv2d_50", 0, 0, {}]]]}, {"class_name": "Multiply", "config": {"name": "multiply_6", "trainable": true, "dtype": {"class_name": "Policy", "config": {"name": "mixed_float16"}}}, "name": "multiply_6", "inbound_nodes": [[["concatenate_30", 0, 0, {}], ["activation_46", 0, 0, {}]]]}, {"class_name": "Conv2D", "config": {"name": "conv2d_51", "trainable": true, "dtype": {"class_name": "Policy", "config": {"name": "mixed_float16"}}, "filters": 104, "kernel_size": [1, 1], "strides": [1, 1], "padding": "same", "data_format": "channels_last", "dilation_rate": [1, 1], "groups": 1, "activation": "linear", "use_bias": false, "kernel_initializer": {"class_name": "GlorotUniform", "config": {"seed": null}}, "bias_initializer": {"class_name": "Zeros", "config": {}}, "kernel_regularizer": {"class_name": "L2", "config": {"l2": 0.0002500000118743628}}, "bias_regularizer": null, "activity_regularizer": null, "kernel_constraint": null, "bias_constraint": null}, "name": "conv2d_51", "inbound_nodes": [[["multiply_6", 0, 0, {}]]]}, {"class_name": "BatchNormalization", "config": {"name": "batch_normalization_77", "trainable": true, "dtype": {"class_name": "Policy", "config": {"name": "mixed_float16"}}, "axis": [3], "momentum": 0.9, "epsilon": 1e-05, "center": true, "scale": true, "beta_initializer": {"class_name": "Zeros", "config": {}}, "gamma_initializer": {"class_name": "Ones", "config": {}}, "moving_mean_initializer": {"class_name": "Zeros", "config": {}}, "moving_variance_initializer": {"class_name": "Ones", "config": {}}, "beta_regularizer": null, "gamma_regularizer": null, "beta_constraint": null, "gamma_constraint": null}, "name": "batch_normalization_77", "inbound_nodes": [[["conv2d_51", 0, 0, {}]]]}, {"class_name": "DepthwiseConv2D", "config": {"name": "depthwise_conv2d_40", "trainable": true, "dtype": {"class_name": "Policy", "config": {"name": "mixed_float16"}}, "kernel_size": [3, 3], "strides": [1, 1], "padding": "same", "data_format": "channels_last", "dilation_rate": [1, 1], "groups": 1, "activation": "linear", "use_bias": false, "bias_initializer": {"class_name": "Zeros", "config": {}}, "bias_regularizer": null, "activity_regularizer": null, "bias_constraint": null, "depth_multiplier": 1, "depthwise_initializer": {"class_name": "GlorotUniform", "config": {"seed": null}}, "depthwise_regularizer": null, "depthwise_constraint": null}, "name": "depthwise_conv2d_40", "inbound_nodes": [[["batch_normalization_77", 0, 0, {}]]]}, {"class_name": "BatchNormalization", "config": {"name": "batch_normalization_78", "trainable": true, "dtype": {"class_name": "Policy", "config": {"name": "mixed_float16"}}, "axis": [3], "momentum": 0.9, "epsilon": 1e-05, "center": true, "scale": true, "beta_initializer": {"class_name": "Zeros", "config": {}}, "gamma_initializer": {"class_name": "Ones", "config": {}}, "moving_mean_initializer": {"class_name": "Zeros", "config": {}}, "moving_variance_initializer": {"class_name": "Ones", "config": {}}, "beta_regularizer": null, "gamma_regularizer": null, "beta_constraint": null, "gamma_constraint": null}, "name": "batch_normalization_78", "inbound_nodes": [[["depthwise_conv2d_40", 0, 0, {}]]]}, {"class_name": "Concatenate", "config": {"name": "concatenate_31", "trainable": true, "dtype": {"class_name": "Policy", "config": {"name": "mixed_float16"}}, "axis": -1}, "name": "concatenate_31", "inbound_nodes": [[["batch_normalization_77", 0, 0, {}], ["batch_normalization_78", 0, 0, {}]]]}, {"class_name": "Add", "config": {"name": "add_15", "trainable": true, "dtype": {"class_name": "Policy", "config": {"name": "mixed_float16"}}}, "name": "add_15", "inbound_nodes": [[["add_14", 0, 0, {}], ["concatenate_31", 0, 0, {}]]]}, {"class_name": "Conv2D", "config": {"name": "conv2d_52", "trainable": true, "dtype": {"class_name": "Policy", "config": {"name": "mixed_float16"}}, "filters": 664, "kernel_size": [1, 1], "strides": [1, 1], "padding": "valid", "data_format": "channels_last", "dilation_rate": [1, 1], "groups": 1, "activation": "linear", "use_bias": false, "kernel_initializer": {"class_name": "GlorotUniform", "config": {"seed": null}}, "bias_initializer": {"class_name": "Zeros", "config": {}}, "kernel_regularizer": {"class_name": "L2", "config": {"l2": 0.0002500000118743628}}, "bias_regularizer": null, "activity_regularizer": null, "kernel_constraint": null, "bias_constraint": null}, "name": "conv2d_52", "inbound_nodes": [[["add_15", 0, 0, {}]]]}, {"class_name": "BatchNormalization", "config": {"name": "batch_normalization_79", "trainable": true, "dtype": {"class_name": "Policy", "config": {"name": "mixed_float16"}}, "axis": [3], "momentum": 0.9, "epsilon": 1e-05, "center": true, "scale": true, "beta_initializer": {"class_name": "Zeros", "config": {}}, "gamma_initializer": {"class_name": "Ones", "config": {}}, "moving_mean_initializer": {"class_name": "Zeros", "config": {}}, "moving_variance_initializer": {"class_name": "Ones", "config": {}}, "beta_regularizer": null, "gamma_regularizer": null, "beta_constraint": null, "gamma_constraint": null}, "name": "batch_normalization_79", "inbound_nodes": [[["conv2d_52", 0, 0, {}]]]}, {"class_name": "PReLU", "config": {"name": "activation_47", "trainable": true, "dtype": {"class_name": "Policy", "config": {"name": "mixed_float16"}}, "alpha_initializer": {"class_name": "Constant", "config": {"value": 0.25}}, "alpha_regularizer": null, "alpha_constraint": null, "shared_axes": [1, 2]}, "name": "activation_47", "inbound_nodes": [[["batch_normalization_79", 0, 0, {}]]]}, {"class_name": "DepthwiseConv2D", "config": {"name": "depthwise_conv2d_41", "trainable": true, "dtype": {"class_name": "Policy", "config": {"name": "mixed_float16"}}, "kernel_size": [7, 7], "strides": [1, 1], "padding": "valid", "data_format": "channels_last", "dilation_rate": [1, 1], "groups": 1, "activation": "linear", "use_bias": false, "bias_initializer": {"class_name": "Zeros", "config": {}}, "bias_regularizer": null, "activity_regularizer": null, "bias_constraint": null, "depth_multiplier": 1, "depthwise_initializer": {"class_name": "GlorotUniform", "config": {"seed": null}}, "depthwise_regularizer": null, "depthwise_constraint": null}, "name": "depthwise_conv2d_41", "inbound_nodes": [[["activation_47", 0, 0, {}]]]}, {"class_name": "BatchNormalization", "config": {"name": "batch_normalization_80", "trainable": true, "dtype": {"class_name": "Policy", "config": {"name": "mixed_float16"}}, "axis": [3], "momentum": 0.9, "epsilon": 1e-05, "center": true, "scale": true, "beta_initializer": {"class_name": "Zeros", "config": {}}, "gamma_initializer": {"class_name": "Ones", "config": {}}, "moving_mean_initializer": {"class_name": "Zeros", "config": {}}, "moving_variance_initializer": {"class_name": "Ones", "config": {}}, "beta_regularizer": null, "gamma_regularizer": null, "beta_constraint": null, "gamma_constraint": null}, "name": "batch_normalization_80", "inbound_nodes": [[["depthwise_conv2d_41", 0, 0, {}]]]}, {"class_name": "Conv2D", "config": {"name": "conv2d_53", "trainable": true, "dtype": {"class_name": "Policy", "config": {"name": "mixed_float16"}}, "filters": 512, "kernel_size": [1, 1], "strides": [1, 1], "padding": "valid", "data_format": "channels_last", "dilation_rate": [1, 1], "groups": 1, "activation": "linear", "use_bias": true, "kernel_initializer": {"class_name": "GlorotNormal", "config": {"seed": null}}, "bias_initializer": {"class_name": "Zeros", "config": {}}, "kernel_regularizer": {"class_name": "L2", "config": {"l2": 0.0002500000118743628}}, "bias_regularizer": {"class_name": "L2", "config": {"l2": 0.0002500000118743628}}, "activity_regularizer": null, "kernel_constraint": null, "bias_constraint": null}, "name": "conv2d_53", "inbound_nodes": [[["batch_normalization_80", 0, 0, {}]]]}, {"class_name": "Flatten", "config": {"name": "flatten", "trainable": true, "dtype": {"class_name": "Policy", "config": {"name": "mixed_float16"}}, "data_format": "channels_last"}, "name": "flatten", "inbound_nodes": [[["conv2d_53", 0, 0, {}]]]}, {"class_name": "BatchNormalization", "config": {"name": "batch_normalization_81", "trainable": true, "dtype": {"class_name": "Policy", "config": {"name": "mixed_float16"}}, "axis": [1], "momentum": 0.9, "epsilon": 1e-05, "center": true, "scale": true, "beta_initializer": {"class_name": "Zeros", "config": {}}, "gamma_initializer": {"class_name": "Ones", "config": {}}, "moving_mean_initializer": {"class_name": "Zeros", "config": {}}, "moving_variance_initializer": {"class_name": "Ones", "config": {}}, "beta_regularizer": null, "gamma_regularizer": null, "beta_constraint": null, "gamma_constraint": null}, "name": "batch_normalization_81", "inbound_nodes": [[["flatten", 0, 0, {}]]]}, {"class_name": "Activation", "config": {"name": "embedding", "trainable": true, "dtype": "float32", "activation": "linear"}, "name": "embedding", "inbound_nodes": [[["batch_normalization_81", 0, 0, {}]]]}], "input_layers": [["input_1", 0, 0]], "output_layers": [["embedding", 0, 0]]}}}, "weightsManifest": [{"paths": ["group1-shard1of4.bin", "group1-shard2of4.bin", "group1-shard3of4.bin", "group1-shard4of4.bin"], "weights": [{"name": "activation/alpha", "shape": [1, 1, 20], "dtype": "float32"}, {"name": "activation_1/alpha", "shape": [1, 1, 10], "dtype": "float32"}, {"name": "activation_11/alpha", "shape": [1, 1, 78], "dtype": "float32"}, {"name": "activation_12/alpha", "shape": [1, 1, 78], "dtype": "float32"}, {"name": "activation_13/alpha", "shape": [1, 1, 40], "dtype": "float32"}, {"name": "activation_15/alpha", "shape": [1, 1, 156], "dtype": "float32"}, {"name": "activation_16/alpha", "shape": [1, 1, 156], "dtype": "float32"}, {"name": "activation_17/alpha", "shape": [1, 1, 130], "dtype": "float32"}, {"name": "activation_18/alpha", "shape": [1, 1, 130], "dtype": "float32"}, {"name": "activation_19/alpha", "shape": [1, 1, 120], "dtype": "float32"}, {"name": "activation_2/alpha", "shape": [1, 1, 10], "dtype": "float32"}, {"name": "activation_20/alpha", "shape": [1, 1, 120], "dtype": "float32"}, {"name": "activation_21/alpha", "shape": [1, 1, 120], "dtype": "float32"}, {"name": "activation_22/alpha", "shape": [1, 1, 120], "dtype": "float32"}, {"name": "activation_23/alpha", "shape": [1, 1, 312], "dtype": "float32"}, {"name": "activation_24/alpha", "shape": [1, 1, 312], "dtype": "float32"}, {"name": "activation_25/alpha", "shape": [1, 1, 156], "dtype": "float32"}, {"name": "activation_27/alpha", "shape": [1, 1, 436], "dtype": "float32"}, {"name": "activation_28/alpha", "shape": [1, 1, 436], "dtype": "float32"}, {"name": "activation_29/alpha", "shape": [1, 1, 220], "dtype": "float32"}, {"name": "activation_3/alpha", "shape": [1, 1, 32], "dtype": "float32"}, {"name": "activation_31/alpha", "shape": [1, 1, 436], "dtype": "float32"}, {"name": "activation_32/alpha", "shape": [1, 1, 436], "dtype": "float32"}, {"name": "activation_33/alpha", "shape": [1, 1, 220], "dtype": "float32"}, {"name": "activation_35/alpha", "shape": [1, 1, 624], "dtype": "float32"}, {"name": "activation_36/alpha", "shape": [1, 1, 624], "dtype": "float32"}, {"name": "activation_37/alpha", "shape": [1, 1, 624], "dtype": "float32"}, {"name": "activation_38/alpha", "shape": [1, 1, 624], "dtype": "float32"}, {"name": "activation_39/alpha", "shape": [1, 1, 312], "dtype": "float32"}, {"name": "activation_4/alpha", "shape": [1, 1, 32], "dtype": "float32"}, {"name": "activation_41/alpha", "shape": [1, 1, 624], "dtype": "float32"}, {"name": "activation_42/alpha", "shape": [1, 1, 624], "dtype": "float32"}, {"name": "activation_43/alpha", "shape": [1, 1, 332], "dtype": "float32"}, {"name": "activation_44/alpha", "shape": [1, 1, 332], "dtype": "float32"}, {"name": "activation_45/alpha", "shape": [1, 1, 168], "dtype": "float32"}, {"name": "activation_47/alpha", "shape": [1, 1, 664], "dtype": "float32"}, {"name": "activation_5/alpha", "shape": [1, 1, 46], "dtype": "float32"}, {"name": "activation_6/alpha", "shape": [1, 1, 46], "dtype": "float32"}, {"name": "activation_7/alpha", "shape": [1, 1, 46], "dtype": "float32"}, {"name": "activation_8/alpha", "shape": [1, 1, 46], "dtype": "float32"}, {"name": "activation_9/alpha", "shape": [1, 1, 24], "dtype": "float32"}, {"name": "batch_normalization/gamma", "shape": [20], "dtype": "float32"}, {"name": "batch_normalization/beta", "shape": [20], "dtype": "float32"}, {"name": "batch_normalization/moving_mean", "shape": [20], "dtype": "float32"}, {"name": "batch_normalization/moving_variance", "shape": [20], "dtype": "float32"}, {"name": "batch_normalization_1/gamma", "shape": [10], "dtype": "float32"}, {"name": "batch_normalization_1/beta", "shape": [10], "dtype": "float32"}, {"name": "batch_normalization_1/moving_mean", "shape": [10], "dtype": "float32"}, {"name": "batch_normalization_1/moving_variance", "shape": [10], "dtype": "float32"}, {"name": "batch_normalization_10/gamma", "shape": [20], "dtype": "float32"}, {"name": "batch_normalization_10/beta", "shape": [20], "dtype": "float32"}, {"name": "batch_normalization_10/moving_mean", "shape": [20], "dtype": "float32"}, {"name": "batch_normalization_10/moving_variance", "shape": [20], "dtype": "float32"}, {"name": "batch_normalization_11/gamma", "shape": [32], "dtype": "float32"}, {"name": "batch_normalization_11/beta", "shape": [32], "dtype": "float32"}, {"name": "batch_normalization_11/moving_mean", "shape": [32], "dtype": "float32"}, {"name": "batch_normalization_11/moving_variance", "shape": [32], "dtype": "float32"}, {"name": "batch_normalization_12/gamma", "shape": [46], "dtype": "float32"}, {"name": "batch_normalization_12/beta", "shape": [46], "dtype": "float32"}, {"name": "batch_normalization_12/moving_mean", "shape": [46], "dtype": "float32"}, {"name": "batch_normalization_12/moving_variance", "shape": [46], "dtype": "float32"}, {"name": "batch_normalization_13/gamma", "shape": [46], "dtype": "float32"}, {"name": "batch_normalization_13/beta", "shape": [46], "dtype": "float32"}, {"name": "batch_normalization_13/moving_mean", "shape": [46], "dtype": "float32"}, {"name": "batch_normalization_13/moving_variance", "shape": [46], "dtype": "float32"}, {"name": "batch_normalization_14/gamma", "shape": [16], "dtype": "float32"}, {"name": "batch_normalization_14/beta", "shape": [16], "dtype": "float32"}, {"name": "batch_normalization_14/moving_mean", "shape": [16], "dtype": "float32"}, {"name": "batch_normalization_14/moving_variance", "shape": [16], "dtype": "float32"}, {"name": "batch_normalization_15/gamma", "shape": [16], "dtype": "float32"}, {"name": "batch_normalization_15/beta", "shape": [16], "dtype": "float32"}, {"name": "batch_normalization_15/moving_mean", "shape": [16], "dtype": "float32"}, {"name": "batch_normalization_15/moving_variance", "shape": [16], "dtype": "float32"}, {"name": "batch_normalization_16/gamma", "shape": [46], "dtype": "float32"}, {"name": "batch_normalization_16/beta", "shape": [46], "dtype": "float32"}, {"name": "batch_normalization_16/moving_mean", "shape": [46], "dtype": "float32"}, {"name": "batch_normalization_16/moving_variance", "shape": [46], "dtype": "float32"}, {"name": "batch_normalization_17/gamma", "shape": [46], "dtype": "float32"}, {"name": "batch_normalization_17/beta", "shape": [46], "dtype": "float32"}, {"name": "batch_normalization_17/moving_mean", "shape": [46], "dtype": "float32"}, {"name": "batch_normalization_17/moving_variance", "shape": [46], "dtype": "float32"}, {"name": "batch_normalization_18/gamma", "shape": [92], "dtype": "float32"}, {"name": "batch_normalization_18/beta", "shape": [92], "dtype": "float32"}, {"name": "batch_normalization_18/moving_mean", "shape": [92], "dtype": "float32"}, {"name": "batch_normalization_18/moving_variance", "shape": [92], "dtype": "float32"}, {"name": "batch_normalization_19/gamma", "shape": [26], "dtype": "float32"}, {"name": "batch_normalization_19/beta", "shape": [26], "dtype": "float32"}, {"name": "batch_normalization_19/moving_mean", "shape": [26], "dtype": "float32"}, {"name": "batch_normalization_19/moving_variance", "shape": [26], "dtype": "float32"}, {"name": "batch_normalization_2/gamma", "shape": [10], "dtype": "float32"}, {"name": "batch_normalization_2/beta", "shape": [10], "dtype": "float32"}, {"name": "batch_normalization_2/moving_mean", "shape": [10], "dtype": "float32"}, {"name": "batch_normalization_2/moving_variance", "shape": [10], "dtype": "float32"}, {"name": "batch_normalization_20/gamma", "shape": [26], "dtype": "float32"}, {"name": "batch_normalization_20/beta", "shape": [26], "dtype": "float32"}, {"name": "batch_normalization_20/moving_mean", "shape": [26], "dtype": "float32"}, {"name": "batch_normalization_20/moving_variance", "shape": [26], "dtype": "float32"}, {"name": "batch_normalization_21/gamma", "shape": [32], "dtype": "float32"}, {"name": "batch_normalization_21/beta", "shape": [32], "dtype": "float32"}, {"name": "batch_normalization_21/moving_mean", "shape": [32], "dtype": "float32"}, {"name": "batch_normalization_21/moving_variance", "shape": [32], "dtype": "float32"}, {"name": "batch_normalization_22/gamma", "shape": [52], "dtype": "float32"}, {"name": "batch_normalization_22/beta", "shape": [52], "dtype": "float32"}, {"name": "batch_normalization_22/moving_mean", "shape": [52], "dtype": "float32"}, {"name": "batch_normalization_22/moving_variance", "shape": [52], "dtype": "float32"}, {"name": "batch_normalization_23/gamma", "shape": [78], "dtype": "float32"}, {"name": "batch_normalization_23/beta", "shape": [78], "dtype": "float32"}, {"name": "batch_normalization_23/moving_mean", "shape": [78], "dtype": "float32"}, {"name": "batch_normalization_23/moving_variance", "shape": [78], "dtype": "float32"}, {"name": "batch_normalization_24/gamma", "shape": [78], "dtype": "float32"}, {"name": "batch_normalization_24/beta", "shape": [78], "dtype": "float32"}, {"name": "batch_normalization_24/moving_mean", "shape": [78], "dtype": "float32"}, {"name": "batch_normalization_24/moving_variance", "shape": [78], "dtype": "float32"}, {"name": "batch_normalization_25/gamma", "shape": [26], "dtype": "float32"}, {"name": "batch_normalization_25/beta", "shape": [26], "dtype": "float32"}, {"name": "batch_normalization_25/moving_mean", "shape": [26], "dtype": "float32"}, {"name": "batch_normalization_25/moving_variance", "shape": [26], "dtype": "float32"}, {"name": "batch_normalization_26/gamma", "shape": [26], "dtype": "float32"}, {"name": "batch_normalization_26/beta", "shape": [26], "dtype": "float32"}, {"name": "batch_normalization_26/moving_mean", "shape": [26], "dtype": "float32"}, {"name": "batch_normalization_26/moving_variance", "shape": [26], "dtype": "float32"}, {"name": "batch_normalization_27/gamma", "shape": [156], "dtype": "float32"}, {"name": "batch_normalization_27/beta", "shape": [156], "dtype": "float32"}, {"name": "batch_normalization_27/moving_mean", "shape": [156], "dtype": "float32"}, {"name": "batch_normalization_27/moving_variance", "shape": [156], "dtype": "float32"}, {"name": "batch_normalization_28/gamma", "shape": [156], "dtype": "float32"}, {"name": "batch_normalization_28/beta", "shape": [156], "dtype": "float32"}, {"name": "batch_normalization_28/moving_mean", "shape": [156], "dtype": "float32"}, {"name": "batch_normalization_28/moving_variance", "shape": [156], "dtype": "float32"}, {"name": "batch_normalization_29/gamma", "shape": [312], "dtype": "float32"}, {"name": "batch_normalization_29/beta", "shape": [312], "dtype": "float32"}, {"name": "batch_normalization_29/moving_mean", "shape": [312], "dtype": "float32"}, {"name": "batch_normalization_29/moving_variance", "shape": [312], "dtype": "float32"}, {"name": "batch_normalization_3/gamma", "shape": [10], "dtype": "float32"}, {"name": "batch_normalization_3/beta", "shape": [10], "dtype": "float32"}, {"name": "batch_normalization_3/moving_mean", "shape": [10], "dtype": "float32"}, {"name": "batch_normalization_3/moving_variance", "shape": [10], "dtype": "float32"}, {"name": "batch_normalization_30/gamma", "shape": [52], "dtype": "float32"}, {"name": "batch_normalization_30/beta", "shape": [52], "dtype": "float32"}, {"name": "batch_normalization_30/moving_mean", "shape": [52], "dtype": "float32"}, {"name": "batch_normalization_30/moving_variance", "shape": [52], "dtype": "float32"}, {"name": "batch_normalization_31/gamma", "shape": [52], "dtype": "float32"}, {"name": "batch_normalization_31/beta", "shape": [52], "dtype": "float32"}, {"name": "batch_normalization_31/moving_mean", "shape": [52], "dtype": "float32"}, {"name": "batch_normalization_31/moving_variance", "shape": [52], "dtype": "float32"}, {"name": "batch_normalization_32/gamma", "shape": [52], "dtype": "float32"}, {"name": "batch_normalization_32/beta", "shape": [52], "dtype": "float32"}, {"name": "batch_normalization_32/moving_mean", "shape": [52], "dtype": "float32"}, {"name": "batch_normalization_32/moving_variance", "shape": [52], "dtype": "float32"}, {"name": "batch_normalization_33/gamma", "shape": [104], "dtype": "float32"}, {"name": "batch_normalization_33/beta", "shape": [104], "dtype": "float32"}, {"name": "batch_normalization_33/moving_mean", "shape": [104], "dtype": "float32"}, {"name": "batch_normalization_33/moving_variance", "shape": [104], "dtype": "float32"}, {"name": "batch_normalization_34/gamma", "shape": [130], "dtype": "float32"}, {"name": "batch_normalization_34/beta", "shape": [130], "dtype": "float32"}, {"name": "batch_normalization_34/moving_mean", "shape": [130], "dtype": "float32"}, {"name": "batch_normalization_34/moving_variance", "shape": [130], "dtype": "float32"}, {"name": "batch_normalization_35/gamma", "shape": [130], "dtype": "float32"}, {"name": "batch_normalization_35/beta", "shape": [130], "dtype": "float32"}, {"name": "batch_normalization_35/moving_mean", "shape": [130], "dtype": "float32"}, {"name": "batch_normalization_35/moving_variance", "shape": [130], "dtype": "float32"}, {"name": "batch_normalization_36/gamma", "shape": [52], "dtype": "float32"}, {"name": "batch_normalization_36/beta", "shape": [52], "dtype": "float32"}, {"name": "batch_normalization_36/moving_mean", "shape": [52], "dtype": "float32"}, {"name": "batch_normalization_36/moving_variance", "shape": [52], "dtype": "float32"}, {"name": "batch_normalization_37/gamma", "shape": [52], "dtype": "float32"}, {"name": "batch_normalization_37/beta", "shape": [52], "dtype": "float32"}, {"name": "batch_normalization_37/moving_mean", "shape": [52], "dtype": "float32"}, {"name": "batch_normalization_37/moving_variance", "shape": [52], "dtype": "float32"}, {"name": "batch_normalization_38/gamma", "shape": [120], "dtype": "float32"}, {"name": "batch_normalization_38/beta", "shape": [120], "dtype": "float32"}, {"name": "batch_normalization_38/moving_mean", "shape": [120], "dtype": "float32"}, {"name": "batch_normalization_38/moving_variance", "shape": [120], "dtype": "float32"}, {"name": "batch_normalization_39/gamma", "shape": [120], "dtype": "float32"}, {"name": "batch_normalization_39/beta", "shape": [120], "dtype": "float32"}, {"name": "batch_normalization_39/moving_mean", "shape": [120], "dtype": "float32"}, {"name": "batch_normalization_39/moving_variance", "shape": [120], "dtype": "float32"}, {"name": "batch_normalization_4/gamma", "shape": [10], "dtype": "float32"}, {"name": "batch_normalization_4/beta", "shape": [10], "dtype": "float32"}, {"name": "batch_normalization_4/moving_mean", "shape": [10], "dtype": "float32"}, {"name": "batch_normalization_4/moving_variance", "shape": [10], "dtype": "float32"}, {"name": "batch_normalization_40/gamma", "shape": [52], "dtype": "float32"}, {"name": "batch_normalization_40/beta", "shape": [52], "dtype": "float32"}, {"name": "batch_normalization_40/moving_mean", "shape": [52], "dtype": "float32"}, {"name": "batch_normalization_40/moving_variance", "shape": [52], "dtype": "float32"}, {"name": "batch_normalization_41/gamma", "shape": [52], "dtype": "float32"}, {"name": "batch_normalization_41/beta", "shape": [52], "dtype": "float32"}, {"name": "batch_normalization_41/moving_mean", "shape": [52], "dtype": "float32"}, {"name": "batch_normalization_41/moving_variance", "shape": [52], "dtype": "float32"}, {"name": "batch_normalization_42/gamma", "shape": [120], "dtype": "float32"}, {"name": "batch_normalization_42/beta", "shape": [120], "dtype": "float32"}, {"name": "batch_normalization_42/moving_mean", "shape": [120], "dtype": "float32"}, {"name": "batch_normalization_42/moving_variance", "shape": [120], "dtype": "float32"}, {"name": "batch_normalization_43/gamma", "shape": [120], "dtype": "float32"}, {"name": "batch_normalization_43/beta", "shape": [120], "dtype": "float32"}, {"name": "batch_normalization_43/moving_mean", "shape": [120], "dtype": "float32"}, {"name": "batch_normalization_43/moving_variance", "shape": [120], "dtype": "float32"}, {"name": "batch_normalization_44/gamma", "shape": [52], "dtype": "float32"}, {"name": "batch_normalization_44/beta", "shape": [52], "dtype": "float32"}, {"name": "batch_normalization_44/moving_mean", "shape": [52], "dtype": "float32"}, {"name": "batch_normalization_44/moving_variance", "shape": [52], "dtype": "float32"}, {"name": "batch_normalization_45/gamma", "shape": [52], "dtype": "float32"}, {"name": "batch_normalization_45/beta", "shape": [52], "dtype": "float32"}, {"name": "batch_normalization_45/moving_mean", "shape": [52], "dtype": "float32"}, {"name": "batch_normalization_45/moving_variance", "shape": [52], "dtype": "float32"}, {"name": "batch_normalization_46/gamma", "shape": [312], "dtype": "float32"}, {"name": "batch_normalization_46/beta", "shape": [312], "dtype": "float32"}, {"name": "batch_normalization_46/moving_mean", "shape": [312], "dtype": "float32"}, {"name": "batch_normalization_46/moving_variance", "shape": [312], "dtype": "float32"}, {"name": "batch_normalization_47/gamma", "shape": [312], "dtype": "float32"}, {"name": "batch_normalization_47/beta", "shape": [312], "dtype": "float32"}, {"name": "batch_normalization_47/moving_mean", "shape": [312], "dtype": "float32"}, {"name": "batch_normalization_47/moving_variance", "shape": [312], "dtype": "float32"}, {"name": "batch_normalization_48/gamma", "shape": [72], "dtype": "float32"}, {"name": "batch_normalization_48/beta", "shape": [72], "dtype": "float32"}, {"name": "batch_normalization_48/moving_mean", "shape": [72], "dtype": "float32"}, {"name": "batch_normalization_48/moving_variance", "shape": [72], "dtype": "float32"}, {"name": "batch_normalization_49/gamma", "shape": [72], "dtype": "float32"}, {"name": "batch_normalization_49/beta", "shape": [72], "dtype": "float32"}, {"name": "batch_normalization_49/moving_mean", "shape": [72], "dtype": "float32"}, {"name": "batch_normalization_49/moving_variance", "shape": [72], "dtype": "float32"}, {"name": "batch_normalization_5/gamma", "shape": [32], "dtype": "float32"}, {"name": "batch_normalization_5/beta", "shape": [32], "dtype": "float32"}, {"name": "batch_normalization_5/moving_mean", "shape": [32], "dtype": "float32"}, {"name": "batch_normalization_5/moving_variance", "shape": [32], "dtype": "float32"}, {"name": "batch_normalization_50/gamma", "shape": [104], "dtype": "float32"}, {"name": "batch_normalization_50/beta", "shape": [104], "dtype": "float32"}, {"name": "batch_normalization_50/moving_mean", "shape": [104], "dtype": "float32"}, {"name": "batch_normalization_50/moving_variance", "shape": [104], "dtype": "float32"}, {"name": "batch_normalization_51/gamma", "shape": [144], "dtype": "float32"}, {"name": "batch_normalization_51/beta", "shape": [144], "dtype": "float32"}, {"name": "batch_normalization_51/moving_mean", "shape": [144], "dtype": "float32"}, {"name": "batch_normalization_51/moving_variance", "shape": [144], "dtype": "float32"}, {"name": "batch_normalization_52/gamma", "shape": [436], "dtype": "float32"}, {"name": "batch_normalization_52/beta", "shape": [436], "dtype": "float32"}, {"name": "batch_normalization_52/moving_mean", "shape": [436], "dtype": "float32"}, {"name": "batch_normalization_52/moving_variance", "shape": [436], "dtype": "float32"}, {"name": "batch_normalization_53/gamma", "shape": [436], "dtype": "float32"}, {"name": "batch_normalization_53/beta", "shape": [436], "dtype": "float32"}, {"name": "batch_normalization_53/moving_mean", "shape": [436], "dtype": "float32"}, {"name": "batch_normalization_53/moving_variance", "shape": [436], "dtype": "float32"}, {"name": "batch_normalization_54/gamma", "shape": [72], "dtype": "float32"}, {"name": "batch_normalization_54/beta", "shape": [72], "dtype": "float32"}, {"name": "batch_normalization_54/moving_mean", "shape": [72], "dtype": "float32"}, {"name": "batch_normalization_54/moving_variance", "shape": [72], "dtype": "float32"}, {"name": "batch_normalization_55/gamma", "shape": [72], "dtype": "float32"}, {"name": "batch_normalization_55/beta", "shape": [72], "dtype": "float32"}, {"name": "batch_normalization_55/moving_mean", "shape": [72], "dtype": "float32"}, {"name": "batch_normalization_55/moving_variance", "shape": [72], "dtype": "float32"}, {"name": "batch_normalization_56/gamma", "shape": [436], "dtype": "float32"}, {"name": "batch_normalization_56/beta", "shape": [436], "dtype": "float32"}, {"name": "batch_normalization_56/moving_mean", "shape": [436], "dtype": "float32"}, {"name": "batch_normalization_56/moving_variance", "shape": [436], "dtype": "float32"}, {"name": "batch_normalization_57/gamma", "shape": [436], "dtype": "float32"}, {"name": "batch_normalization_57/beta", "shape": [436], "dtype": "float32"}, {"name": "batch_normalization_57/moving_mean", "shape": [436], "dtype": "float32"}, {"name": "batch_normalization_57/moving_variance", "shape": [436], "dtype": "float32"}, {"name": "batch_normalization_58/gamma", "shape": [872], "dtype": "float32"}, {"name": "batch_normalization_58/beta", "shape": [872], "dtype": "float32"}, {"name": "batch_normalization_58/moving_mean", "shape": [872], "dtype": "float32"}, {"name": "batch_normalization_58/moving_variance", "shape": [872], "dtype": "float32"}, {"name": "batch_normalization_59/gamma", "shape": [104], "dtype": "float32"}, {"name": "batch_normalization_59/beta", "shape": [104], "dtype": "float32"}, {"name": "batch_normalization_59/moving_mean", "shape": [104], "dtype": "float32"}, {"name": "batch_normalization_59/moving_variance", "shape": [104], "dtype": "float32"}, {"name": "batch_normalization_6/gamma", "shape": [32], "dtype": "float32"}, {"name": "batch_normalization_6/beta", "shape": [32], "dtype": "float32"}, {"name": "batch_normalization_6/moving_mean", "shape": [32], "dtype": "float32"}, {"name": "batch_normalization_6/moving_variance", "shape": [32], "dtype": "float32"}, {"name": "batch_normalization_60/gamma", "shape": [104], "dtype": "float32"}, {"name": "batch_normalization_60/beta", "shape": [104], "dtype": "float32"}, {"name": "batch_normalization_60/moving_mean", "shape": [104], "dtype": "float32"}, {"name": "batch_normalization_60/moving_variance", "shape": [104], "dtype": "float32"}, {"name": "batch_normalization_61/gamma", "shape": [144], "dtype": "float32"}, {"name": "batch_normalization_61/beta", "shape": [144], "dtype": "float32"}, {"name": "batch_normalization_61/moving_mean", "shape": [144], "dtype": "float32"}, {"name": "batch_normalization_61/moving_variance", "shape": [144], "dtype": "float32"}, {"name": "batch_normalization_62/gamma", "shape": [208], "dtype": "float32"}, {"name": "batch_normalization_62/beta", "shape": [208], "dtype": "float32"}, {"name": "batch_normalization_62/moving_mean", "shape": [208], "dtype": "float32"}, {"name": "batch_normalization_62/moving_variance", "shape": [208], "dtype": "float32"}, {"name": "batch_normalization_63/gamma", "shape": [624], "dtype": "float32"}, {"name": "batch_normalization_63/beta", "shape": [624], "dtype": "float32"}, {"name": "batch_normalization_63/moving_mean", "shape": [624], "dtype": "float32"}, {"name": "batch_normalization_63/moving_variance", "shape": [624], "dtype": "float32"}, {"name": "batch_normalization_64/gamma", "shape": [624], "dtype": "float32"}, {"name": "batch_normalization_64/beta", "shape": [624], "dtype": "float32"}, {"name": "batch_normalization_64/moving_mean", "shape": [624], "dtype": "float32"}, {"name": "batch_normalization_64/moving_variance", "shape": [624], "dtype": "float32"}, {"name": "batch_normalization_65/gamma", "shape": [104], "dtype": "float32"}, {"name": "batch_normalization_65/beta", "shape": [104], "dtype": "float32"}, {"name": "batch_normalization_65/moving_mean", "shape": [104], "dtype": "float32"}, {"name": "batch_normalization_65/moving_variance", "shape": [104], "dtype": "float32"}, {"name": "batch_normalization_66/gamma", "shape": [104], "dtype": "float32"}, {"name": "batch_normalization_66/beta", "shape": [104], "dtype": "float32"}, {"name": "batch_normalization_66/moving_mean", "shape": [104], "dtype": "float32"}, {"name": "batch_normalization_66/moving_variance", "shape": [104], "dtype": "float32"}, {"name": "batch_normalization_67/gamma", "shape": [624], "dtype": "float32"}, {"name": "batch_normalization_67/beta", "shape": [624], "dtype": "float32"}, {"name": "batch_normalization_67/moving_mean", "shape": [624], "dtype": "float32"}, {"name": "batch_normalization_67/moving_variance", "shape": [624], "dtype": "float32"}, {"name": "batch_normalization_68/gamma", "shape": [624], "dtype": "float32"}, {"name": "batch_normalization_68/beta", "shape": [624], "dtype": "float32"}, {"name": "batch_normalization_68/moving_mean", "shape": [624], "dtype": "float32"}, {"name": "batch_normalization_68/moving_variance", "shape": [624], "dtype": "float32"}, {"name": "batch_normalization_69/gamma", "shape": [104], "dtype": "float32"}, {"name": "batch_normalization_69/beta", "shape": [104], "dtype": "float32"}, {"name": "batch_normalization_69/moving_mean", "shape": [104], "dtype": "float32"}, {"name": "batch_normalization_69/moving_variance", "shape": [104], "dtype": "float32"}, {"name": "batch_normalization_7/gamma", "shape": [64], "dtype": "float32"}, {"name": "batch_normalization_7/beta", "shape": [64], "dtype": "float32"}, {"name": "batch_normalization_7/moving_mean", "shape": [64], "dtype": "float32"}, {"name": "batch_normalization_7/moving_variance", "shape": [64], "dtype": "float32"}, {"name": "batch_normalization_70/gamma", "shape": [104], "dtype": "float32"}, {"name": "batch_normalization_70/beta", "shape": [104], "dtype": "float32"}, {"name": "batch_normalization_70/moving_mean", "shape": [104], "dtype": "float32"}, {"name": "batch_normalization_70/moving_variance", "shape": [104], "dtype": "float32"}, {"name": "batch_normalization_71/gamma", "shape": [624], "dtype": "float32"}, {"name": "batch_normalization_71/beta", "shape": [624], "dtype": "float32"}, {"name": "batch_normalization_71/moving_mean", "shape": [624], "dtype": "float32"}, {"name": "batch_normalization_71/moving_variance", "shape": [624], "dtype": "float32"}, {"name": "batch_normalization_72/gamma", "shape": [624], "dtype": "float32"}, {"name": "batch_normalization_72/beta", "shape": [624], "dtype": "float32"}, {"name": "batch_normalization_72/moving_mean", "shape": [624], "dtype": "float32"}, {"name": "batch_normalization_72/moving_variance", "shape": [624], "dtype": "float32"}, {"name": "batch_normalization_73/gamma", "shape": [104], "dtype": "float32"}, {"name": "batch_normalization_73/beta", "shape": [104], "dtype": "float32"}, {"name": "batch_normalization_73/moving_mean", "shape": [104], "dtype": "float32"}, {"name": "batch_normalization_73/moving_variance", "shape": [104], "dtype": "float32"}, {"name": "batch_normalization_74/gamma", "shape": [104], "dtype": "float32"}, {"name": "batch_normalization_74/beta", "shape": [104], "dtype": "float32"}, {"name": "batch_normalization_74/moving_mean", "shape": [104], "dtype": "float32"}, {"name": "batch_normalization_74/moving_variance", "shape": [104], "dtype": "float32"}, {"name": "batch_normalization_75/gamma", "shape": [332], "dtype": "float32"}, {"name": "batch_normalization_75/beta", "shape": [332], "dtype": "float32"}, {"name": "batch_normalization_75/moving_mean", "shape": [332], "dtype": "float32"}, {"name": "batch_normalization_75/moving_variance", "shape": [332], "dtype": "float32"}, {"name": "batch_normalization_76/gamma", "shape": [332], "dtype": "float32"}, {"name": "batch_normalization_76/beta", "shape": [332], "dtype": "float32"}, {"name": "batch_normalization_76/moving_mean", "shape": [332], "dtype": "float32"}, {"name": "batch_normalization_76/moving_variance", "shape": [332], "dtype": "float32"}, {"name": "batch_normalization_77/gamma", "shape": [104], "dtype": "float32"}, {"name": "batch_normalization_77/beta", "shape": [104], "dtype": "float32"}, {"name": "batch_normalization_77/moving_mean", "shape": [104], "dtype": "float32"}, {"name": "batch_normalization_77/moving_variance", "shape": [104], "dtype": "float32"}, {"name": "batch_normalization_78/gamma", "shape": [104], "dtype": "float32"}, {"name": "batch_normalization_78/beta", "shape": [104], "dtype": "float32"}, {"name": "batch_normalization_78/moving_mean", "shape": [104], "dtype": "float32"}, {"name": "batch_normalization_78/moving_variance", "shape": [104], "dtype": "float32"}, {"name": "batch_normalization_79/gamma", "shape": [664], "dtype": "float32"}, {"name": "batch_normalization_79/beta", "shape": [664], "dtype": "float32"}, {"name": "batch_normalization_79/moving_mean", "shape": [664], "dtype": "float32"}, {"name": "batch_normalization_79/moving_variance", "shape": [664], "dtype": "float32"}, {"name": "batch_normalization_8/gamma", "shape": [16], "dtype": "float32"}, {"name": "batch_normalization_8/beta", "shape": [16], "dtype": "float32"}, {"name": "batch_normalization_8/moving_mean", "shape": [16], "dtype": "float32"}, {"name": "batch_normalization_8/moving_variance", "shape": [16], "dtype": "float32"}, {"name": "batch_normalization_80/gamma", "shape": [664], "dtype": "float32"}, {"name": "batch_normalization_80/beta", "shape": [664], "dtype": "float32"}, {"name": "batch_normalization_80/moving_mean", "shape": [664], "dtype": "float32"}, {"name": "batch_normalization_80/moving_variance", "shape": [664], "dtype": "float32"}, {"name": "batch_normalization_81/gamma", "shape": [512], "dtype": "float32"}, {"name": "batch_normalization_81/beta", "shape": [512], "dtype": "float32"}, {"name": "batch_normalization_81/moving_mean", "shape": [512], "dtype": "float32"}, {"name": "batch_normalization_81/moving_variance", "shape": [512], "dtype": "float32"}, {"name": "batch_normalization_9/gamma", "shape": [16], "dtype": "float32"}, {"name": "batch_normalization_9/beta", "shape": [16], "dtype": "float32"}, {"name": "batch_normalization_9/moving_mean", "shape": [16], "dtype": "float32"}, {"name": "batch_normalization_9/moving_variance", "shape": [16], "dtype": "float32"}, {"name": "conv2d/kernel", "shape": [3, 3, 3, 20], "dtype": "float32"}, {"name": "conv2d_1/kernel", "shape": [1, 1, 20, 10], "dtype": "float32"}, {"name": "conv2d_10/kernel", "shape": [1, 1, 24, 92], "dtype": "float32"}, {"name": "conv2d_10/bias", "shape": [92], "dtype": "float32"}, {"name": "conv2d_11/kernel", "shape": [1, 1, 92, 26], "dtype": "float32"}, {"name": "conv2d_12/kernel", "shape": [1, 1, 32, 52], "dtype": "float32"}, {"name": "conv2d_13/kernel", "shape": [1, 1, 52, 78], "dtype": "float32"}, {"name": "conv2d_14/kernel", "shape": [1, 1, 156, 40], "dtype": "float32"}, {"name": "conv2d_14/bias", "shape": [40], "dtype": "float32"}, {"name": "conv2d_15/kernel", "shape": [1, 1, 40, 156], "dtype": "float32"}, {"name": "conv2d_15/bias", "shape": [156], "dtype": "float32"}, {"name": "conv2d_16/kernel", "shape": [1, 1, 156, 26], "dtype": "float32"}, {"name": "conv2d_17/kernel", "shape": [1, 1, 52, 156], "dtype": "float32"}, {"name": "conv2d_18/kernel", "shape": [1, 1, 312, 52], "dtype": "float32"}, {"name": "conv2d_19/kernel", "shape": [1, 1, 52, 104], "dtype": "float32"}, {"name": "conv2d_2/kernel", "shape": [1, 1, 20, 10], "dtype": "float32"}, {"name": "conv2d_20/kernel", "shape": [1, 1, 104, 130], "dtype": "float32"}, {"name": "conv2d_21/kernel", "shape": [1, 1, 260, 52], "dtype": "float32"}, {"name": "conv2d_22/kernel", "shape": [1, 1, 104, 120], "dtype": "float32"}, {"name": "conv2d_23/kernel", "shape": [1, 1, 240, 52], "dtype": "float32"}, {"name": "conv2d_24/kernel", "shape": [1, 1, 104, 120], "dtype": "float32"}, {"name": "conv2d_25/kernel", "shape": [1, 1, 240, 52], "dtype": "float32"}, {"name": "conv2d_26/kernel", "shape": [1, 1, 104, 312], "dtype": "float32"}, {"name": "conv2d_27/kernel", "shape": [1, 1, 624, 156], "dtype": "float32"}, {"name": "conv2d_27/bias", "shape": [156], "dtype": "float32"}, {"name": "conv2d_28/kernel", "shape": [1, 1, 156, 624], "dtype": "float32"}, {"name": "conv2d_28/bias", "shape": [624], "dtype": "float32"}, {"name": "conv2d_29/kernel", "shape": [1, 1, 624, 72], "dtype": "float32"}, {"name": "conv2d_3/kernel", "shape": [1, 1, 20, 32], "dtype": "float32"}, {"name": "conv2d_30/kernel", "shape": [1, 1, 104, 144], "dtype": "float32"}, {"name": "conv2d_31/kernel", "shape": [1, 1, 144, 436], "dtype": "float32"}, {"name": "conv2d_32/kernel", "shape": [1, 1, 872, 220], "dtype": "float32"}, {"name": "conv2d_32/bias", "shape": [220], "dtype": "float32"}, {"name": "conv2d_33/kernel", "shape": [1, 1, 220, 872], "dtype": "float32"}, {"name": "conv2d_33/bias", "shape": [872], "dtype": "float32"}, {"name": "conv2d_34/kernel", "shape": [1, 1, 872, 72], "dtype": "float32"}, {"name": "conv2d_35/kernel", "shape": [1, 1, 144, 436], "dtype": "float32"}, {"name": "conv2d_36/kernel", "shape": [1, 1, 872, 220], "dtype": "float32"}, {"name": "conv2d_36/bias", "shape": [220], "dtype": "float32"}, {"name": "conv2d_37/kernel", "shape": [1, 1, 220, 872], "dtype": "float32"}, {"name": "conv2d_37/bias", "shape": [872], "dtype": "float32"}, {"name": "conv2d_38/kernel", "shape": [1, 1, 872, 104], "dtype": "float32"}, {"name": "conv2d_39/kernel", "shape": [1, 1, 144, 208], "dtype": "float32"}, {"name": "conv2d_4/kernel", "shape": [1, 1, 64, 16], "dtype": "float32"}, {"name": "conv2d_40/kernel", "shape": [1, 1, 208, 624], "dtype": "float32"}, {"name": "conv2d_41/kernel", "shape": [1, 1, 1248, 104], "dtype": "float32"}, {"name": "conv2d_42/kernel", "shape": [1, 1, 208, 624], "dtype": "float32"}, {"name": "conv2d_43/kernel", "shape": [1, 1, 1248, 312], "dtype": "float32"}, {"name": "conv2d_43/bias", "shape": [312], "dtype": "float32"}, {"name": "conv2d_44/kernel", "shape": [1, 1, 312, 1248], "dtype": "float32"}, {"name": "conv2d_44/bias", "shape": [1248], "dtype": "float32"}, {"name": "conv2d_45/kernel", "shape": [1, 1, 1248, 104], "dtype": "float32"}, {"name": "conv2d_46/kernel", "shape": [1, 1, 208, 624], "dtype": "float32"}, {"name": "conv2d_47/kernel", "shape": [1, 1, 1248, 104], "dtype": "float32"}, {"name": "conv2d_48/kernel", "shape": [1, 1, 208, 332], "dtype": "float32"}, {"name": "conv2d_49/kernel", "shape": [1, 1, 664, 168], "dtype": "float32"}, {"name": "conv2d_49/bias", "shape": [168], "dtype": "float32"}, {"name": "conv2d_5/kernel", "shape": [1, 1, 20, 32], "dtype": "float32"}, {"name": "conv2d_50/kernel", "shape": [1, 1, 168, 664], "dtype": "float32"}, {"name": "conv2d_50/bias", "shape": [664], "dtype": "float32"}, {"name": "conv2d_51/kernel", "shape": [1, 1, 664, 104], "dtype": "float32"}, {"name": "conv2d_52/kernel", "shape": [1, 1, 208, 664], "dtype": "float32"}, {"name": "conv2d_53/kernel", "shape": [1, 1, 664, 512], "dtype": "float32"}, {"name": "conv2d_53/bias", "shape": [512], "dtype": "float32"}, {"name": "conv2d_6/kernel", "shape": [1, 1, 32, 46], "dtype": "float32"}, {"name": "conv2d_7/kernel", "shape": [1, 1, 92, 16], "dtype": "float32"}, {"name": "conv2d_8/kernel", "shape": [1, 1, 32, 46], "dtype": "float32"}, {"name": "conv2d_9/kernel", "shape": [1, 1, 92, 24], "dtype": "float32"}, {"name": "conv2d_9/bias", "shape": [24], "dtype": "float32"}, {"name": "depthwise_conv2d/depthwise_kernel", "shape": [3, 3, 10, 1], "dtype": "float32"}, {"name": "depthwise_conv2d_1/depthwise_kernel", "shape": [3, 3, 10, 1], "dtype": "float32"}, {"name": "depthwise_conv2d_10/depthwise_kernel", "shape": [3, 3, 26, 1], "dtype": "float32"}, {"name": "depthwise_conv2d_11/depthwise_kernel", "shape": [5, 5, 32, 1], "dtype": "float32"}, {"name": "depthwise_conv2d_12/depthwise_kernel", "shape": [3, 3, 78, 1], "dtype": "float32"}, {"name": "depthwise_conv2d_13/depthwise_kernel", "shape": [3, 3, 26, 1], "dtype": "float32"}, {"name": "depthwise_conv2d_14/depthwise_kernel", "shape": [3, 3, 156, 1], "dtype": "float32"}, {"name": "depthwise_conv2d_15/depthwise_kernel", "shape": [3, 3, 312, 1], "dtype": "float32"}, {"name": "depthwise_conv2d_16/depthwise_kernel", "shape": [3, 3, 52, 1], "dtype": "float32"}, {"name": "depthwise_conv2d_17/depthwise_kernel", "shape": [3, 3, 52, 1], "dtype": "float32"}, {"name": "depthwise_conv2d_18/depthwise_kernel", "shape": [3, 3, 130, 1], "dtype": "float32"}, {"name": "depthwise_conv2d_19/depthwise_kernel", "shape": [3, 3, 52, 1], "dtype": "float32"}, {"name": "depthwise_conv2d_2/depthwise_kernel", "shape": [3, 3, 32, 1], "dtype": "float32"}, {"name": "depthwise_conv2d_20/depthwise_kernel", "shape": [3, 3, 120, 1], "dtype": "float32"}, {"name": "depthwise_conv2d_21/depthwise_kernel", "shape": [3, 3, 52, 1], "dtype": "float32"}, {"name": "depthwise_conv2d_22/depthwise_kernel", "shape": [3, 3, 120, 1], "dtype": "float32"}, {"name": "depthwise_conv2d_23/depthwise_kernel", "shape": [3, 3, 52, 1], "dtype": "float32"}, {"name": "depthwise_conv2d_24/depthwise_kernel", "shape": [3, 3, 312, 1], "dtype": "float32"}, {"name": "depthwise_conv2d_25/depthwise_kernel", "shape": [3, 3, 72, 1], "dtype": "float32"}, {"name": "depthwise_conv2d_26/depthwise_kernel", "shape": [3, 3, 104, 1], "dtype": "float32"}, {"name": "depthwise_conv2d_27/depthwise_kernel", "shape": [3, 3, 436, 1], "dtype": "float32"}, {"name": "depthwise_conv2d_28/depthwise_kernel", "shape": [3, 3, 72, 1], "dtype": "float32"}, {"name": "depthwise_conv2d_29/depthwise_kernel", "shape": [3, 3, 436, 1], "dtype": "float32"}, {"name": "depthwise_conv2d_3/depthwise_kernel", "shape": [3, 3, 64, 1], "dtype": "float32"}, {"name": "depthwise_conv2d_30/depthwise_kernel", "shape": [5, 5, 872, 1], "dtype": "float32"}, {"name": "depthwise_conv2d_31/depthwise_kernel", "shape": [3, 3, 104, 1], "dtype": "float32"}, {"name": "depthwise_conv2d_32/depthwise_kernel", "shape": [5, 5, 144, 1], "dtype": "float32"}, {"name": "depthwise_conv2d_33/depthwise_kernel", "shape": [3, 3, 624, 1], "dtype": "float32"}, {"name": "depthwise_conv2d_34/depthwise_kernel", "shape": [3, 3, 104, 1], "dtype": "float32"}, {"name": "depthwise_conv2d_35/depthwise_kernel", "shape": [3, 3, 624, 1], "dtype": "float32"}, {"name": "depthwise_conv2d_36/depthwise_kernel", "shape": [3, 3, 104, 1], "dtype": "float32"}, {"name": "depthwise_conv2d_37/depthwise_kernel", "shape": [3, 3, 624, 1], "dtype": "float32"}, {"name": "depthwise_conv2d_38/depthwise_kernel", "shape": [3, 3, 104, 1], "dtype": "float32"}, {"name": "depthwise_conv2d_39/depthwise_kernel", "shape": [3, 3, 332, 1], "dtype": "float32"}, {"name": "depthwise_conv2d_4/depthwise_kernel", "shape": [3, 3, 16, 1], "dtype": "float32"}, {"name": "depthwise_conv2d_40/depthwise_kernel", "shape": [3, 3, 104, 1], "dtype": "float32"}, {"name": "depthwise_conv2d_41/depthwise_kernel", "shape": [7, 7, 664, 1], "dtype": "float32"}, {"name": "depthwise_conv2d_5/depthwise_kernel", "shape": [3, 3, 20, 1], "dtype": "float32"}, {"name": "depthwise_conv2d_6/depthwise_kernel", "shape": [3, 3, 46, 1], "dtype": "float32"}, {"name": "depthwise_conv2d_7/depthwise_kernel", "shape": [3, 3, 16, 1], "dtype": "float32"}, {"name": "depthwise_conv2d_8/depthwise_kernel", "shape": [3, 3, 46, 1], "dtype": "float32"}, {"name": "depthwise_conv2d_9/depthwise_kernel", "shape": [5, 5, 92, 1], "dtype": "float32"}]}]}